Covid/.darts/checkpoints/Air_RNN/checkpoint_397.pth.tar (torch_old, 266181 bytes, 51 tensors)

weight_ih_l0 f4 [100, 1]
00000000: 0b40 b13e 5b86 c43e 5c06 f63d dc90 b9bc
00000010: c342 173e 125a 4ebe e0f9 563e 0beb c13d
00000020: 86ed 3d3e 1fca 803e c8d0 a03d 69ba a33e
00000030: e16b 473e 8db2 4d3e 733a 6a3d c4ed f83d
00000040: 4215 863e 146b 733e 20eb 2c3e 7b6d fd3c
00000050: 53fa a8be a806 323e 2be0 b63d 54c7 c03e
00000060: dc6c 94bd 00e3 5ebe bdff a1bd 4604 b2be
00000070: 5e64 c7bd 1eb0 553e 3784 7dbe c79a 08bf
00000080: e4ea 3abc 4ec5 b3bb 73ce 9a3e 4b43 25bd
00000090: e502 b73d cd2e d7be 25f3 b03d ff8c b23d
000000a0: 3516 dcbd fa7f 183c e374 2c3e e2cd 5d3e
000000b0: 14ae 123e c3e6 1abf a2cd 993e 24a1 c83c
000000c0: 9b99 683e a61b 05bf 8c9e ff3e 40c5 ce3e
000000d0: 59fb e8be 5e3e d33d a5a3 cd3e 3bd4 9bbe
000000e0: f25b f2be d110 b93e 3dc4 c9be 5562 653e
000000f0: 36ac a53e 04ef 283e 362e eabe 61bd 51be
00000100: 91b3 953d 6165 a3be 49b9 2bbe 7303 5dbe
00000110: 6547 793e 2617 eabe 6a18 c2be aa7e 973e
00000120: 150d a73d 7107 3a3e 2457 a5be 9643 f43e
00000130: 3917 aa3e adea 4fbe cd26 1ebe 4c04 a03e
00000140: 672f dabd 91d7 393e 24cc 9d3e db0d a23e
00000150: 7f86 093e 96c3 b33e f550 2d3e 21b8 ca3e
00000160: b9ea b13e f3bd 45bd 85ef 843e bd10 b73c
00000170: 0dcd dc3d 28c3 eb3d d850 a83e deba 82be
00000180: 7e6e 393e 2512 d63d 2178 8a3e 5b0b 44be
0.34619173 0.38383755 0.12012932 -0.022652082 0.14771561 -0.20151547 0.20993757 0.09468659
0.18547639 0.25154206 0.07852322 0.31978157 0.19474746 0.20087643 0.057184648 0.12154725
0.26188093 0.23771316 0.16886568 0.030935993 -0.33003482 0.17385352 0.089294754 0.37652075
-0.07247326 -0.21766281 -0.07910106 -0.34768885 -0.097359404 0.20867965 -0.24757467 -0.5336117
-0.011408541 -0.005486167 0.30235633 -0.04034738 0.08936099 -0.42027894 0.08640126 0.08718299
-0.10746423 0.009307856 0.16841464 0.2166057 0.14324218 -0.60508364 0.30039698 0.0244909
0.22714846 -0.51995313 0.4992565 0.40384865 -0.45504263 0.1031463 0.40163913 -0.30435356
-0.47335774 0.36145642 -0.3940753 0.22400792 0.3235795 0.16497427 -0.4573838 -0.20482399
0.0730964 -0.31913283 -0.167699 -0.21583347 0.24343641 -0.45720786 -0.3790925 0.29588825
0.08156792 0.18166901 -0.32293046 0.47707814 0.33220842 -0.20304365 -0.15444489 0.31253278
-0.106535725 0.18148638 0.3081981 0.31651196 0.13430212 0.35110158 0.16925414 0.39593604
0.34749392 -0.048276853 0.2596399 0.022346849 0.10781298 0.115118325 0.3287418 -0.25533193
0.18108556 0.104526795 0.27044776 -0.19144957

weight_hh_l0 f4 [100, 25]
00000000: 30e5 a4be 186a 04be 7dfb 013d d3ec f23e
00000010: 7ffa 5dbe f508 5e3f 35eb 7c3e 337a 6cbd
00000020: 035b c0bd 41ea a53e 2d2f 59be 229b fd3e
00000030: 5409 223e c631 90be 7d1a f43e e8d9 f9bd
00000040: b92f 4ebf 1b70 83bd 73fb 003e c729 9a3e
00000050: bbb1 833e 096d b03c 3927 293f 31d7 113f
00000060: 8346 cb3e 3cf5 173e 22bd 9cbd 4593 0d3e
00000070: 238f 2d3e c70e 4c3e 715d e23e beef 44be
00000080: 7699 a83e 7d72 c0be b056 c53e 2a4a a03e
00000090: 8523 4e3e 2619 fd39 ba70 2bbd 5947 f33e
000000a0: 3fc6 ce3d ec54 92be d299 64be 1a09 963d
000000b0: c91f 20be df64 c33e d4ec c63d c5a3 703e
000000c0: 69a9 b63e c99c 9e3e 03de 4cbe c39d 92be
000000d0: ff5a 033e e64c 943d 24c1 aabe 5c39 9a3e
000000e0: 2182 af3e e8ed c2be 67d1 313d 59e5 08bd
000000f0: 8449 86bc ee90 013e d38c dc3e f975 f7bc
00000100: e553 883e 4197 173e 50b6 07bf f3de 81be
00000110: ea0f e13d 1e73 e23c 9d36 2e3e 3d2c a53d
00000120: 92b6 de3d fb57 e23e 7447 403e e47e 53be
00000130: d460 a4bd ae34 123e 671c 8abe 436f b7bd
00000140: 44b1 4dbc 3d03 39bd feee 2c3e 282d cdbd
00000150: 6cb1 06be fd5b c13d 901f 2abe daae a0bd
00000160: ea10 273d 538e a23d 4c32 083e 00ae 623c
00000170: 5d0f bfbd 5aee d23d f8ef 1ebd 7d2b 45be
00000180: 4234 973e d105 24bb cda7 45be 463c 843d
00000190: e397 c8bd 5281 6a3d 5cca c33d b5a1 013e
000001a0: f7a7 ba3d 5504 073f a93b ca3d 726e 083e
000001b0: 1802 f53c 1982 373e 7255 ddbd aef0 c03e
000001c0: 2d13 5e3e 23b8 b6bc a402 6c3e f61d e83c
000001d0: aae5 91be 1623 b1be dcf1 083e 0278 9b3d
000001e0: 7bc9 ad3e 88cd 703c 7f90 853e 3c8d 8f3e
000001f0: 4b3d f83e f277 11bd dd95 30bd c0a5 d83c
00000200: 826a 05bd 0100 35be 9a87 cabd bc99 343e
00000210: 60e1 6dbc d47d 5bbe ce8d e9bd 1792 793d
00000220: 916a 7d3c 1335 1fbd 9d5b 67be 636f 593e
00000230: 7ccd aabd d9be 86be 0278 9cbd a366 1f3e
00000240: 3130 cebd 88d2 e63d 4677 d4bd 2f30 b33d
00000250: 7d36 353e 7dcf 163e e7d9 c0be a85e 003d
00000260: 101a ab3e 2f4c ab3e fce8 bdbe b57f 283f
00000270: 2d5e c83e 595f 8cbe aee6 ecbc 5046 c23d
00000280: f817 72be df45 a13e 5f11 a73e b778 0fbe
00000290: dbbd de3e 6ea9 3c3e 9ad1 37bf 5fc2 ccbe
000002a0: ad55 e53d c3a3 1fbd 3397 1f3e bf1f 793b
000002b0: 8ba9 e33e 7d20 143f 050d b63e caaf 92be
000002c0: 9550 733e 2185 363e 9d9d 053e 8ab9 1fbd
000002d0: 729e 283f 3ca9 3f3e dd6b 36bd c1d9 edbd
000002e0: d047 c33e df27 a73c 37f7 073f 48b8 e23e
000002f0: 5271 90be f772 f03e d09f 87bc 1742 02bf
00000300: ffe3 b8be b90a 7f3e c4e3 87bd 854e c83e
00000310: 60c8 7c3c d2dd bd3e bbee eb3e ae9f a33e
00000320: 8e9a 9abe 6699 af3d 68a6 863e 2540 be3e
00000330: c716 363e 7318 e43e 8335 cdbd 13fa 1d3d
00000340: 0a73 3cbd 5fa9 803e 6206 3abe 57e8 6a3e
00000350: 8321 003d 8027 f5bd 9685 c03e 6d0b a8bb
00000360: f80c d5be 43fc 0ebe 0b78 213e 0d17 8fbd
00000370: 33e4 d83e 0679 aebd 1bdd e83e ce59 293f
00000380: 3bdb cc3e 5994 4bbd 96f5 c43e b36f 733d
00000390: 7553 273e 973a 13bd fab2 443b 7ae7 5ebe
000003a0: a5f8 2c3e 508b f5bd 8134 95bb 5156 923d
000003b0: c30f 8f3e 3d19 b1bd 73ba 4abd 221a 573e
000003c0: cc45 57bd daf3 c9be 4dd2 a3be 97de 7b3e
000003d0: e86d 7c3d b8f0 0e3e 8219 343e fe96 7d3d
000003e0: 64b9 0a3e 65e4 7f3e d361 713c 49f4 633d
000003f0: 5b74 5d3e 0781 163e 2ae3 5a3e a6e0 f13e
-0.32206106 -0.12931097 0.03173398 0.47446308 -0.21677588 0.8673242 0.246991 -0.057733726
-0.09392359 0.32405284 -0.21209402 0.4953242 0.15823871 -0.28162974 0.4767646 -0.121997654
-0.8054157 -0.06417867 0.1259592 0.3011 0.25721535 0.021536367 0.66075474 0.5696898
0.39702234 0.14839643 -0.07653262 0.1382571 0.16949134 0.19927512 0.44211915 -0.1923208
0.3292958 -0.37587348 0.385427 0.31306583 0.20130737 0.00048274657 -0.04185555 0.4751537
0.10096406 -0.28580415 -0.22324303 0.07325955 -0.15637125 0.38162896 0.0971314 0.23499973
0.35676125 0.30978993 -0.20006566 -0.28635988 0.12827681 0.0724123 -0.3335048 0.30121887
0.34278968 -0.38072133 0.043412592 -0.033421848 -0.016392477 0.12652943 0.4307619 -0.030207621
0.26626506 0.14803793 -0.5301256 -0.2536541 0.109893635 0.027642783 0.17013021 0.080650784
0.10874666 0.4420775 0.18777257 -0.20653874 -0.08026281 0.14277908 -0.26974794 -0.08956768
-0.01255447 -0.045169104 0.16888043 -0.100183785 -0.13153619 0.094413735 -0.16613603 -0.0784585
0.040787615 0.079373024 0.13300437 0.01383543 -0.09329102 0.10299368 -0.03880307 -0.1925487
0.29532057 -0.002502788 -0.19302292 0.06456809 -0.09794595 0.057252236 0.09560081 0.12659343
0.09114068 0.52740985 0.098746605 0.13323382 0.029908225 0.17920722 -0.10807313 0.37683624
0.21687002 -0.0223046 0.23047882 0.028334599 -0.28495532 -0.3459708 0.13373512 0.07591249
0.3394278 0.01469744 0.26086804 0.2803744 0.48484263 -0.03551478 -0.04311167 0.026446223
-0.032572277 -0.17675783 -0.09889145 0.1763677 -0.014519066 -0.21434718 -0.11404 0.060930338
0.015467302 -0.038868975 -0.22593541 0.21233897 -0.08339974 -0.2631748 -0.07640077 0.15566497
-0.100677855 0.112706244 -0.10374312 0.08749425 0.17696567 0.14727588 -0.37666246 0.03134027
0.33418322 0.3345656 -0.37091815 0.65819865 0.3913435 -0.27416494 -0.02891859 0.09486067
-0.23641956 0.3149862 0.3263044 -0.14010893 0.43504223 0.18424007 -0.718042 -0.39992043
0.11197982 -0.038974535 0.15585022 0.0038013307 0.4446529 0.57862073 0.35556808 -0.2864974
0.23761208 0.17824222 0.13048406 -0.038995303 0.6586677 0.18716902 -0.04453646 -0.11613799
0.38140726 0.020404754 0.53111595 0.4428122 -0.28211457 0.4696271 -0.016555697 -0.50882095
-0.36111447 0.24906434 -0.0663524 0.39122406 0.0154286325 0.37083298 0.46080574 0.31957763
-0.3019604 0.0857418 0.26298833 0.37158313 0.17782126 0.44549903 -0.10019972 0.038568567
-0.046008147 0.2512922 -0.18166497 0.22940193 0.03128196 -0.11970425 0.37601918 -0.005128315
-0.41611457 -0.13963418 0.15768449 -0.069868185 0.42361602 -0.08519177 0.4548119 0.66152656
0.4001101 -0.049702022 0.38468617 0.059432697 0.1634043 -0.035944548 0.0030013905 -0.21767989
0.16891725 -0.119894624 -0.004553378 0.0714537 0.27941713 -0.08647392 -0.049494218 0.21006063
-0.052556798 -0.39443856 -0.31996384 0.2459663 0.061628252 0.13959014 0.17587855 0.061911575
0.13547283 0.2498947 0.014732796 0.05565289 0.21626417 0.14697658 0.21375719 0.47241706

bias_ih_l0 f4 [100]
00000000: 6561 5a3f ca64 c73e ab35 ad3d 70b5 653d
00000010: 9355 733e bb0b 643d 05fe 8f3e f70b db3e
00000020: 84e5 063f 94c0 a13d 0039 f03e f7ab 673b
00000030: caff 153f 99ad a9bd 73c6 50be 6dba 9f3e
00000040: 6236 d83e a034 483e 144a 073e 855d 9d3e
00000050: b43c 81bd 67d8 a83e 1e5e ebbd e337 453e
00000060: 843d 9e3d cc27 c5be 3170 55be 8a3b 4fbe
00000070: 4372 e2bb 4468 57bd ee4b 953d 2d1f 3fbe
00000080: f54e ffbb 179e a6be 6d0a 0bbc a45e 003e
00000090: 0dba 68be fa28 5bbe 6019 7dbd 65dc 0bbe
000000a0: c47d 8abe 46ce 633e 8b77 363c 1e4d c1bb
000000b0: 4fd8 65bd 54d4 b93d 607f 1abe 0d65 0abe
000000c0: 0add 163e 79d1 2e3c a30c f1bd dc61 e3bd
000000d0: 1558 033e 647b dfba 3bcd 19bd f7c3 c63d
000000e0: c45a 803d cf1c 41be f0c7 cb3d d63d a0bd
000000f0: 0441 68bd c520 e6bd c5ea 0b3e d4e5 073e
00000100: 2e69 3fbe 93d7 f6bc 133c 9d3d e31e c2bc
00000110: 0b42 82bc d06b 50bd 948f 013e 5997 ddbd
00000120: 9463 bb3d 5e7d de3d 7fe1 0b3e 4c82 483f
00000130: c122 1c3e 63f4 353e 2ea5 e1bd 7043 903e
00000140: a0ae 3c3e f279 de3e aa85 a33e a569 083f
00000150: a433 ed3c 390e c83e db8f 02be 2c33 cc3e
00000160: af30 453e 6129 4f3e 2228 d73e 8335 4e3e
00000170: 7604 eebc 2214 b6bd b176 b03e 4ced 16bd
00000180: f7ee 7f3e fc6b 51be 156c dabd 6e3b d83d
0.8530486 0.38944083 0.08457502 0.056081235 0.23763113 0.05567525 0.2812349 0.42782566
0.52693963 0.078980595 0.46918488 0.0035350302 0.5859343 -0.08285064 -0.20388202 0.3119692
0.4222899 0.19551325 0.13211852 0.30735412 -0.06310406 0.32977602 -0.11492561 0.192596
0.07726577 -0.38506925 -0.20843579 -0.20237556 -0.0069105937 -0.05258967 0.07289873 -0.18664236
-0.007791395 -0.32542488 -0.008486372 0.12536103 -0.22727223 -0.2140235 -0.061791778 -0.13658293
-0.27049077 0.22246656 0.0111369 -0.0058990857 -0.05611449 0.090737015 -0.15087652 -0.1351511
0.14732757 0.010670059 -0.117699884 -0.111026496 0.1282657 -0.0017050323 -0.03754924 0.09705346
0.06267312 -0.18858646 0.099502444 -0.07824294 -0.05670263 -0.11236719 0.13663776 0.13271266
-0.18692467 -0.03013209 0.07677474 -0.023696369 -0.015900632 -0.050884068 0.12652427 -0.10819883
0.091498524 0.10863756 0.13660239 0.7832382 0.15247633 0.17769007 -0.11017834 0.2817645
0.18425989 0.43452412 0.31937915 0.532862 0.028955288 0.3907335 -0.12750189 0.3988279
0.19256853 0.20230629 0.42022806 0.201376 -0.029054862 -0.08890559 0.34465554 -0.036847398
0.24993502 -0.20451349 -0.10665146 0.1055821

bias_hh_l0 f4 [100]
00000000: d645 413f ef13 883e 69ba c23e fc82 85be
00000010: 4c69 de3e 8a4c 1a3e 5b8c ab3e acdd 113e
00000020: fa58 193f fed1 92bd ae1c e63e 8f6e 16be
00000030: 4f5b ad3e 2698 f33d 71e4 dcbc 48de cf3e
00000040: 70ec 1a3e 18b3 2cbd 64a5 d73d f467 2b3e
00000050: 10cb a83d 5f96 b63d 6de9 88bd d373 823e
00000060: 4226 6d3e 523f 99be 3e43 58be 4053 09be
00000070: 5e12 42be a271 fbbd 3aed 13bd 5e57 99be
00000080: 7845 a3bc 2e8d a2be cbf9 3abe b9da 61be
00000090: 5f84 913d 8fc3 923c 9ea0 193d 2276 1fbe
000000a0: 58e2 ddbd fb72 4d3e 1193 c13c 4500 d9bd
000000b0: aa83 b63d 09d8 9a3d 2c53 00be 85c6 db3b
000000c0: 67f4 b2bd bbcc 4b3c 5461 36bd 8bb7 2cbd
000000d0: 7aa8 b63c 904b 043e 3961 a3bd 28a2 023e
000000e0: be79 9d3d 8674 a53d 30c2 f6ba d6c2 4b3d
000000f0: 581f 02bd 80f8 883d 63a3 6b3c a61b b0bd
00000100: f362 083e 8f37 0c3e 1875 53bd 573a ca3d
00000110: 68d0 cebc 5d65 1c3e 8d5a 233d ee58 ec3c
00000120: 65c6 e83d 8371 4a3c 403f 55bd f4bb 273f
00000130: b970 a33e d20d 953e 8028 d33d af81 a63e
00000140: e39c a93d 626b 033f f716 333e 217b 033f
00000150: 4e26 693e b81a 363e ed11 c2bd aa5c a93e
00000160: 03f3 513e f7a5 1cbe ddc5 aa3e c612 7c3e
00000170: 898a 433d 854b 433e b889 8a3e 4b74 34bd
00000180: 6be9 413e 07c5 eebd 1665 c8bd b8d2 443e
0.75497186 0.26577708 0.38032845 -0.26076496 0.4343971 0.1506826 0.3350552 0.14244717
0.5990139 -0.07168959 0.44943756 -0.14690612 0.33858725 0.118942544 -0.026964398 0.40599275
0.15129256 -0.042162985 0.10529593 0.16738874 0.08241856 0.089154 -0.066851474 0.25478992
0.23159125 -0.29931122 -0.21119401 -0.13410664 -0.18952319 -0.12277533 -0.03611491 -0.29949468
-0.019930586 -0.31748337 -0.18259351 -0.22056092 0.07105326 0.017915515 0.037506692 -0.15572408
-0.10834187 0.20063393 0.023629697 -0.105957545 0.08911832 0.07560737 -0.12531728 0.006707015
-0.08738022 0.012438948 -0.044526413 -0.042167228 0.022297133 0.1291945 -0.07977528 0.1275717
0.07689236 0.08078866 -0.0018826183 0.049746357 -0.031768173 0.066880226 0.014382216 -0.085990235
0.13318996 0.13693069 -0.05162534 0.09874409 -0.02524586 0.15273042 0.039881278 0.028850999
0.11365966 0.012356165 -0.052062273 0.6552117 0.31921938 0.29112107 0.10310459 0.32520816
0.08281877 0.5133573 0.17489229 0.51359755 0.22768518 0.1778363 -0.09476075 0.3307851
0.20502858 -0.15297686 0.33354083 0.24616536 0.04773954 0.19071777 0.27058196 -0.044056218
0.18936698 -0.11658674 -0.097849056 0.19221008

weight_ih_l1 f4 [100, 25]
00000000: 9e42 eabd b30d b43e eab2 5a3d dce8 763e
00000010: 797a 6dbc a8ca 583e 0c15 93be c4d8 703d
00000020: b833 dcbd 0e34 7a3e 7c75 a3bb 2273 abbd
00000030: 6f8e 81be 1412 cd3d 66c2 913e 2530 83be
00000040: 6509 63bd 2958 4abe 9e8b 01bd f184 c9bc
00000050: 8153 28be c7f7 cbbd d971 923e fc91 903e
00000060: 9725 103d fdf0 9f3d ef7e c13d bd19 ed3d
00000070: 3ba9 a03d fa87 f33d 3d46 95bd 3390 31be
00000080: b71b 9a3d 8d96 c13c cb18 943d 1815 c03d
00000090: ebbc 6d3e 60fb 6abe 1944 6b3d 0221 263e
000000a0: d73d ddbd 9a88 113b 6036 b7be 23e0 adbc
000000b0: 2813 9dbd 36d3 ebbd a585 ba3c bb4c bc3d
000000c0: 1a2c e83d a512 853e ae83 f93c 7d22 463a
000000d0: a832 c9bb 5ef3 4bbe c73c 0c3e 8cc4 3dbe
000000e0: 0d69 ae3c faba a23e 85bb b2bd 1240 ef3d
000000f0: ff0b fabb 1df2 c33d 42c9 f8bd 1171 c83c
00000100: bce2 41bc 1680 87bd e3e5 c83d 9482 013c
00000110: 15db c5bd f0c9 8bbe 849f 9cbe eb7f 19be
00000120: f78a 133a 4d82 243d 0a18 1e3d 105d 1fbd
00000130: 7020 8e3e 28d1 15bd 7e07 f63d c5d3 bd3d
00000140: 94a0 2ebd 7498 a2be e4b6 fb3d a90b 85be
00000150: 004d 0f3e 2079 463e 40d9 2a3e 77d6 9cbc
00000160: cec1 2dbe 2024 8d3e 19b8 59bd bff2 d9bc
00000170: 0959 c0bc 3c94 3d3e c943 2f3d 781d 063d
00000180: 2ed4 dd3d f994 663b 2837 ddbc da6a 9a3c
00000190: 45c3 98be e422 8fbc 51db 663e d5b5 cf3d
000001a0: 8656 12bf 1a3a 933e 6f1c 9a3d 0053 a4be
000001b0: 550c d33e 0f2f 17be 49ed c1be 6341 37be
000001c0: 8f00 bf3e 1bce d63e 3efd ddbb 9869 493e
000001d0: a90b 36bd 3503 093e e55d ccbd 5abb aa3e
000001e0: 2cfe 2b3c e61b a9be b5d8 01bd d413 c03c
000001f0: 876e f93e 1e85 343c f2ae d83e dfd1 70be
00000200: c1c4 433e f626 c33d 5dfd 643e e0c7 86be
00000210: 8602 d33c c27c 85be 335e 1d3e 7234 c63d
00000220: 7a78 a83e 49e4 45be 3209 a63c 1a0d 743e
00000230: 9eb4 13be c5d9 00be 52b2 a8be 66ad 143e
00000240: da5b e6bb f9ed e73c 4636 243d b586 9d3d
00000250: d8df 313e 4704 f53d b5e8 983c b596 e63d
00000260: e0f0 0f3e 5e43 b53d d9df ff3d 38bf cf3d
00000270: ae18 5d3d 96c9 783e 279c bb3b 16aa c93d
00000280: 6566 803e 9437 c73d 9526 8dbd e379 e1bd
00000290: cb33 213d e1a0 41bc 1233 1bbe ffd8 ffbc
000002a0: 1125 a03c 1f53 b7be e97c 6fbe 4293 3d3e
000002b0: 381a a7bd 328a a6bd f08e d03d 6232 abbd
000002c0: 34bf c13e f31a f13d e293 983e e480 82bd
000002d0: 724d d83b 7483 91bd 8334 363e 3563 3abe
000002e0: 1eb3 373e 12d8 8eba bc8b 363e 33d5 a5bd
000002f0: 1d2b 34be 3d62 703e 06b7 7dbd be37 b6bc
00000300: 523c 9a3a b565 093e a229 c0bd 6e05 03be
00000310: d2e7 853e d321 8e3d 940e dcbd 1657 003e
00000320: 5005 1ebe 626c 1bbe 7c50 583d 868e 6abd
00000330: 3b5a 4c3e 62c6 3c3e ccae 893d 10f1 863e
00000340: 5e02 4cbe c46c 6b3e 4841 093d aae8 6c3e
00000350: bc05 393e 861d 683e 96ad 103e 420e 88be
00000360: ed01 ef3d b352 3f3d 9500 84bd 8559 94bd
00000370: 1152 213d df52 f4bd 92a7 933e 7855 1f3d
00000380: f382 0e3e 65ce 3c3e dee2 323e eb12 0cbe
00000390: f92f 563e 967e c83d 46fa 683e e3cc acbe
000003a0: 28b1 ca3e 3198 b2be 374e a43e 5541 aa3e
000003b0: 29c1 e0bc fc0e 4abe baa0 c5bc 58f6 4b3e
000003c0: ec00 31be 2604 13bd 1433 1dbe 5981 9f3e
000003d0: f3ab 17be c786 edbd ccfd 593e cb13 0e3e
000003e0: d5df 4d3e a9f7 ca3d 889e 933e cff3 ab3d
000003f0: 2913 eabd 2099 673e d00e 983e 84f0 5e3d
-0.114384875 0.35166702 0.053393282 0.24112266 -0.014494532 0.21171057 -0.28726995 0.058800474
-0.10752052 0.2443392 -0.0049883705 -0.08371569 -0.2530398 0.10013214 0.28468627 -0.2562267
-0.05542888 -0.19760193 -0.03162729 -0.024599524 -0.16438104 -0.09959369 0.28602484 0.28236377
0.0351921 0.07809637 0.09448039 0.11577175 0.07844778 0.1189117 -0.072887875 -0.17340164
0.075248174 0.023631359 0.072312914 0.09379023 0.23216598 -0.22947454 0.05743799 0.16223529
-0.10802811 0.0022206665 -0.35783672 -0.02122504 -0.076696694 -0.11514895 0.022768805 0.09194323
0.11336537 0.25990787 0.030458298 0.000755824 -0.006140072 -0.19917056 0.1369506 -0.18532008
0.021290326 0.31783277 -0.08727173 0.11682142 -0.0076308246 0.09567664 -0.12147762 0.024467977
-0.011833843 -0.06616227 0.098094724 0.007904667 -0.09660927 -0.27302504 -0.3059045 -0.14990203
0.00056283124 0.040163327 0.038597144 -0.03890711 0.27759123 -0.03657642 0.12013148 0.092689075
-0.042633608 -0.31756938 0.12290743 -0.25985458 0.13994217 0.19382143 0.16684437 -0.019145234
-0.16968462 0.27566624 -0.053154085 -0.026605008 -0.023479955 0.18513578 0.042789254 0.032742947
0.10831486 0.003518401 -0.02700384 0.018849779 -0.2983648 -0.017472692 0.225446 0.101421036
-0.57163274 0.28755265 0.075249545 -0.32094574 0.41220346 -0.14764045 -0.37876347 -0.17896037
0.37305114 0.4195412 -0.0067745736 0.19669187 -0.044444714 0.1338013 -0.099788465 0.33346063
0.010497611 -0.33029097 -0.03170081 0.023446955 0.48717138 0.011018066 0.42320973 -0.2351756
0.19118024 0.095289156 0.22362275 -0.26324368 0.02575804 -0.26071745 0.15367965 0.09677972
0.32904416 -0.19325365 0.020268057 0.23833123 -0.14424369 -0.12583072 -0.32948548 0.14519271
-0.0070299925 0.028311716 0.04009082 0.07691709 0.17370546 0.119637065 0.01866565 0.11259214
0.1405673 0.0885074 0.124938674 0.10143894 0.053978615 0.24295649 0.005725402 0.098468944
0.2507812 0.097273976 -0.068921246 -0.11009576 0.039356034 -0.011818142 -0.151562 -0.031231401
0.019548925 -0.35805604 -0.23387493 0.18513206 -0.08159298 -0.081318274 0.10183513 -0.08359219
0.3784119 0.11772718 0.29800326 -0.0637224 0.006601029 -0.07105151 0.17793469 -0.18201907
0.17939422 -0.0010898134 0.17826742 -0.08097305 -0.17594571 0.23474975 -0.061942123 -0.022243377
0.0011767244 0.13417704 -0.09382941 -0.1279504 0.26153427 0.06940045 -0.10744968 0.1253322
-0.15431714 -0.15178064 0.05281113 -0.057264827 0.19956295 0.18435052 0.06722793 0.2635579
-0.19922778 0.2299071 0.033509523 0.2313563 0.18068594 0.22667512 0.14128718 -0.26573378
0.11670289 0.046709727 -0.064454235 -0.07243637 0.039384905 -0.11929869 0.28838784 0.03889987
0.1391714 0.18438108 0.17469355 -0.13679092 0.20916738 0.09789769 0.22751722 -0.33750066
0.39588284 -0.34881738 0.32090923 0.3325297 -0.027435856 -0.19732279 -0.024124492 0.19918191
-0.17285508 -0.035892628 -0.15351516 0.31153372 -0.14811687 -0.11597972 0.21288222 0.13874738
0.20104916 0.09910519 0.28831887 0.08396112 -0.11429436 0.22617006 0.296988 0.054428592

weight_hh_l1 f4 [100, 25]
00000000: 61f4 16be 4f17 863d 6a79 06be c51a 063e
00000010: 25e5 65be 9ec1 debd 8dc3 613e e792 23bd
00000020: f015 18bd 9e66 0abe 6f0c 6ebe f1c9 923e
00000030: 9b1f 963d 9264 90bd 83f5 793e d947 083b
00000040: 9d39 313e ed0e 64bc dfa8 f23d dfe3 023e
00000050: de86 533d 554c b4bd f967 fe3b c78a 07be
00000060: e65d 153e 5656 94be 8c60 44bc 03be 53be
00000070: c9c4 9f3e a790 48be 0ea5 8dbd 3fdb b53e
00000080: faad 993e ebe0 7c3e a2e3 a63e 52ec 3dbe
00000090: 0ac0 263e bfda 87bd 6ab6 2f3c aa4c bd3d
000000a0: 6d8d 9a3c 308f d03d ca7f 81bb d03d c83e
000000b0: cd7c 033e d4c8 af3c 9bf9 38be adc0 a33e
000000c0: 9c2d 62be 0d7e d43c 6ffe d73d bd4a 2dbe
000000d0: 3384 e03d ad7d cbbd 87f2 bfbe 53be f1bd
000000e0: 6c3b 9f3d 780f 00be 275f 363e 3989 93bd
000000f0: a166 2a3d 9d5c 603e 6ca3 9f3c bb30 8d3c
00000100: 0f62 f5bc e7d5 f73d e188 c5bd 79fc 2c3e
00000110: e379 103c f3c0 1cbe acda aabd 6c49 fabc
00000120: 28ee 2fbe b333 d8bd df24 b43c 572c 60be
00000130: 9674 813e 262c fdbd 9aa9 223d 8272 a8bd
00000140: c40e c3bd 734a 0e3e 8178 813d bca7 863d
00000150: 522a 45bd 055c 473d 66fd e53d b32a d9bd
00000160: c582 8b3d b42e 4a3e d8aa 7abe 6346 0fbe
00000170: d2ff 613e 6b73 06bd 620c 873e 4882 773e
00000180: fa32 ad3d 9d8a fa3c 5724 68be 7efc 4c3e
00000190: 83b6 413e fca4 aebe 3bac f5bd 1e7b a2be
000001a0: 57b0 bfbd 896f a53e 13ca da3c 0935 d3be
000001b0: 098a 54bd 3795 68be 01c7 abbd b478 7e3d
000001c0: 036a aebe d5a5 f5bd 82a6 d63c 9315 283e
000001d0: e372 ce3d 3180 003e 5e48 663c fc0d 73bd
000001e0: 3527 dfbe 7a22 743e 1ee5 f13c 616f 1d3d
000001f0: bfb8 edbe f829 d7bd b102 a03d 8189 dabd
00000200: 86ed 953e 94d4 0abf 9900 91be 7413 fc3d
00000210: 7817 4d3e e71d c43d 7110 f5bc eaa7 a2be
00000220: ed61 d53e 484c a3bd 516f 34be 221b 0f3e
00000230: 0784 84be 1dfa 5ebd 7cb1 f63d f0a6 633e
00000240: 38c7 a13e ae86 98bd 2ccd 88be f48c 913c
00000250: 794c 85bd c80d acbc aacf a73d 9e15 7fbd
00000260: 1ad2 383e 6841 bfbd b963 dfbd 9486 083e
00000270: a732 923d 9e0d 3e3e 2b74 083e c69a 93bd
00000280: ec57 1e3d ea92 3d3e 5a5b 32be 2608 c13d
00000290: cce8 19bd 4198 a4bd ebaf a6bd 1b0c c23b
000002a0: efb8 9bbd 047e 733e fa54 913d db41 c43d
000002b0: cb6a ac3d 2ac0 0cbe 3d40 303e 4ebd 8ebe
000002c0: d90f 493e fcf4 52bd 4eee 4f3e 6c6c 98be
000002d0: dc88 743c e243 62bc 0178 c63d 450c 213e
000002e0: 24ad 983d 73af 1ebd c98f 0e3d 4254 26bd
000002f0: f401 72bd 3f93 c63d e719 c1bd bb99 093e
00000300: 63ff a33e 32f2 ab3c f7e3 7a3e 625c 843e
00000310: 4fe1 903d fcf4 603d 3da3 d4bc 9aa8 7dbd
00000320: 8216 303e 344d b2bd e1df 4b3e 419e d0bd
00000330: 9bee b3be 2c56 0abe 40db 323e bd49 3b3c
00000340: 5429 a3bd 8d56 a3bd afee ccbc 4404 453e
00000350: c53e 25be 4091 b73d 0189 553e 5044 0d3e
00000360: a31e 3e3d 36e0 e83c a57d 2a3e 9e50 163e
00000370: 380d d13c 54bd 11be b79a ddbd cd7e 95bd
00000380: 04a0 85bc f8fa c5bd 60db 44bd 8c98 03be
00000390: 2253 53bd 974a b5be d364 873d 0c4f 783d
000003a0: b594 193d bf00 8d3d aeda 14be 9766 57be
000003b0: 7abe 8d3e 32a5 2d3d 9d09 863d fbfd ad3e
000003c0: 58bb 863c aa19 13be f470 963c 6368 8e3e
000003d0: 6d1e b7bd e36e 01bc b47d 943d 8dfe 873e
000003e0: f9f3 cabd b4ae bcbd ef8f 92bd 3359 3dbd
000003f0: aeb5 3fbe fbec 483e 9618 abbe 2586 ba3d
-0.1474166 0.065474145 -0.13132253 0.1309615 -0.22450693 -0.10876773 0.22047253 -0.03993502
-0.037130296 -0.13515708 -0.2324693 0.28669694 0.07330247 -0.07050432 0.24410062 0.0020794778
0.17307134 -0.013919574 0.11848616 0.12782238 0.05164229 -0.08803622 0.0077638594 -0.13236533
0.145866 -0.2897212 -0.011985909 -0.20677952 0.31204823 -0.1958643 -0.06916247 0.35518834
0.30015546 0.24695174 0.32595545 -0.1854718 0.16284195 -0.066335194 0.010724643 0.09243138
0.018866265 0.10183561 -0.003952001 0.3910966 0.12840576 0.021458067 -0.18063967 0.31982937
-0.22087711 0.025939012 0.10546576 -0.16923042 0.10962715 -0.0993608 -0.3748972 -0.118038796
0.07775006 -0.12505901 0.17809735 -0.072039075 0.04160178 0.21910329 0.019487105 0.01723515
-0.029953985 0.121013455 -0.09645248 0.16893186 0.008818123 -0.1530798 -0.083424896 -0.030552588
-0.17180693 -0.10556736 0.021990238 -0.21891914 0.2528426 -0.12361936 0.039712526 -0.08224966
-0.09524301 0.13895588 0.063218124 0.065749615 -0.048136063 0.04867174 0.112299725 -0.10603847
0.06812052 0.19744378 -0.24479234 -0.13991694 0.22070244 -0.032824915 0.26376635 0.24170792
0.08456989 0.030583674 -0.22670113 0.20018193 0.18917279 -0.34110248 -0.11995741 -0.31734556
-0.09359806 0.32311657 0.026707685 -0.412514 -0.051889453 -0.22713171 -0.08387566 0.06212683
-0.34065256 -0.119945206 0.026202444 0.1641448 0.10080507 0.12548901 0.01405534 -0.05933951
-0.435846 0.23841277 0.029528197 0.038436297 -0.46430013 -0.10506052 0.07813013 -0.10670758
0.29282779 -0.5423062 -0.28320768 0.12308398 0.20028484 0.09576016 -0.029915066 -0.31768733
0.41676274 -0.07973534 -0.17620589 0.13975194 -0.2588198 -0.054437745 0.12045571 0.2223165
0.31597304 -0.07447563 -0.26719034 0.017767407 -0.065087266 -0.021002665 0.08193906 -0.062276475
0.18048897 -0.09338647 -0.109076925 0.13332587 0.071385674 0.18559882 0.13325565 -0.07207255
0.038658068 0.18513075 -0.1741766 0.09425382 -0.037575528 -0.08036853 -0.081390224 0.0059218532
-0.07603633 0.2377854 0.07096286 0.095828734 0.08418807 -0.1374518 0.17212005 -0.27878803
0.19634952 -0.051503167 0.2030575 -0.2977022 0.014925208 -0.01381013 0.09690858 0.15727337
0.07454899 -0.03874154 0.034805093 -0.0406077 -0.059083894 0.09696054 -0.094287686 0.1343755
0.32030782 0.020989511 0.24501024 0.25851732 0.07074224 0.054921135 -0.025956744 -0.06192837
0.17196086 -0.087061316 0.19909622 -0.101864345 -0.3514298 -0.13509434 0.1746645 0.011431155
-0.07966867 -0.079754926 -0.025016157 0.19239908 -0.16137226 0.08963251 0.20853044 0.1379559
0.046415936 0.028427225 0.16649492 0.1467919 0.025518999 -0.14232379 -0.10820525 -0.07299576
-0.016311653 -0.09667009 -0.048060775 -0.12851161 -0.051592954 -0.3540847 0.066110276 0.06062226
0.037495334 0.06884908 -0.14536545 -0.21035229 0.27684385 0.04239387 0.06544802 0.33982834
0.016446754 -0.14365259 0.018364407 0.27814016 -0.0894135 -0.007899973 0.072505385 0.26561394
-0.09909815 -0.092130095 -0.071563594 -0.046227645 -0.18721649 0.19621651 -0.33417195 0.09107617

bias_ih_l1 f4 [100]
00000000: b68f 2e3d 7e42 b23e f4ae 3d3e 6b8c 7c3e
00000010: 8c57 4e3e aeb4 383e 5fcc 8c3e c163 903c
00000020: 2232 663e dbe5 83bd 9892 ccbd 8496 2b3e
00000030: 3c11 4abd 2a56 e73d e698 ebbd 3299 343e
00000040: 7ae0 ae3e c4cd 303e 9960 c63d 9639 3e3e
00000050: c62e ae3e b879 633e b70c 05be d536 353d
00000060: 0cc1 2f3e 639e 89be 73d2 91be 6272 a6bd
00000070: 4b05 94be 1644 c1bd 836f 88bc fd96 a1be
00000080: 2cce a7bd d04a 6fbd faa6 89be 587f 86bc
00000090: 2ed5 da3c 22e2 72be 8598 a7bd 475a e5bc
000000a0: bbfa 323d 3d71 98be 2caf 20be e88c 163d
000000b0: deeb 3bbe d77a a0bd b517 6b3d 0258 dabd
000000c0: 26cc 94be 370a a0be 385b 103d 76a6 1d3d
000000d0: 2613 f33b 5300 16be d53e adbc 364f 273d
000000e0: 6e14 b33c 126c 7dbd 8930 01be 26a8 193d
000000f0: 47d1 c13d 6790 31be 6aeb 09bb 358c 13bd
00000100: a706 ae3d 5820 35bc c047 86ba 7548 c83d
00000110: 7c53 3d3a ae60 cfbc 6b05 aa3c d6a3 cd3d
00000120: 21e0 eb3d 041a e73d 25dd 70bd d15d 633e
00000130: 54a5 853d e58f 2dba aaf6 843e 5aa5 02bd
00000140: a989 713e 3e16 d03d d3c5 b4bc 6765 f33d
00000150: c5b1 993c f2ee d23d 4a3e bb3d 0eb6 7a3e
00000160: 20e3 6e3d 2c2e b23d ea8d 473d 868b 8d3e
00000170: 0245 c73e 6045 b9bd 5376 433d d7b0 3b3e
00000180: c7e8 273e 3351 373e 42c0 4a3e c257 4e3e
0.042617522 0.34816355 0.1852377 0.2466294 0.20150584 0.18037674 0.27499673 0.017625691
0.22480062 -0.06440326 -0.09988898 0.16756636 -0.049332842 0.11295731 -0.115037724 0.17636564
0.34155637 0.17265993 0.09686393 0.18576655 0.3402006 0.22214401 -0.12993132 0.044241745
0.17163485 -0.26878652 -0.28480873 -0.081272855 -0.28910288 -0.094368145 -0.016654735 -0.31560507
-0.08193621 -0.058420956 -0.26885206 -0.016418144 0.02671298 -0.23719075 -0.08183388 -0.02799715
0.043696146 -0.29773894 -0.15691823 0.036755472 -0.18351695 -0.0783593 0.057395656 -0.106613174
-0.29062003 -0.31257793 0.035243243 0.038488828 0.007418054 -0.14648561 -0.021148125 0.040847026
0.021860328 -0.061870642 -0.12616171 0.037513874 0.094637446 -0.17340241 -0.0021044859 -0.036022384
0.084973626 -0.011055075 -0.0010244772 0.09779445 0.0007222218 -0.025314655 0.020754537 0.10041015
0.115173586 0.11284259 -0.05880465 0.22203757 0.065256745 -0.0006620868 0.2596944 -0.031895973
0.2358767 0.10160492 -0.022066986 0.11884575 0.018761525 0.102994815 0.0914274 0.24483511
0.058322072 0.08700213 0.048719324 0.2764551 0.38919836 -0.09046435 0.047720265 0.18329178
0.16397391 0.17902069 0.19799903 0.20150664

bias_hh_l1 f4 [100]
00000000: 349f 863e 9e5f 76bc 55fe 41be cc20 fc3a
00000010: 19e9 f1bd 12af 7c3e e63e f43d 761d 6a3c
00000020: d7dd 353d 33c8 a23e 0abb 98bc 718f f3bd
00000030: 7d0f 953e 40f6 1f3e 6b12 b33d ef0d 39be
00000040: 0f7e b13d b918 963e 609b 2f3c 7b94 693e
00000050: fd71 c83e 600c ab3e e17a d73d ad1e 973e
00000060: 8402 933e 200c 9bbe c8ef 06bd 2fd7 9ebe
00000070: 98e2 63be 8cb8 23be 6633 8dbe 0f33 87bd
00000080: 8ef7 0fbe 583b 7bbe 5bda b6be f6ae 39bd
00000090: 5ea1 02be 9c1f 8abe ce56 9bbc f129 5ebe
000000a0: f01e f1bd 2945 40be 246d 6cbe 4c18 a7bd
000000b0: 87ca 52be 545c 16be 5bc6 f23d 9d67 b1bd
000000c0: 225d 87be dff8 18bb 429b 1dbd b2d9 90bd
000000d0: b8fb 1abd 9630 053e 636d 7dbb 48f3 5cbd
000000e0: df71 be3c 781a 673d 169a 053e 24d1 493c
000000f0: 94ff b2bd 3102 033e 71e2 4a3d fb87 92bb
00000100: 5415 bfbd 8b1f c5bc fd1a 463c e60c cebd
00000110: 405e f538 92dd 173d 8bbb bd3a 644e b1bd
00000120: ab92 bbbd 347e fdbd 4141 d23c b1ff 913e
00000130: 1cad a83e 17d8 c33d 32c5 e8bb fb62 163d
00000140: 4198 863d 562d 753e ea94 8d3e 6a4a e33e
00000150: 34d1 a03d d291 a13c ce24 5e3e bcac 993e
00000160: 8b4a b33b 1b83 76bd a099 2dbe 4a1f 513e
00000170: e3f8 3f3e 10fb debd f14a a33e 5e84 783e
00000180: 77b1 073b 60e8 083d 4e1c 9a3b 7ffe 923e
0.26293337 -0.015037445 -0.18944676 0.0019235848 -0.11812038 0.24676159 0.119260594 0.014289251
0.044401016 0.31793365 -0.018643875 -0.11892594 0.2911338 0.1562128 0.08743747 -0.18071721
0.08666622 0.29315737 0.010718197 0.22810547 0.39149466 0.3340788 0.10521484 0.2951559
0.28712857 -0.30282688 -0.032943517 -0.31023547 -0.22254407 -0.15988368 -0.27578276 -0.066015355
-0.14059278 -0.24534357 -0.35713467 -0.04533287 -0.12756869 -0.2697724 -0.01896229 -0.21695687
-0.11773479 -0.18776383 -0.23088509 -0.08158931 -0.2058507 -0.14683658 0.118542396 -0.08662341
-0.26438242 -0.0023341698 -0.038478144 -0.07072772 -0.037837714 0.13006815 -0.0038669936 -0.05394295
0.023247657 0.056421727 0.1304706 0.012317929 -0.08740154 0.12793805 0.049532358 -0.0044717765
-0.0933024 -0.024062892 0.012091395 -0.10061054 0.00011700066 0.03707654 0.0014475448 -0.0865753
-0.09158834 -0.12377587 0.025665881 0.2851539 0.32944572 0.095627 -0.0071035856 0.03671549
0.06572009 0.23943076 0.27652675 0.4439271 0.07852402 0.019722853 0.21693727 0.30014598
0.0054715327 -0.060183626 -0.16953135 0.20422092 0.18747286 -0.1088773 0.31893113 0.24269244
0.0020705143 0.033424735 0.004703081 0.2870979

weight_ih_l2 f4 [100, 25]
00000000: 8bb2 8cbd f57e 443e 6545 cdbd 1226 ac3c
00000010: a7e0 95bd b3b9 86be 0c88 35be e7f4 1f3e
00000020: 9633 a93d 848e ffbc 8703 53bd 4ffd cc3c
00000030: 4e96 e2bd 506e 923d cc7c 0ebe a0f7 8abc
00000040: 7e9d 3dbe af17 e5bd 3e11 523c 07cd 873a
00000050: bc97 463e 1c94 38be 6796 7c3d a606 073e
00000060: 8e43 303e 5649 23be 20a6 533e 03da 6fbe
00000070: 5d16 303e ab38 25be 6133 3dbe f62a 383d
00000080: bcf5 7b3e f468 b6bc 312d e23d 3e68 efbd
00000090: 47fb df3d 8baf 1a3e bea2 29be 0399 9cbc
000000a0: 5377 52bd 171a 56be 72fd 1ebe 6d4f 1abd
000000b0: 09ae 393e b1e9 3b3e fd28 aebe ccd1 26be
000000c0: 982f 50be 2bbf 163e 1a97 f4bb aa31 163e
000000d0: 0184 4fbe a32e 763e 3ffe 823c c063 bbbd
000000e0: 03a2 123e 2831 513e 837a 5d3e 8be0 393e
000000f0: 0390 ef3d 5d22 b4bd c0c2 493e 13d1 4fbe
00000100: 9b37 7d3c 9a86 4c3d 592f 9ebe 85e4 2dbe
00000110: ab90 99bd 21c8 263e f524 883e f22f 19be
00000120: 9d36 2a3e dab9 87be 7a00 9f3d 5d96 46be
00000130: 5edd 5d3e f481 93bd 3b35 4c3d bee7 0fbe
00000140: 629c 67be 687b 4ebc c024 6b3e fc2d 403e
00000150: f3f1 953d 66b3 c2bd 7b2e 2d3e 8a02 9a3e
00000160: f77b b4bb 694a 1bbd bf0d ef3c acc0 9b3d
00000170: cbb2 cfbc 102c 9f3d 2e7b 16bd 590e 6c3e
00000180: 893b 0cbe 5cd7 d93d cfff f4bd f1fa 863e
00000190: 1445 2abe d23f 3cbc ce25 48bd 8595 243e
000001a0: df46 14be 2477 74be 2d76 873e 3e91 863e
000001b0: 7046 a73e d4bf a93e ed40 debb 142b 293e
000001c0: a326 103e 50f9 32be 2d07 8e3d 18b3 5dbe
000001d0: 9453 61bd 2589 a1be 876f 133d f744 f73d
000001e0: 36e2 193e de23 b9be 2f3d d43c 2dec 44be
000001f0: 4638 bc3b 6591 15be 7c95 bdbb 0cb3 2fbd
00000200: 8cc9 2c3e 9eed dcbc fe16 02be a1c9 1f3d
00000210: 1abe a13d 350f ef3d b1cb a73d 43dd 1fbd
00000220: 72e3 d73d 55c6 e63d d88d a439 7861 54bd
00000230: 2c90 62be 037f 18bd 8dd8 0d3d da79 fb3c
00000240: 6cd9 14bc a8e6 353e 7776 8cbe f832 793e
00000250: 31f1 5bbe a7ec 9f3e fff8 7bbe 788c 54bc
00000260: cab5 eb3d 39de 363e bc2b e2bd 9f4f 2e3d
00000270: a1e5 183e 5e09 7d3e 01e8 063e c67a 6a3c
00000280: 20dd cf3d 270e 773e d553 893d e5b8 42be
00000290: 3944 9cbb 7484 63be a00f a3bd e186 1fbe
000002a0: ca8c 85bd ffdb 5a3e b19d 633e b04b aabe
000002b0: b93c 8a3e 5806 9dbe 5146 7abd 085c e6bd
000002c0: 929e 5e3e 7177 56be f135 84bc aa86 2ebe
000002d0: 9f42 36bd 2342 0e3e d829 053b 1ff9 083e
000002e0: dc7c b23d cbc7 6f3d 73e7 4b3e 018c 623d
000002f0: b630 96be e32b acbb 1b72 89ba ace5 55be
00000300: 7d69 a13d 314f 1d3e 397d 303e 655b 773e
00000310: ff34 9ebd bedf 053e a726 9abc 18a0 833e
00000320: c773 b23d 0476 993e 537f 0c3e f8c1 22be
00000330: ad7e f43e 0a49 e73d 12ea 3b3e bd0c 853c
00000340: f4e5 25bb 923a 383e cf7e c03d c88b f53d
00000350: a314 83bd 2498 5b3d c4f9 293d 0fa6 133e
00000360: 18f8 fb3d 7a01 6bbd 1da5 1c3e 7d55 0c3e
00000370: 4c66 82bd 06ce 46be 3206 27bd cca1 8c3d
00000380: 5145 603e 88ed cbbd 3ac7 013e 2e5f c23d
00000390: fc57 443d 7769 f0bd 0cc8 053d e0a0 063e
000003a0: 0922 733e 82b3 623d 34c9 d5bc 3004 d13d
000003b0: 70d2 bf3d 89cc dbbd fd9e eb3b b5ef 593e
000003c0: 0b0d ecbd 3cac cdbd 69ad 68be 918f 873e
000003d0: 4f59 2c3e 1909 bc3e c9fb 61be f46f 8ebc
000003e0: 0a42 163b 593c e6bc ee13 b7bd 0ad4 7ebc
000003f0: e9a0 683d 896d ba3d 09ba 87bd e70e 41be
-0.06869992 0.19189055 -0.100230016 0.021014247 -0.0731824 -0.26313552 -0.17727679 0.15620767
0.08261792 -0.031195886 -0.051517036 0.02502313 -0.110638246 0.07149947 -0.13914794 -0.01696378
-0.1851711 -0.11186158 0.012821494 0.0010360786 0.1939382 -0.18025249 0.061666872 0.1318613
0.1721327 -0.15945944 0.2066884 -0.23423009 0.17196031 -0.16134898 -0.18476631 0.044962846
0.24605459 -0.022266842 0.11043776 -0.116898045 0.10936599 0.15106027 -0.16565987 -0.01911593
-0.051383328 -0.2090839 -0.15526369 -0.037673403 0.18132795 0.18350865 -0.34015647 -0.16290969
-0.20330656 0.14721362 -0.007464302 0.14667383 -0.20265199 0.24041228 0.015990375 -0.09149885
0.14319615 0.20428908 0.21628766 0.18152063 0.1169739 -0.08795617 0.19703197 -0.20294599
0.015455152 0.049933054 -0.30895498 -0.16981705 -0.07498296 0.1628728 0.26590696 -0.14959696
0.16622396 -0.2650898 0.07763763 -0.19393297 0.21666476 -0.07202521 0.049855452 -0.14053246
-0.22618249 -0.0126026645 0.22963238 0.18767542 0.07321539 -0.09506874 0.16912262 0.30080062
-0.005507942 -0.03791276 0.02918136 0.076051086 -0.02535381 0.07772076 -0.036738567 0.23052348
-0.13694586 0.1063678 -0.11962854 0.26363328 -0.16627914 -0.011489825 -0.04886418 0.16072662
-0.1448016 -0.23873574 0.26457348 0.26282686 0.32670927 0.33154166 -0.006782642 0.16520339
0.14077239 -0.17477918 0.069349624 -0.2165035 -0.055011347 -0.31549945 0.035995033 0.12073701
0.15027699 -0.36160177 0.02590808 -0.19230719 0.005744013 -0.14606245 -0.005785642 -0.04289536
0.16873759 -0.026968773 -0.12704083 0.039010648 0.07897587 0.116728224 0.08193148 -0.03902937
0.105414286 0.112682976 0.000313862 -0.051850766 -0.2212531 -0.037230503 0.034630347 0.030697752
-0.009085041 0.1776377 -0.27434132 0.2433585 -0.21478726 0.3123524 -0.24606703 -0.0129729435
0.11509283 0.17858209 -0.11043498 0.0425564 0.14931346 0.24710605 0.1317444 0.014311498
0.10149598 0.24126492 0.06705443 -0.19015844 -0.004768875 -0.22218496 -0.079619646 -0.15578796
-0.06520994 0.21372984 0.22228123 -0.3326087 0.26999453 -0.30668902 -0.061102215 -0.11248022
0.21740177 -0.20944001 -0.016139003 -0.17043558 -0.04449713 0.13892417 0.002031913 0.13376282
0.08715221 0.058540147 0.1991251 0.0553093 -0.29334038 -0.005254255 -0.0010486277 -0.20888394
0.078814484 0.1536224 0.17235269 0.24155958 -0.07724952 0.13073632 -0.018817259 0.2570808
0.08713489 0.2997285 0.13720445 -0.15894306 0.47752896 0.11293228 0.1835101 0.016241426
-0.0025314065 0.17991093 0.09399187 0.11989552 -0.064004205 0.05361189 0.04149796 0.14418815
0.123031795 -0.057374455 0.1529736 0.13704486 -0.06367168 -0.19414529 -0.040777393 0.06866798
0.21901442 -0.09957415 0.12673655 0.0949081 0.04793547 -0.11738866 0.032661483 0.13147306
0.23743452 0.055346973 -0.026096918 0.10205877 0.0936631 -0.10732371 0.0071905837 0.21282847
-0.11525925 -0.10042617 -0.227224 0.2647672 0.16830944 0.3672569 -0.22068705 -0.017387368
0.0022927546 -0.028104948 -0.08939348 -0.015553484 0.05679408 0.091029234 -0.0662728 -0.18853341

weight_hh_l2 f4 [100, 25]
00000000: 19ef 88bd 074c 893c 7340 51bd b7b0 f53d
00000010: f148 ca3d e75e 3bbd bacc 233e c5d0 233e
00000020: 7b6a 143e 7297 d6bd 4ac1 573e 7862 023e
00000030: 04f5 e0bd d186 013e 2e61 d0bc 4ad8 f53c
00000040: 72d6 933d 77ca f9bb 508a 6239 aafa 253e
00000050: a797 19bd dffb 813d 2c99 b1bd 628b 10be
00000060: 23ac 313e a7c9 bbbd b341 9c3d a7b7 703d
00000070: 8bc8 0f3e f421 aa3c c38f fdbd 06ff d0bd
00000080: 1f92 48bd ceca bcbd 280f 3d3e 78eb 223e
00000090: fa50 463d 121a bc3d b9e3 1abd ea46 b8b9
000000a0: 97ec 4c3e 4a03 08be ee79 1bbe b026 b4bd
000000b0: d3f4 d33d 05d1 4dbd 9087 063e 1ff2 f33d
000000c0: ea7b 12be d835 59be 0434 d03d 4143 f9bd
000000d0: b60e 4e3e edbb 363e c9d6 9bbd 799c 293e
000000e0: c6bc aa3d d74c a0bd 6fdd 183e e9f0 2d3e
000000f0: 9604 ccbc 05d4 6dbb 976d 483e 482e bebd
00000100: a5dd 13bc 5ef7 043e 9897 293e c3a6 f2bd
00000110: a735 263e facd 1b3e 6ac5 9d3d a173 d6bd
00000120: b19f d23d 237f 41be f924 b4bd 93cc 31bd
00000130: ca37 4c3d a969 9bbc 832e 98bd 453e 2abe
00000140: 62be 053d e4b0 65bd 5474 43be 51d5 6f3e
00000150: d9df f0bd f0b3 a9bc ca43 0a3d f1f6 c3bd
00000160: e09a 0e3e 46f2 893d 52fc 403e c06d 13be
00000170: 0fe7 153d cd61 733e 2f79 ce3d e636 a7bd
00000180: 5242 c63d e435 0ebe 5fc3 773d e620 803d
00000190: a531 153d 43f3 55bd cd47 e6bd 9b30 8fbd
000001a0: ad06 843d 39cb 83bd 29f3 903d be31 083e
000001b0: c278 4b3d 3d0a 1abd a2b5 36bd 9dfa 49be
000001c0: 58b6 15bb b8c7 133e 672c 93bc daf4 913e
000001d0: e964 5e3d 85e9 3dbe 6d40 a13d cf17 e33c
000001e0: 1fa3 c63d a28e 82be 5fdf 523e a8d9 5a3e
000001f0: 7aac d3bd e9cc 15be a5e6 343e e7b7 dbbd
00000200: 7923 0e3e b98c 3f3c b96d c33d 3777 f73d
00000210: eda6 293e 0a38 273e 2fff 2bbe 011d 62be
00000220: bd38 99bd e6df 3f3e d9e1 033e debd bd3d
00000230: 3e7b c8b9 66ea 693b 5767 0e3e d527 703c
00000240: 65e9 283e 9c2e 01be 90ca 0cbe de42 e5bd
00000250: e5aa 823d d36e 1abc 4fe7 00bd b2e0 163e
00000260: c777 35be f50f 5dbd 9287 5e3d 3bf9 3bbd
00000270: 652b 33be ab5a d53d 5671 8bbc d3c6 7c3d
00000280: e99b 5cbe 5626 b6bd 8d84 af3d ddf4 aabd
00000290: 84eb c03d 942c 423b 446a 9c3c 7a1a cdbd
000002a0: 6b17 c1bd dba5 1abe 5020 053c 39bf f13d
000002b0: 551c bbbd d1f2 36be 54c8 1dbe 0e07 f23d
000002c0: 8f33 d7bd 11a3 193e 3d37 b4bd a38c c1bd
000002d0: 3283 b1bc a0e1 f2bd 8beb 3fbe e6d8 133e
000002e0: 8ee9 fd3d cc27 fdbd 271a fa3c 99d9 993d
000002f0: 8065 5b3d cb89 25bd 9082 ff3c 58da b1bd
00000300: 3371 ba3d 8c6a 2f3d 8597 463e 5a1e 07be
00000310: 1baa 0d3d c990 f7bd f8e6 3bbd 53e8 933d
00000320: 6ee6 0ebd 7d9e 4dbc 5369 123e dfe4 ee3d
00000330: 4558 f53d e482 49bc 368e 153e bd16 a1bd
00000340: 2751 58bb 36fe adbd 1e26 593e dc84 31be
00000350: e833 22be 6a95 bc3d cba2 22be 346b c53a
00000360: 294e 51bd d0ab 74be 57e7 8f3d 3f06 663d
00000370: 86ef 0dbe 87e8 1dbe 69d4 273e 9868 b5bd
00000380: 22ff 03bd f521 59bd 9632 20be 86bb 413e
00000390: 5121 1cbd a281 efbc 876b 2abc b97d a53d
000003a0: 8e4a cabd 583f 8a3e 329b c0bc 2d60 a83d
000003b0: 84ca 353d 1205 01be 5dc5 683d 2116 5c3e
000003c0: 5341 9bbd 32f9 f63d 4c9f 0b3d 234d 66bd
000003d0: 025d dbbd e77f 6b3e 574d 67be fc0f dc3d
000003e0: 09da e6bd ea22 893d 6da1 58bd 7b75 25be
000003f0: 67ac 133e c239 1abe 5928 323e 504c 843e
-0.06686229 0.016759885 -0.051086854 0.11996596 0.09877194 -0.045744803 0.15996066 0.15997608
0.14493744 -0.10478105 0.21069828 0.12732875 -0.10984233 0.12649085 -0.025436964 0.030010361
0.072186366 -0.0076230126 0.00021604565 0.16208902 -0.037498143 0.06346869 -0.08671793 -0.1411567
0.17350821 -0.091693215 0.07629719 0.058768895 0.14041345 0.020768143 -0.12380936 -0.10204892
-0.048967477 -0.092183694 0.18462813 0.15910137 0.04841707 0.0918466 -0.03781483 -0.0003514805
0.20012127 -0.13282505 -0.15183231 -0.087964416 0.10349431 -0.050248165 0.1313765 0.11911415
-0.14305082 -0.21211946 0.10166171 -0.12171031 0.201228 0.17845125 -0.076093264 0.16563596
0.08336787 -0.07827156 0.1492822 0.16986431 -0.02490453 -0.0036289704 0.19573055 -0.09286171
-0.009025012 0.12984988 0.16561735 -0.118482135 0.16231404 0.15215293 0.07703669 -0.10471273
0.10284365 -0.18896155 -0.087961145 -0.043407988 0.049857892 -0.018971281 -0.074307464 -0.16625316
0.032652266 -0.0560769 -0.19087344 0.23421218 -0.117614456 -0.020715684 0.033756055 -0.09568585
0.13926268 0.06735663 0.18846253 -0.14397335 0.036597308 0.23767777 0.10081708 -0.08164768
0.09680618 -0.13887745 0.060489055 0.06256275 0.036424298 -0.052233946 -0.11244164 -0.06991693
0.06446586 -0.06435246 0.07077629 0.13300225 0.04967571 -0.03760742 -0.044606812 -0.19724508
-0.002284428 0.14431655 -0.017965509 0.2850712 0.054295454 -0.18546112 0.07873616 0.027721314
0.09699082 -0.25499445 0.20593022 0.21372092 -0.10335632 -0.14628948 0.17666109 -0.10728436
0.13880719 0.011691266 0.09542412 0.12083285 0.16567583 0.16329971 -0.16796564 -0.22081377
-0.07481525 0.18737754 0.12879123 0.0926473 -0.00038238795 0.003569269 0.13906609 0.014657934
0.16495283 -0.12615436 -0.13749146 -0.111943945 0.06380252 -0.009425837 -0.031470593 0.14734152
-0.17721473 -0.053970296 0.05432851 -0.04589198 -0.17497022 0.10417684 -0.017021816 0.06171305
-0.2154385 -0.08894031 0.08570204 -0.08347485 0.09419921 0.0029628621 0.01909364 -0.10014816
-0.09428295 -0.15102331 0.00812538 0.11804051 -0.09136263 -0.17866065 -0.1540845 0.11817752
-0.10507881 0.15003611 -0.08799598 -0.094506525 -0.021669004 -0.11859441 -0.18742196 0.14438209
0.12398063 -0.12361106 0.030530049 0.075122066 0.053563595 -0.040414613 0.031190187 -0.08684224
0.09103622 0.04282622 0.19393738 -0.13195172 0.034586053 -0.120881625 -0.045874566 0.07222047
-0.034887724 -0.012549994 0.1429799 0.116647474 0.11979727 -0.012299273 0.1460503 -0.07865665
-0.0033007355 -0.084957525 0.21205947 -0.17335838 -0.15840113 0.09208186 -0.15882413 0.0015061856
-0.05109993 -0.23893666 0.070265464 0.0561583 -0.13860902 -0.15420733 0.16389622 -0.0885784
-0.032225735 -0.0530109 -0.15644297 0.18919191 -0.03811771 -0.029236618 -0.010401613 0.0808062
-0.098775014 0.27001452 -0.023511503 0.08221469 0.044382587 -0.1259959 0.056828845 0.21492817
-0.07580819 0.12059249 0.034087464 -0.056225907 -0.10711099 0.2299801 -0.22588097 0.10745236
-0.11272056 0.066961125 -0.052888323 -0.16158096 0.14421235 -0.15061095 0.17398204 0.25839472

bias_ih_l2 f4 [100]
00000000: 55b6 4dbd e6cb a93d 0bf9 203e 5c0f 05be
00000010: def9 e33d 4276 013e 560d 51bd 630e 06bd
00000020: 45ce 633d 446f 78bd b338 09be 8d1d f23d
00000030: 409e 483e e9cb b2bc a25d 413e 7b18 d33d
00000040: b00c b73d ee21 343e 04c5 f3bc 355f 1c3e
00000050: e1d9 a9bd cddd 03be f822 5f3e ad05 013e
00000060: f271 573d 3bda e0bd 03a4 bbbe d5ce 84be
00000070: 8e3e 923d 96a9 81bd 9769 983d e9cc 51be
00000080: c9f2 ae3d 67fe c2be 3093 24be 5928 a0bd
00000090: b729 83be 694f fb3c 78d7 a0be 37a9 a2be
000000a0: 99e6 b6be bdbe cabd 20ce 803c 2663 103d
000000b0: 8e74 2c3d 0154 56be bc26 2b3c ad5d 11be
000000c0: c5d4 eabd da43 a7bd 7c12 24bc d7c2 ebbd
000000d0: 8f1c c03d 6b7d 27be c835 42bd 6a39 213e
000000e0: 5e3a 393c d54c 85bc 5690 63ba 9e44 6cbd
000000f0: 7075 dd3c 7fa9 373c 8e99 06be a496 673d
00000100: b97b 233e a411 04bd 0857 7a3d de1f cf3b
00000110: b81f 783c 8192 c5bc ac98 c83b ded7 c8bb
00000120: 680c c53d 4730 7fbd 7daa 7bbd 59f0 79bd
00000130: b988 6cbd 47bc d23b 0daf 4f3e 1f84 8f3e
00000140: 46f5 ebbd 42c6 363e 976d 8bbd 4baa b9bd
00000150: d3cb 1a3d 352f 4d3d 9d0f aa3e 8cac 0ebd
00000160: c7a4 de3d 4af0 a53c 30bd 813e 0197 8c3d
00000170: 8240 973e eb61 543e 3986 403a f5d4 3e3e
00000180: df58 06be e8fd 023e 2d50 093e 60fd 743e
-0.050222714 0.08290844 0.15720002 -0.1299414 0.11131643 0.12642768 -0.05103811 -0.032728564
0.055616636 -0.060652986 -0.13400535 0.118220426 0.19591618 -0.021825748 0.18883374 0.10307404
0.08937967 0.17591068 -0.02975703 0.15270694 -0.0829351 -0.12877579 0.21790683 0.12599821
0.0525989 -0.10979124 -0.3664857 -0.2593905 0.071408376 -0.06331174 0.07442015 -0.20488323
0.08542401 -0.3808472 -0.16071773 -0.07820196 -0.25617763 0.030677514 -0.3141439 -0.31769726
-0.35722807 -0.09899662 0.015723288 0.035250805 0.042103343 -0.20930482 0.010446247 -0.1419589
-0.11466364 -0.081672385 -0.010014173 -0.11511772 0.09380447 -0.16356437 -0.04741457 0.15744558
0.01130542 -0.016271988 -0.00086808705 -0.057682626 0.027033538 0.011209845 -0.13144514 0.056540146
0.15965165 -0.032243386 0.061118156 0.0063209375 0.015144281 -0.02411771 0.0061217155 -0.006129249
0.09621507 -0.0623019 -0.061441887 -0.06102023 -0.057747576 0.006431136 0.2028162 0.28030488
-0.115213916 0.17849067 -0.06808012 -0.09065684 0.03779204 0.05009385 0.33215037 -0.034832522
0.108712725 0.02025618 0.2533965 0.06864739 0.29541403 0.20740478 0.00073442195 0.18635924
-0.13119839 0.1279217 0.13409491 0.2392478

bias_hh_l2 f4 [100]
00000000: ca4e 82bd 2972 413e 3e06 38bd af2a 523e
00000010: 54af 39bd 14fc 74bc dd24 db3d dc73 dfbc
00000020: fade b4bc 4e9c de3d 4a70 e83d 6128 8d3e
00000030: 4bec b13c ac3b 1b3e 8330 b2bd 4e14 973d
00000040: 03d0 8fbd 19bb 8f3d b350 c7bd 738f 07bd
00000050: d389 26bc 120e 7a3d c098 133e d05a f83d
00000060: c216 5dbd 888d a43d 3b53 d4bb 5250 99be
00000070: 133f c3bc a547 c6be ec4b 0ebe bf05 5c3b
00000080: b9c5 f13b 0b9a b3bc 68ac 98be e4da 10be
00000090: 9bc7 2abe ce20 81be 180b 06be 18ab 49be
000000a0: 60e2 d0bc 1f88 ddbc 47c3 8bbe b6bb 81be
000000b0: 6ab6 2dbc 3b72 46be 5518 1fbe 561d 5bbe
000000c0: ec89 eebd f340 c2bd 0ab2 643c 6559 063e
000000d0: bc1c 44bd 6272 3b3e 8145 e23c 8b49 12be
000000e0: ef96 923b 492e fa3b 7188 503c 475f ea3c
000000f0: 71e2 62bd bb17 c03a e172 0e3e 59f5 04bd
00000100: f1be 2abe 8a81 873c 2289 48bd e30b 473c
00000110: 7f37 4abc 51cf 063d 6697 bdbc e450 e2bb
00000120: 456d cbbd b00e 243d ccd7 743d 4f0d d23b
00000130: 0a3b fabc 179d 533e 2c83 5e3e 538c 093e
00000140: 5f2d 403c 0304 833c 9060 863c e12d 283e
00000150: 2707 453e 4d31 cebd af24 973e db0a 0c3e
00000160: e451 e03d 5f12 983e 0683 763e b0f8 6a3e
00000170: eade 7e3e eb69 363e 6188 65bd ef9b 0cbe
00000180: 7b74 53be 1ce5 0abd 9a39 d2bd 697d 0cbd
-0.06362684 0.18891205 -0.044927828 0.20524095 -0.04533322 -0.014952678 0.107003905 -0.027276926
-0.02207898 0.108696565 0.113495424 0.2756987 0.021719119 0.15159482 -0.08700659 0.0737692
-0.07022097 0.07018108 -0.09732189 -0.03309579 -0.010164696 0.061048575 0.14413738 0.12126696
-0.05397678 0.080348074 -0.0064796484 -0.29944092 -0.023833787 -0.38726535 -0.1389615 0.003357276
0.0073783067 -0.02192404 -0.29819036 -0.14146 -0.16677706 -0.2522034 -0.1309017 -0.19694173
-0.025498569 -0.027042447 -0.27297422 -0.25338525 -0.010602573 -0.19379513 -0.15536626 -0.2139791
-0.116474 -0.09485044 0.013958463 0.13120039 -0.047878966 0.18305352 0.027621033 -0.14285867
0.004473559 0.007634912 0.012727843 0.028609885 -0.055391733 0.001465551 0.1391101 -0.032460544
-0.16674401 0.016541261 -0.048958905 0.01214883 -0.012342333 0.032912556 -0.023143481 -0.0069066156
-0.09932951 0.04005307 0.059776112 0.006410278 -0.03054573 0.20665394 0.21729726 0.13432436
0.011729567 0.015993124 0.016403466 0.16423751 0.1924101 -0.10067997 0.29520175 0.13676016
0.109531194 0.29701516 0.24073419 0.22946429 0.24889722 0.17813842 -0.056038264 -0.13731359
-0.20649903 -0.033909902 -0.10264893 -0.034299288
