Covid/.darts/checkpoints/Air_RNN/checkpoint_396.pth.tar (torch_old, 266181 bytes, 51 tensors)

weight_ih_l0 f4 [100, 1]
0	0x3eaf895d	0.34284487
1	0x3ec48b0c	0.38387334
2	0x3dfa78ec	0.12230095
3	0xbcb6d4a7	-0.022318197
4	0x3e1680fe	0.14697644
5	0xbe4df0e6	-0.20111427
6	0x3e56efaf	0.2098987
7	0x3dc12195	0.094302334
8	0x3e3c7958	0.18405664
9	0x3e8163ec	0.25271547
10	0x3da359b4	0.07976094
11	0x3ea5e4f4	0.3240124
12	0x3e498142	0.19678214
13	0x3e4e8a63	0.20169978
14	0x3d6981f8	0.057008713
15	0x3df8885a	0.12135382
16	0x3e85a3df	0.26101586
17	0x3e710886	0.23538408
18	0x3e2ca959	0.16861476
19	0x3d022025	0.031768937
20	0xbea8d2c3	-0.32973298
21	0x3e31a606	0.17348489
22	0x3db99f33	0.09063568
23	0x3ec00db2	0.3751045
24	0xbd923e32	-0.07140769
25	0xbe5f4c84	-0.21806532
26	0xbda7eac5	-0.081990756
27	0xbeb043c8	-0.34426713
28	0xbdc9478d	-0.098281
29	0x3e55959d	0.20857854
30	0xbe7cd363	-0.24690013
31	0xbf07c08e	-0.5302819
32	0xbc349caf	-0.011023684
33	0xbbc7d61f	-0.0060985233
34	0x3e9ac0c4	0.30225194
35	0xbd25cd5c	-0.04047905
36	0x3dbec1c9	0.09314305
37	0xbed59af6	-0.41719788
38	0x3db36ba4	0.08760765
39	0x3db0e91d	0.08638213
40	0xbdd7c12c	-0.105348915
41	0x3c0d50cf	0.008625223
42	0x3e29e5f0	0.1659162
43	0x3e5c7b1c	0.21531337
44	0x3e118dfd	0.1421432
45	0xbf1ad625	-0.6048301
46	0x3e98cadb	0.29842266
47	0x3ccf448c	0.02530124
48	0x3e677243	0.22602181
49	0xbf0481b5	-0.5176042
50	0x3efe83be	0.49709886
51	0x3ecf0878	0.4043615
52	0xbee80938	-0.45319533
53	0x3dcf79f0	0.101306796
54	0x3ecd7a6a	0.40132457
55	0xbe9b1853	-0.30291995
56	0xbef2e2e7	-0.47438738
57	0x3eba2eb1	0.36363748
58	0xbecadd4f	-0.3962197
59	0x3e6641de	0.22486064
60	0x3ea6352e	0.32462448
61	0x3e2c42a5	0.16822298
62	0xbee8f901	-0.45502475
63	0xbe53339a	-0.20625153
64	0x3d933ab8	0.07188934
65	0xbea569b4	-0.32307208
66	0xbe29e79b	-0.16592257
67	0xbe5b8c79	-0.21440305
68	0x3e77c30a	0.24195495
69	0xbeea7efc	-0.45800006
70	0xbec21b76	-0.37911576
71	0x3e967a66	0.29390258
72	0x3da75581	0.081706055
73	0x3e37a916	0.17935595
74	0xbea47487	-0.32120153
75	0x3ef276eb	0.47356352
76	0x3eaa6491	0.3327985
77	0xbe4dbedb	-0.20092337
78	0xbe1dafa6	-0.15399036
79	0x3e9fccea	0.31211025
80	0xbdd92434	-0.10602608
81	0x3e39a4b6	0.18129238
82	0x3e9da453	0.30789432
83	0x3ea15115	0.31507173
84	0x3e0a78d9	0.13522662
85	0x3eb4700f	0.35241744
86	0x3e3179ba	0.17331591
87	0x3ecbbb14	0.39791167
88	0x3eb25204	0.34828198
89	0xbd46b246	-0.04850986
90	0x3e84dbf4	0.2594906
91	0x3cb734c6	0.022364032
92	0x3dd7d347	0.10538345
93	0x3debd401	0.11515046
94	0x3ea8db2f	0.32979724
95	0xbe827ccb	-0.25485834
96	0x3e392ca9	0.18083443
97	0x3dd945d9	0.106090255
98	0x3e8a25a9	0.26981857
99	0xbe42ddaa	-0.1902987

weight_hh_l0 f4 [100, 25]
0	0xbea5126c	-0.32240617
1	0xbe05ef2d	-0.1307952
2	0x3d06ff18	0.03295812
3	0x3ef28a75	0.4737126
4	0xbe5e9107	-0.21735011
5	0x3f5da5cc	0.8658111
6	0x3e7e3051	0.24823119
7	0xbd6e16a6	-0.058127068
8	0xbdbc67e0	-0.091995
9	0x3ea36637	0.3191392
10	0xbe5ab616	-0.21358523
11	0x3efc109b	0.4923142
12	0x3e212ce3	0.15739779
13	0xbe8ec9f7	-0.27888462
14	0x3ef2b634	0.47404635
15	0xbdf9b6d3	-0.12193074
16	0xbf4d13ad	-0.8010815
17	0xbd772ec1	-0.060347322
18	0x3dfb8637	0.12281459
19	0x3e9b3137	0.30310985
20	0x3e845bf9	0.2585142
21	0x3c9819c7	0.01856698
22	0x3f28cab1	0.6593428
23	0x3f10b1f6	0.56521547
24	0x3ecbb3b0	0.39785528
25	0x3e15de4c	0.14635581
26	0xbda2daa3	-0.07951858
27	0x3e0f73c4	0.14009005
28	0x3e2e06e6	0.16994819
29	0x3e49b459	0.19697703
30	0x3ee3755e	0.44425482
31	0xbe437344	-0.19086939
32	0x3ea7be44	0.3276235
33	0xbebfa12b	-0.3742765
34	0x3ec49727	0.3839657
35	0x3e9f3c86	0.31100863
36	0x3e4d3577	0.20039926
37	0x3b553615	0.0032533456
38	0xbd259c7b	-0.040432435
39	0x3ef2d71a	0.47429734
40	0x3dd2df95	0.10296551
41	0xbe922cb1	-0.28549722
42	0xbe6256b7	-0.22103392
43	0x3d9421c5	0.072330035
44	0xbe1e5249	-0.15461077
45	0x3ec40b0f	0.38289687
46	0x3dc323dc	0.09528324
47	0x3e71b804	0.23605353
48	0x3eb6a7fd	0.3567504
49	0x3e9ee309	0.3103259
50	0xbe4a074c	-0.19729346
51	0xbe9097cc	-0.28240812
52	0x3e006ec9	0.12542261
53	0x3d94fbbd	0.07274578
54	0xbea92ad6	-0.33040494
55	0x3e98c617	0.2983863
56	0x3eae1fda	0.34008676
57	0xbec15f42	-0.37767988
58	0x3d25fd47	0.040524747
59	0xbcf7cdd4	-0.030249514
60	0xbc5a666c	-0.013330083
61	0x3e03a666	0.12856445
62	0x3edaee5f	0.42759988
63	0xbd08966f	-0.03334659
64	0x3e894bd4	0.26815665
65	0x3e14b282	0.1452122
66	0xbf084a08	-0.5323796
67	0xbe83870e	-0.25688976
68	0x3de710fb	0.11282536
69	0x3cc9fc07	0.024656309
70	0x3e2b36f3	0.1672018
71	0x3dabb121	0.08383394
72	0x3dde43fd	0.108528115
73	0x3ee34811	0.4439092
74	0x3e3ae932	0.1825302
75	0xbe52d454	-0.20588809
76	0xbda306f7	-0.07960313
77	0x3e11716b	0.14203422
78	0xbe8a2bce	-0.26986545
79	0xbdb695af	-0.08915269
80	0xbc548e34	-0.012973357
81	0xbd3b7c65	-0.04577293
82	0x3e2d317f	0.16913413
83	0xbdce1384	-0.10062316
84	0xbe0634c8	-0.13106072
85	0x3dc2242b	0.09479555
86	0xbe29acf7	-0.16569887
87	0xbda158d1	-0.078782685
88	0x3d24eba4	0.040263787
89	0x3da39c8d	0.07988844
90	0x3e07b7af	0.13253663
91	0x3c58e811	0.013238923
92	0xbdc036a6	-0.09385423
93	0x3dd3c1be	0.10339688
94	0xbd20cce0	-0.039257884
95	0xbe45e28b	-0.193247
96	0x3e977d31	0.295877
97	0xbb3656ea	-0.00278228
98	0xbe453446	-0.19258222
99	0x3d8286ba	0.06373353
100	0xbdca7cd6	-0.09887092
101	0x3d5ee770	0.054419935
102	0x3dc6e12d	0.097109176
103	0x3e01f4e5	0.12691076
104	0x3db748a9	0.08949406
105	0x3f0756f6	0.52867067
106	0x3dcc6682	0.09980489
107	0x3e073d79	0.13207044
108	0x3d011804	0.031517044
109	0x3e34c908	0.17654812
110	0xbde1196f	-0.10991179
111	0x3ec01eaa	0.37523395
112	0x3e5fa69d	0.21840902
113	0xbca998b2	-0.020702694
114	0x3e6a30a4	0.22870117
115	0x3cf14e5d	0.029456312
116	0xbe916698	-0.28398585
117	0xbeafbd40	-0.34324074
118	0x3e07847c	0.13234133
119	0x3d9f1855	0.07768313
120	0x3eae5d40	0.3405552
121	0x3c4ce147	0.012504882
122	0x3e85d86c	0.2614168
123	0x3e8f1487	0.2794535
124	0x3ef7ca18	0.48396373
125	0xbd0fb2b5	-0.035082538
126	0xbd2fe362	-0.04294146
127	0x3cd458c0	0.025921226
128	0xbd05348a	-0.03252081
129	0xbe347dbc	-0.17626089
130	0xbdcae693	-0.0990726
131	0x3e34266f	0.17592786
132	0xbc68f66f	-0.014218911
133	0xbe5bf41e	-0.21479842
134	0xbde8c003	-0.11364748
135	0x3d7b3bed	0.061336447
136	0x3c80bbe1	0.015714588
137	0xbd210e48	-0.03932026
138	0xbe67cbdc	-0.2263636
139	0x3e59ae14	0.21257812
140	0xbdab8e7d	-0.08376787
141	0xbe86e309	-0.2634509
142	0xbd9d1425	-0.07669858
143	0x3e1ff4fa	0.15620795
144	0xbdcf0b3e	-0.10109566
145	0x3de60eef	0.11233317
146	0xbdd378c6	-0.1032577
147	0x3db33147	0.08749633
148	0x3e356972	0.17716005
149	0x3e15bff3	0.14624004
150	0xbec033b8	-0.37539458
151	0x3d048747	0.032355573
152	0x3eaabb0f	0.3334584
153	0x3eab6676	0.3347661
154	0xbebd5826	-0.36981314
155	0x3f28514d	0.65749055
156	0x3ec7cffa	0.3902586
157	0xbe8baf2c	-0.27282083
158	0xbcf3dca5	-0.029768297
159	0x3dc1470a	0.09437378
160	0xbe71453b	-0.23561566
161	0x3ea109dd	0.31452838
162	0x3ea63020	0.3245859
163	0xbe0fb5e8	-0.14034235
164	0x3ede65f1	0.4343715
165	0x3e3b6ab8	0.18302429
166	0xbf37b4e0	-0.7176037
167	0xbeccaa00	-0.3997345
168	0x3de58765	0.11207465
169	0xbd22d222	-0.03975118
170	0x3e1f3792	0.15548542
171	0x3b81bfc8	0.0039596297
172	0x3ee3b707	0.44475576
173	0x3f140161	0.57814604
174	0x3eb4fcca	0.35349113
175	0xbe9250ea	-0.28577358
176	0x3e739483	0.23787121
177	0x3e363f36	0.1779755
178	0x3e063690	0.13106751
179	0xbd1d9cc5	-0.038479585
180	0x3f28b066	0.6589416
181	0x3e3ed297	0.18635021
182	0xbd32926d	-0.043596674
183	0xbdee5959	-0.116381355
184	0x3ec2e8a5	0.3806812
185	0x3cabe0e6	0.020981263
186	0x3f07c946	0.53041494
187	0x3ee214fb	0.44156632
188	0xbe90532f	-0.28188464
189	0x3eefff42	0.46874434
190	0xbc8bc18d	-0.017060066
191	0xbf02091e	-0.5079516
192	0xbeb88d62	-0.36045367
193	0x3e7ed68d	0.24886532
194	0xbd884a2d	-0.06654773
195	0x3ec86663	0.39140615
196	0x3c7c3e3b	0.015395696
197	0x3ebe48fb	0.37165055
198	0x3eeb9837	0.46014568
199	0x3ea29e6e	0.31761497
200	0xbe9aec0d	-0.30258217
201	0x3dac5877	0.08415311
202	0x3e8744f6	0.264198
203	0x3ebdead5	0.37093225
204	0x3e34fc04	0.17674261
205	0x3ee39968	0.44452977
206	0xbdcb1aab	-0.09917196
207	0x3d1b0071	0.037842218
208	0xbd36f430	-0.04466647
209	0x3e7e630d	0.24842472
210	0xbe3ba8c1	-0.18326093
211	0x3e69357d	0.2277431
212	0x3d01274a	0.03153161
213	0xbdf1fc50	-0.11815703
214	0x3ebfa1fc	0.37428272
215	0xbb8e5374	-0.0043434445
216	0xbed47518	-0.41495585
217	0xbe0c7366	-0.13715896
218	0x3e1fe4f7	0.15614687
219	0xbd8bba79	-0.06822676
220	0x3ed91363	0.42397603
221	0xbdb3072b	-0.087416016
222	0x3ee8613c	0.45386684
223	0x3f28f8bf	0.66004556
224	0x3ecce809	0.4002078
225	0xbd452b73	-0.04813714
226	0x3ec58583	0.38578424
227	0x3d71c76f	0.059028085
228	0x3e28f3b3	0.16499214
229	0xbd0f837e	-0.03503751
230	0x3b9240fa	0.004463312
231	0xbe6070f9	-0.21918096
232	0x3e2e8964	0.17044598
233	0xbdf7d3b3	-0.12100925
234	0xbb7c5126	-0.0038500517
235	0x3d949a56	0.07256
236	0x3e8ef150	0.27918482
237	0xbdb469f7	-0.08809274
238	0xbd4c6a30	-0.049905956
239	0x3e5682b4	0.20948297
240	0xbd599ac8	-0.053126127
241	0xbeca08b9	-0.3945978
242	0xbea3fd93	-0.320294
243	0x3e7c8cf4	0.24663144
244	0x3d789c2f	0.060695823
245	0x3e0f0978	0.13968456
246	0x3e34a835	0.17642291
247	0x3d840707	0.06446653
248	0x3e0b4cad	0.13603468
249	0x3e7e572c	0.24837941
250	0x3c827de9	0.01592918
251	0x3d641563	0.05568446
252	0x3e5cf93d	0.21579452
253	0x3e174f38	0.14776313
254	0x3e5b5602	0.21419528
255	0x3ef23254	0.47304022

bias_ih_l0 f4 [100]
0	0x3f599fa3	0.8500921
1	0x3ec81307	0.39077017
2	0x3dacdd78	0.08440679
3	0x3d643aa4	0.055719987
4	0x3e736bbc	0.23771566
5	0x3d63affe	0.05558776
6	0x3e8fd9d4	0.28095877
7	0x3edafda1	0.42771628
8	0x3f0686eb	0.5254962
9	0x3da589ef	0.08082949
10	0x3ef0da0d	0.4704136
11	0x3bda07c4	0.0066537578
12	0x3f166348	0.5874524
13	0xbda40387	-0.08008485
14	0xbe519880	-0.2046833
15	0x3e9f1fa2	0.3107882
16	0x3ed7825a	0.42091638
17	0x3e471155	0.19440205
18	0x3e08094f	0.13284801
19	0x3e9de58a	0.30839187
20	0xbd7cf610	-0.0617581
21	0x3ea91648	0.33024812
22	0xbdebec30	-0.115196586
23	0x3e4348ec	0.19070786
24	0x3d9c905e	0.07644723
25	0xbec53abb	-0.3852137
26	0xbe55c74d	-0.20876808
27	0xbe4d63d3	-0.20057611
28	0xbc020c52	-0.007937508
29	0xbd532401	-0.051548008
30	0x3d95802e	0.07299839
31	0xbe3c0add	-0.18363519
32	0xbbe8108c	-0.0070820507
33	0xbea67fb8	-0.32519317
34	0xbbfa99d6	-0.007647733
35	0x3e0144fe	0.12623975
36	0xbe65a000	-0.22424316
37	0xbe577c62	-0.21043542
38	0xbd7065f0	-0.058690965
39	0xbe0d22e5	-0.13782842
40	0xbe89a5ba	-0.26884252
41	0x3e62b9de	0.22141215
42	0x3c253dd5	0.010085543
43	0xbbc1719f	-0.0059034373
44	0xbd6463dd	-0.0557593
45	0x3dbcecfb	0.09224888
46	0xbe1bd3a5	-0.15217455
47	0xbe0ab31a	-0.13544884
48	0x3e154a46	0.14579114
49	0x3c45afcc	0.012065839
50	0xbdf23e6a	-0.11828311
51	0xbde13cd9	-0.10997934
52	0x3e052b97	0.1300491
53	0xbb85c5d5	-0.0040824213
54	0xbd23e9cd	-0.04001789
55	0x3dc80770	0.097670436
56	0x3d7b3217	0.061327066
57	0xbe3d6e7b	-0.18499176
58	0x3dc5e2db	0.0966241
59	0xbd9d7f91	-0.07690347
60	0xbd63fc27	-0.055660393
61	0xbde1456c	-0.10999569
62	0x3e0f22fe	0.13978192
63	0x3e085878	0.13314998
64	0xbe4002f6	-0.1875113
65	0xbd0d940c	-0.034565017
66	0x3d9f01c8	0.077640116
67	0xbcb40988	-0.021977201
68	0xbca25222	-0.019814555
69	0xbd5355a8	-0.05159536
70	0x3e033b9e	0.12815711
71	0xbde20cf7	-0.11037629
72	0x3db9fa2f	0.09080922
73	0x3ddbb868	0.10728532
74	0x3e0ec2f6	0.13941559
75	0x3f47b654	0.78012586
76	0x3e1dd8d1	0.1541474
77	0x3e3614c4	0.17781359
78	0xbde26b96	-0.11055677
79	0x3e906a41	0.28206065
80	0x3e3c9a06	0.1841813
81	0x3ede46db	0.43413433
82	0x3ea378f3	0.31928214
83	0x3f080c16	0.5314344
84	0x3cfb5bc3	0.030683404
85	0x3ec8afe7	0.39196703
86	0xbdfed0fc	-0.12442204
87	0x3eccf387	0.40029547
88	0x3e482aa9	0.19547524
89	0x3e4e57c1	0.20150663
90	0x3ed68abc	0.4190272
91	0x3e4d8f12	0.20074108
92	0xbcf73927	-0.03017862
93	0xbdb4434d	-0.08801899
94	0x3eb113ed	0.34585515
95	0xbd1173f5	-0.035510976
96	0x3e803f88	0.2504847
97	0xbe51c245	-0.20484264
98	0xbddccd6e	-0.1078137
99	0x3dd712f2	0.105016604

bias_hh_l0 f4 [100]
0	0x3f408414	0.75201535
1	0x3e88c22c	0.2671064
2	0x3ec2a45c	0.3801602
3	0xbe85b256	-0.26112622
4	0x3ede745e	0.43448156
5	0x3e1a359b	0.15059511
6	0x3eab682a	0.33477908
7	0x3e11c102	0.14233783
8	0x3f18fa61	0.5975705
9	0xbd8f08a3	-0.06984069
10	0x3ee6bdbb	0.45066628
11	0xbe133d00	-0.14378738
12	0x3eae2246	0.34010524
13	0x3df94238	0.12170833
14	0xbce374ea	-0.02776571
15	0x3ecf437d	0.40481177
16	0x3e198460	0.14991903
17	0xbd314049	-0.043274198
18	0x3dd923db	0.10602542
19	0x3e2c77ff	0.1684265
20	0x3dab8cbc	0.08376452
21	0x3db78ddc	0.089626044
22	0xbd89777f	-0.06712245
23	0x3e817c56	0.25290173
24	0x3e6c4faf	0.23077272
25	0xbe995241	-0.29945567
26	0xbe589a5b	-0.21152632
27	0xbe077b89	-0.13230719
28	0xbe431f91	-0.1905501
29	0xbdf94f7f	-0.12173366
30	0xbd1384b7	-0.03601524
31	0xbe97cd38	-0.29648757
32	0xbc9d75de	-0.019221243
33	0xbea26ecf	-0.31725165
34	0xbe3a1df2	-0.18175486
35	0xbe60f45e	-0.21968219
36	0x3d97b87a	0.07408233
37	0x3cb02862	0.021503631
38	0x3d26540e	0.040607505
39	0xbe20bca2	-0.15696958
40	0xbdda8233	-0.10669365
41	0x3e4c5e93	0.19957952
42	0x3cb8f635	0.022578338
43	0xbdd9028f	-0.10596191
44	0x3db73de1	0.08947349
45	0x3d9df0b0	0.07711923
46	0xbe01a771	-0.1266153
47	0x3bd204af	0.0064092497
48	0xbdb619ea	-0.088916615
49	0x3c62ab0e	0.013834728
50	0xbd38c4e3	-0.04510964
51	0xbd286d7d	-0.04112004
52	0x3cc5448d	0.02408054
53	0x3e01dc58	0.1268171
54	0xbda86f82	-0.082243934
55	0x3e0343e3	0.12818865
56	0x3d9ab805	0.0755463
57	0x3dacd132	0.08438338
58	0xbb9c01df	-0.0047609652
59	0x3d513f5f	0.051085826
60	0xbcfbb4f2	-0.03072593
61	0x3d8dd3d9	0.06925172
62	0x3c8f937a	0.017526377
63	0xbdaf3661	-0.08555294
64	0x3e07c92b	0.13260333
65	0x3e07ad7b	0.13249771
66	0xbd4fe9af	-0.050759967
67	0x3dcdbfb1	0.10046328
68	0xbceee07f	-0.029159782
69	0x3e1baae7	0.15201913
70	0x3d2a0ab7	0.041514125
71	0x3cda8270	0.026673526
72	0x3de75d00	0.11297035
73	0x3c3449c4	0.011003915
74	0xbd49b960	-0.049249053
75	0x3f26effc	0.6520994
76	0x3ea44bc1	0.32089046
77	0x3e951e03	0.2912446
78	0x3dd26218	0.10272616
79	0x3ea6a880	0.3255043
80	0x3da973af	0.08274018
81	0x3f0351d5	0.5129674
82	0x3e32fd89	0.17479528
83	0x3f031d92	0.51216996
84	0x3e6aeb51	0.22941329
85	0x3e375e17	0.17906986
86	0xbdbbc332	-0.0916809
87	0x3eaa1d05	0.33225265
88	0x3e54ecfd	0.20793529
89	0xbe1d7797	-0.15377651
90	0x3eaa2876	0.33233994
91	0x3e7b6c55	0.24553044
92	0x3d3ef02f	0.046615776
93	0x3e4433ef	0.19160436
94	0x3e8b26f4	0.27178156
95	0xbd2efaf4	-0.042719796
96	0x3e427984	0.18991667
97	0xbdef7198	-0.11691588
98	0xbdcac66f	-0.099011295
99	0x3e443e7b	0.1916446

weight_ih_l1 f4 [100, 25]
0	0xbdeaf48c	-0.11472425
1	0x3eb401c0	0.35157585
2	0x3d565f67	0.052337077
3	0x3e778edc	0.2417559
4	0xbc71eb80	-0.01476562
5	0x3e58efc8	0.2118522
6	0xbe92e54a	-0.2869056
7	0x3d733a9e	0.059382074
8	0xbddf19a4	-0.108935624
9	0x3e7b0058	0.2451185
10	0xbbba6359	-0.0056881127
11	0xbda7d7cd	-0.081954576
12	0xbe81be62	-0.25340563
13	0x3dce63f1	0.10077656
14	0x3e91c69e	0.28471845
15	0xbe83796b	-0.25678572
16	0xbd62368a	-0.055227794
17	0xbe4b0c81	-0.19828989
18	0xbcfd082f	-0.030887691
19	0xbccb15ff	-0.024790762
20	0xbe28964a	-0.1646358
21	0xbdcdd9d8	-0.10051316
22	0x3e92c37a	0.28664762
23	0x3e914a1d	0.28376856
24	0x3d183e03	0.037168514
25	0x3da01446	0.07816367
26	0x3dbf3e3e	0.09338044
27	0x3debe816	0.11518876
28	0x3da21aa8	0.079152405
29	0x3df5172a	0.11967309
30	0xbd94b253	-0.07260575
31	0xbe338690	-0.175318
32	0x3d9ba020	0.07598901
33	0x3cbee287	0.023301376
34	0x3d9271b8	0.071505964
35	0x3dc4192b	0.09575113
36	0x3e6f25b3	0.23354225
37	0xbe6abbc7	-0.22923194
38	0x3d67d190	0.05659634
39	0x3e26fd18	0.16307485
40	0xbddee90e	-0.108842954
41	0x3acf55ec	0.0015818453
42	0xbeb712a1	-0.357564
43	0xbca7a464	-0.02046413
44	0xbd9dc6dc	-0.07703945
45	0xbdebf796	-0.11521833
46	0x3cc67494	0.02422551
47	0x3dc06bc6	0.09395556
48	0x3de80ead	0.11330924
49	0x3e83eb49	0.25765446
50	0x3ce2f3e7	0.027704192
51	0xbb0c4772	-0.002140489
52	0xbb8d3473	-0.004309231
53	0xbe4a5ff6	-0.19763169
54	0x3e0b177d	0.13583179
55	0xbe3d66b9	-0.18496217
56	0x3cc2cc0c	0.023778938
57	0x3ea21432	0.31656033
58	0xbdaefec9	-0.0854469
59	0x3de6943f	0.112587444
60	0xbc1704a1	-0.009217412
61	0x3dc2ff36	0.09521334
62	0xbdf75a6f	-0.12077796
63	0x3ce6dc18	0.02818112
64	0xbc737c17	-0.014861128
65	0xbd869c9a	-0.06572838
66	0x3dccba43	0.09996464
67	0x3c437a82	0.011931064
68	0xbdcbfaca	-0.099599436
69	0xbe8b23a2	-0.27175623
70	0xbe9abb1e	-0.30220884
71	0xbe1e235a	-0.15443173
72	0x3b84b11f	0.004049435
73	0x3d191af0	0.037379205
74	0x3d23340b	0.039844554
75	0xbd1c6c8d	-0.03818946
76	0x3e8e2d1b	0.27768788
77	0xbd18052b	-0.037114304
78	0x3df633c7	0.120215945
79	0x3dbe1270	0.092808604
80	0xbd2de0eb	-0.042450827
81	0xbea3534b	-0.31899485
82	0x3dfc8ed0	0.12331927
83	0xbe857888	-0.2606852
84	0x3e0f0499	0.13966598
85	0x3e466e3c	0.19377989
86	0x3e2b22d4	0.16712505
87	0xbc99b01d	-0.018760735
88	0xbe2d7be9	-0.16941799
89	0x3e8c75a3	0.274335
90	0xbd5d9369	-0.05409566
91	0xbce032dc	-0.027368002
92	0xbcbffd40	-0.023436189
93	0x3e3d4c47	0.18486129
94	0x3d3566ad	0.044287372
95	0x3d0197d9	0.031638954
96	0x3ddce9b4	0.10786763
97	0x3b3e1cd2	0.0029008877
98	0xbce5abee	-0.028036084
99	0x3c817c2a	0.015806276
100	0xbe99a21d	-0.30006495
101	0xbc94fef3	-0.018187976
102	0x3e66f2ec	0.22553605
103	0x3dd0e15f	0.10199236
104	0xbf12446c	-0.57135653
105	0x3e92d04c	0.28674543
106	0x3d9ba126	0.07599096
107	0xbea4b33b	-0.32167992
108	0x3ed29db6	0.4113595
109	0xbe16d4b2	-0.14729574
110	0xbec17e0a	-0.37791473
111	0xbe36c928	-0.17850173
112	0x3ebf1217	0.3731849
113	0x3ed6c51d	0.4194726
114	0xbbde1531	-0.0067774286
115	0x3e4931a8	0.19647849
116	0xbd371779	-0.04470012
117	0x3e08711e	0.13324401
118	0xbdcc4e77	-0.099759035
119	0x3eaacbaa	0.33358508
120	0x3c2fb73e	0.010724841
121	0xbea9c408	-0.33157372
122	0xbcfc914c	-0.030831002
123	0x3cceed15	0.025259534
124	0x3ef931aa	0.48670703
125	0x3c3bc30a	0.011460075
126	0x3ed8298a	0.42219192
127	0xbe70e5ed	-0.2352521
128	0x3e449a3f	0.19199465
129	0x3dbedacf	0.09319078
130	0x3e673074	0.22577077
131	0xbe86c9de	-0.26325887
132	0x3ccd7d20	0.025084078
133	0xbe8581f6	-0.26075715
134	0x3e1e8d8e	0.15483686
135	0x3dc349a3	0.095355295
136	0x3ea95863	0.33075246
137	0xbe43a346	-0.19105253
138	0x3ca596b2	0.020213459
139	0x3e750deb	0.2393109
140	0xbe1295ea	-0.14315
141	0xbe02515f	-0.12726353
142	0xbea9195b	-0.33027157
143	0x3e159d5c	0.14610809
144	0xbc046f07	-0.008083112
145	0x3ceb815c	0.028748207
146	0x3d241549	0.04005936
147	0x3da053ac	0.07828459
148	0x3e344d8a	0.17607704
149	0x3df2b931	0.11851729
150	0x3c958dc8	0.018256083
151	0x3de62aba	0.11238618
152	0x3e0fbe6c	0.14037484
153	0x3db42b68	0.087973416
154	0x3e01016c	0.12598199
155	0x3dcbdaf7	0.099538736
156	0x3d5f5a5d	0.054529537
157	0x3e788333	0.24268799
158	0x3bf2a71d	0.0074051754
159	0x3dc5a3bb	0.0965037
160	0x3e80f099	0.2518356
161	0x3dc9f145	0.09860472
162	0xbd8e6e0d	-0.06954584
163	0xbde0ade7	-0.10970669
164	0x3d26fcd3	0.040768456
165	0xbc3dcb90	-0.011584178
166	0xbe183ff3	-0.14868145
167	0xbd065218	-0.032793134
168	0x3c99f70c	0.018794559
169	0xbeb7883f	-0.35846135
170	0xbe6eff4c	-0.23339576
171	0x3e3df39c	0.18549961
172	0xbdaa022a	-0.08301194
173	0xbda81ac6	-0.08208232
174	0x3dcee84c	0.10102901
175	0xbdae3725	-0.08506612
176	0x3ec221bb	0.3791636
177	0x3deb9c03	0.11504366
178	0x3e988c78	0.2979467
179	0xbd818e00	-0.063259125
180	0x3be98f39	0.007127669
181	0xbd9117b5	-0.070846
182	0x3e3622a0	0.17786646
183	0xbe3b2e55	-0.18279393
184	0x3e3b88a2	0.1831384
185	0xb9a54e98	-0.0003152981
186	0x3e395278	0.18097866
187	0xbda4aa65	-0.08040313
188	0xbe3592ce	-0.17731783
189	0x3e7207a9	0.23635735
190	0xbd8048c8	-0.06263882
191	0xbcbc8d10	-0.023016483
192	0xb9beb798	-0.00036376412
193	0x3e0c6e00	0.13713837
194	0xbdc2db87	-0.09514528
195	0xbe058af4	-0.13041288
196	0x3e87153d	0.2638339
197	0x3d8e8840	0.069595814
198	0xbdd217f1	-0.10258473
199	0x3dfbfeb6	0.12304442
200	0xbe1ef6e0	-0.15523863
201	0xbe1bb974	-0.15207464
202	0x3d54f0d4	0.051987484
203	0xbd67fdbb	-0.05663846
204	0x3e4d1a7c	0.20029634
205	0x3e3b44c9	0.18287958
206	0x3d88a3ba	0.06671853
207	0x3e871302	0.2638169
208	0xbe4c8859	-0.19973888
209	0x3e67a467	0.22621308
210	0x3d09b32f	0.03361815
211	0x3e6cfc49	0.23143114
212	0x3e36e408	0.17860425
213	0x3e6ae1c7	0.2293769
214	0x3e0f0c1c	0.13969463
215	0xbe8879fe	-0.26655573
216	0x3df57b5b	0.11986419
217	0x3d4169c2	0.04722
218	0xbd8277e7	-0.06370526
219	0xbd94af7a	-0.07260032
220	0x3d23103a	0.039810397
221	0xbdf3fcfc	-0.11913487
222	0x3e93e741	0.2888737
223	0x3d144d46	0.036206506
224	0x3e0dda61	0.13852836
225	0x3e3d4351	0.1848271
226	0x3e33bad9	0.17551745
227	0xbe0d88a7	-0.1382166
228	0x3e588d32	0.21147612
229	0x3dc8d7d7	0.09806793
230	0x3e6a215c	0.22864288
231	0xbeae692d	-0.34064618
232	0x3ecc5264	0.3990661
233	0xbeb2f5c5	-0.34953132
234	0x3ea4a075	0.3215367
235	0x3eab1267	0.33412477
236	0xbcc2dd3e	-0.023787137
237	0xbe4c9eee	-0.19982502
238	0xbcc96dfc	-0.024588577
239	0x3e4bc0d5	0.19897778
240	0xbe319b61	-0.17344429
241	0xbd1901e5	-0.037355322
242	0xbe1b566e	-0.15169689
243	0x3ea0ba66	0.3139221
244	0xbe1b2be4	-0.15153462
245	0xbdf04457	-0.11731785
246	0x3e5c0fdd	0.21490426
247	0x3e0f9c31	0.14024426
248	0x3e4e940c	0.20173663
249	0x3dc3ebe8	0.0956648
250	0x3e92dd12	0.28684288
251	0x3da75311	0.081701405
252	0xbde84144	-0.113405734
253	0x3e697d3b	0.22801678
254	0x3e9767e3	0.29571447
255	0x3d68cf25	0.056838173

weight_hh_l1 f4 [100, 25]
0	0xbe15e8c8	-0.1463958
1	0x3d858814	0.065200955
2	0xbe0652d7	-0.13117538
3	0x3e05fc38	0.13084495
4	0xbe6636f4	-0.224819
5	0xbddecf56	-0.1087939
6	0x3e6290cb	0.22125547
7	0xbd246e8b	-0.040144484
8	0xbd1814ce	-0.037129216
9	0xbe0a5f38	-0.13512886
10	0xbe6f0bc4	-0.23344332
11	0x3e92f6dd	0.28703967
12	0x3d9801cf	0.0742222
13	0xbd9157c9	-0.07096822
14	0x3e79c2ba	0.24390689
15	0x3b0547bd	0.0020336949
16	0x3e31a638	0.17348564
17	0xbc5d7d22	-0.0135186035
18	0x3df1b6ac	0.1180242
19	0x3e01fddf	0.126945
20	0x3d52cfcf	0.051467713
21	0xbdb2d21d	-0.08731482
22	0x3c078068	0.0082703605
23	0xbe0825e7	-0.13295709
24	0x3e15cd38	0.14629066
25	0xbe949bff	-0.29025266
26	0xbc34078b	-0.0109881265
27	0xbe5469e6	-0.20743522
28	0x3ea005dd	0.31254473
29	0xbe47a961	-0.19498207
30	0xbd8ff2fa	-0.07028766
31	0x3eb69bdf	0.35665795
32	0x3e9a93b3	0.3019081
33	0x3e7e1413	0.24812345
34	0x3ea7a8b6	0.32745904
35	0xbe3ee345	-0.18641384
36	0x3e25edab	0.16203944
37	0xbd84e5a1	-0.06489111
38	0x3c2687c5	0.010164206
39	0x3dbfb1fa	0.09360118
40	0x3c96d277	0.018410904
41	0x3dce5296	0.10074346
42	0xbb89235d	-0.004185124
43	0x3ec87478	0.3915136
44	0x3e03e889	0.12881674
45	0x3cbda8dc	0.023151807
46	0xbe39e689	-0.18154348
47	0x3ea4308a	0.32068282
48	0xbe638ffb	-0.22222893
49	0x3cd837f7	0.026393874
50	0x3ddb2473	0.107003115
51	0xbe311144	-0.17291743
52	0x3de3d65f	0.111248724
53	0xbdd3048c	-0.103036016
54	0xbec08ece	-0.3760895
55	0xbdea8cf8	-0.11452669
56	0x3d99331a	0.0748045
57	0xbe01801d	-0.12646528
58	0x3e33945b	0.17537062
59	0xbd9aade8	-0.07552701
60	0x3d3aa0e9	0.045563612
61	0x3e635792	0.22201374
62	0x3c74cfcf	0.014942124
63	0x3cb22389	0.02174546
64	0xbd0aa938	-0.033852786
65	0x3dfeb93d	0.12437675
66	0xbdc08620	-0.09400582
67	0x3e318b29	0.17338242
68	0x3bddb458	0.0067658834
69	0xbe1ebf01	-0.1550255
70	0xbdae59be	-0.08513211
71	0xbcde023c	-0.027100675
72	0xbe34391b	-0.17599909
73	0xbdd23ac3	-0.10265114
74	0x3c8d08d9	0.017216133
75	0xbe5f89f0	-0.21829963
76	0x3e80c03f	0.25146672
77	0xbdfed1cc	-0.12442359
78	0x3d1c7312	0.038195677
79	0xbda25b1e	-0.079275355
80	0xbdbf6318	-0.093450725
81	0x3e0d233a	0.13782969
82	0x3d80fd86	0.06298356
83	0x3d857aac	0.065175384
84	0xbd4817b8	-0.048850745
85	0x3d4bdd34	0.049771503
86	0x3de28b9a	0.11061783
87	0xbddc1f60	-0.10748172
88	0x3d8d0b05	0.068868674
89	0x3e4916ac	0.19637555
90	0xbe7992c5	-0.24372394
91	0xbe0efaac	-0.13962811
92	0x3e62c09e	0.2214379
93	0xbd03faae	-0.03222149
94	0x3e86a6d7	0.26299164
95	0x3e7694d3	0.2408021
96	0x3dacc53a	0.084360555
97	0x3cf4a173	0.029862141
98	0xbe66d9a2	-0.22543958
99	0x3e4b79b9	0.19870652
100	0x3e40f9da	0.18845311
101	0xbeadcc8c	-0.3394512
102	0xbdf715eb	-0.120647274
103	0xbea18cf8	-0.31552863
104	0xbdc019df	-0.093799345
105	0x3ea48189	0.32130077
106	0x3ce6ac1f	0.028158246
107	0xbed2e070	-0.41186857
108	0xbd50d9f2	-0.0509891
109	0xbe66ea5d	-0.2255034
110	0xbdae3178	-0.08505529
111	0x3d7a8909	0.061165843
112	0xbead614a	-0.33863288
113	0xbdf842cc	-0.121221155
114	0x3ce31b8f	0.027723102
115	0x3e2673a0	0.16255045
116	0x3dcceea0	0.100064516
117	0x3dff3677	0.1246156
118	0x3c7475ea	0.014920691
119	0xbd6f8c09	-0.058483157
120	0xbedeaf7c	-0.4349326
121	0x3e73d3a6	0.23811206
122	0x3d015b6f	0.03158134
123	0x3d17a018	0.03701791
124	0xbeed1063	-0.46301565
125	0xbdd351c5	-0.10318331
126	0x3da15b03	0.07878687
127	0xbddb54d1	-0.10709537
128	0x3e967032	0.29382473
129	0xbf0ae1da	-0.5425087
130	0xbe913926	-0.28363913
131	0x3dff8fd4	0.12478605
132	0x3e4cebc0	0.20011806
133	0x3dc47897	0.09593313
134	0xbcef7219	-0.02922921
135	0xbea39b14	-0.31954253
136	0x3ed47745	0.41497245
137	0xbd9f47c7	-0.07777362
138	0xbe35ee38	-0.17766654
139	0x3e1028c0	0.14078045
140	0xbe84e99a	-0.25959474
141	0xbd5c0c1f	-0.053722497
142	0x3df752f8	0.12076372
143	0x3e639260	0.22223806
144	0x3ea14315	0.31496492
145	0xbd99d4ca	-0.075112894
146	0xbe880f65	-0.26574245
147	0x3c9c682c	0.019092642
148	0xbd8791db	-0.066196166
149	0xbca54cb0	-0.020178169
150	0x3da5fefe	0.081052765
151	0xbd7bed1a	-0.061505415
152	0x3e3944ec	0.18092698
153	0xbdbea63a	-0.09309049
154	0xbddeea8c	-0.1088458
155	0x3e0783fd	0.13233943
156	0x3d93bffd	0.07214353
157	0x3e40528e	0.18781492
158	0x3e090e3a	0.13384333
159	0xbd923b66	-0.071402356
160	0x3d1d4fc5	0.038406152
161	0x3e3e5922	0.18588689
162	0xbe322268	-0.17395937
163	0x3dc1241f	0.09430718
164	0xbd1675b8	-0.03673336
165	0xbda48c23	-0.080345415
166	0xbda8f744	-0.08250287
167	0x3bcff164	0.0063459147
168	0xbd9add18	-0.075617015
169	0x3e749d4a	0.23888126
170	0x3d933df0	0.07189548
171	0x3dc2cf98	0.095122516
172	0x3dad2c16	0.08455674
173	0xbe0d672c	-0.13808888
174	0x3e300b5d	0.17191835
175	0xbe8eedfb	-0.2791594
176	0x3e4dacd8	0.20085466
177	0xbd5a3faf	-0.05328339
178	0x3e54b77b	0.20773117
179	0xbe97560c	-0.29557836
180	0x3c317c5a	0.01083287
181	0xbc1d3f43	-0.009597602
182	0x3dc976a0	0.09837079
183	0x3e248549	0.16066469
184	0x3d9fe6f7	0.07807725
185	0xbd3240f6	-0.043518983
186	0x3d0188e7	0.0316247
187	0xbd0f707a	-0.035019375
188	0xbd81527d	-0.063145615
189	0x3dce6cae	0.10079323
190	0xbdc7b568	-0.09751397
191	0x3e0703bf	0.13185023
192	0x3ea1969e	0.31560224
193	0x3cb7171f	0.022349892
194	0x3e7c8858	0.24661386
195	0x3e85757b	0.26066193
196	0x3d8d8f12	0.06912054
197	0x3d7408d5	0.059578735
198	0xbcf8cdcd	-0.030371571
199	0xbd69b250	-0.057054818
200	0x3e2f87d4	0.17141658
201	0xbdb3b7a0	-0.08775258
202	0x3e4c281c	0.19937176
203	0xbdd32c1a	-0.10311146
204	0xbeb37668	-0.35051274
205	0xbe09c69c	-0.1345467
206	0x3e323674	0.17403585
207	0x3c4a2e83	0.012340191
208	0xbda31318	-0.07962626
209	0xbda4778c	-0.08030614
210	0xbcc037e8	-0.023464158
211	0x3e468d14	0.19389755
212	0xbe26498c	-0.16238993
213	0x3dbb5ffd	0.09149168
214	0x3e5487b8	0.20754898
215	0x3e0ef2e7	0.13959847
216	0x3d3c8ce0	0.046032786
217	0x3ceee50d	0.029161954
218	0x3e299468	0.16560519
219	0x3e1638ea	0.14670148
220	0x3cd67e08	0.026183143
221	0xbe120de9	-0.14263119
222	0xbde0ff10	-0.10986149
223	0xbd94a13a	-0.07257314
224	0xbc91b90b	-0.01778843
225	0xbdc66afc	-0.096883744
226	0xbd435c86	-0.04769566
227	0xbe0633cd	-0.13105698
228	0xbd539504	-0.051655784
229	0xbeb3972b	-0.3507627
230	0x3d877569	0.06614191
231	0x3d7fafd6	0.06242355
232	0x3d2250d6	0.039627872
233	0x3d919284	0.07108024
234	0xbe139a0f	-0.14414237
235	0xbe57f939	-0.21091165
236	0x3e8b6bce	0.27230686
237	0x3d338dd6	0.043836437
238	0x3d83e06c	0.064392895
239	0x3eae1f02	0.34008032
240	0x3c858bac	0.016301952
241	0xbe1464be	-0.14491555
242	0x3c803774	0.015651442
243	0x3e8ee741	0.27910808
244	0xbdb63c92	-0.088982716
245	0xbbdeb7de	-0.006796821
246	0x3d92b148	0.0716272
247	0x3e8847b1	0.26617196
248	0xbdcc6cd5	-0.099816956
249	0xbdbc6201	-0.0919838
250	0xbd916d20	-0.07100892
251	0xbd459809	-0.048240695
252	0xbe409daf	-0.18810152
253	0x3e46b37f	0.1940441
254	0xbeabb6e5	-0.33537975
255	0x3dbef32f	0.09323727

bias_ih_l1 f4 [100]
0	0x3d301bb0	0.042995155
1	0x3eb29c83	0.34885034
2	0x3e3e3e02	0.18578342
3	0x3e7d015c	0.2470755
4	0x3e4f9847	0.20272933
5	0x3e3ad557	0.18245445
6	0x3e8b9155	0.27259317
7	0x3c99a29b	0.018754294
8	0x3e6452f9	0.22297277
9	0xbd7d0dce	-0.061780743
10	0xbdc6a3a5	-0.096991815
11	0x3e2dc791	0.1697066
12	0xbd43b137	-0.047776427
13	0x3dee4428	0.116340935
14	0xbdedb679	-0.116070695
15	0x3e3456ec	0.17611283
16	0x3eafa0f8	0.34302497
17	0x3e2ee541	0.17079641
18	0x3dc9bbcb	0.09850272
19	0x3e412490	0.18861604
20	0x3eaf78a5	0.34271732
21	0x3e64f7ee	0.22360203
22	0xbe040b0c	-0.12894839
23	0x3d431dc4	0.04763581
24	0x3e34e13b	0.17664044
25	0xbe88abcb	-0.26693568
26	0xbe9133d9	-0.2835987
27	0xbda20561	-0.07911182
28	0xbe94be2d	-0.29051343
29	0xbdbe9903	-0.093065284
30	0xbc8ddfbd	-0.0173186
31	0xbea13b0d	-0.31490365
32	0xbdab0f7d	-0.083525635
33	0xbd629155	-0.05531438
34	0xbe89117f	-0.2677116
35	0xbc87ea1d	-0.016591126
36	0x3cee6a4f	0.029103426
37	0xbe6f390c	-0.23361605
38	0xbda4a606	-0.08039479
39	0xbce8fcdc	-0.028440885
40	0x3d33a551	0.04385883
41	0xbe97db38	-0.29659438
42	0xbe222976	-0.15836129
43	0x3d1c3a87	0.038141754
44	0xbe3a09ef	-0.18167852
45	0xbd9fc409	-0.078010626
46	0x3d6b28b2	0.057411857
47	0xbdda16f0	-0.10648906
48	0xbe92e8bf	-0.28693196
49	0xbe9dc4ed	-0.30814305
50	0x3d0f82fb	0.035037022
51	0x3d273cf6	0.04082962
52	0x3ba3a3e4	0.0049939025
53	0xbe15f61a	-0.14644662
54	0xbcbd36be	-0.023097392
55	0x3d22a12a	0.03970448
56	0x3c8b46ce	0.017001536
57	0xbd7d58cb	-0.061852258
58	0xbdffbe7a	-0.124875024
59	0x3d240fb9	0.040054057
60	0x3dc685b7	0.09693473
61	0xbe2fd935	-0.17172702
62	0xbae5f341	-0.0017543809
63	0xbd15edf6	-0.03660389
64	0x3dae6059	0.085144706
65	0xbc36bbc2	-0.011153163
66	0xbb04e5ca	-0.0020278567
67	0x3dd0f039	0.10202069
68	0x3b3b2c8f	0.0028560495
69	0xbcd35adb	-0.02580016
70	0x3c9c6285	0.019089947
71	0x3dc46fd8	0.09591645
72	0x3defa8ef	0.117021434
73	0x3de7ebc8	0.113242686
74	0xbd6aa7e4	-0.05728902
75	0x3e63d527	0.2224928
76	0x3d8783ca	0.06616934
77	0xb9090b28	-0.00013069494
78	0x3e85309e	0.26013654
79	0xbcfbe70a	-0.030749816
80	0x3e73e458	0.23817575
81	0x3dcbbff9	0.09948725
82	0xbcaf2405	-0.02137948
83	0x3defdc36	0.11711924
84	0x3caed73c	0.021342866
85	0x3dd8ca5d	0.10585473
86	0x3dbf557c	0.09342477
87	0x3e7cadf7	0.24675737
88	0x3d7c39fe	0.061578743
89	0x3dafd648	0.08585793
90	0x3d45fd1d	0.04833709
91	0x3e8e3f20	0.27782536
92	0x3ec6369e	0.38713545
93	0xbdb5f1f8	-0.088840425
94	0x3d4eef4e	0.050521187
95	0x3e3e9aac	0.1861369
96	0x3e29871d	0.16555448
97	0x3e384b45	0.17997463
98	0x3e4e373c	0.20138258
99	0x3e53ae8b	0.20672052

bias_hh_l1 f4 [100]
0	0x3e86d0b3	0.263311
1	0xbc6b1f09	-0.014350661
2	0xbe416f47	-0.18890105
3	0x3b1b4cad	0.0023696825
4	0xbdef67a5	-0.116896905
5	0x3e7ecfbb	0.2488393
6	0x3def52b8	0.11685699
7	0x3c7c9b25	0.015417849
8	0x3d2e6134	0.04257317
9	0x3ea41ff1	0.3205562
10	0xbc80ff3c	-0.015746705
11	0xbdef2d55	-0.11678568
12	0x3e95db7d	0.2926902
13	0x3e236d42	0.15959647
14	0x3db0f4d8	0.0864045
15	0xbe395035	-0.18097003
16	0x3db48008	0.088134825
17	0x3e952479	0.2912939
18	0x3c4a74ec	0.012356978
19	0x3e6c7f75	0.23095496
20	0x3ec9bbdc	0.39401138
21	0x3eabcb7b	0.3355368
22	0x3dd97e38	0.106197774
23	0x3e98db89	0.29854992
24	0x3e95929b	0.29213414
25	0xbe9a1988	-0.30097604
26	0xbd01faf3	-0.031733464
27	0xbe9dbbee	-0.3080744
28	0xbe65545d	-0.22395463
29	0xbe226302	-0.15858081
30	0xbe8d8a6c	-0.2764467
31	0xbd85c355	-0.06531397
32	0xbe119835	-0.14218219
33	0xbe780cfb	-0.24223702
34	0xbeb644e0	-0.35599422
35	0xbd3a6459	-0.045505855
36	0xbe002eb8	-0.12517822
37	0xbe884b0f	-0.26619765
38	0xbc8f8cce	-0.017523196
39	0xbe5e9e44	-0.21740061
40	0xbdf0c9a4	-0.1175721
41	0xbe3f191b	-0.1866192
42	0xbe6de76e	-0.23232815
43	0xbda4417b	-0.08020302
44	0xbe50e898	-0.20401227
45	0xbe1600eb	-0.14648788
46	0x3df2ced9	0.11855859
47	0xbdb1268b	-0.086499296
48	0xbe8579bb	-0.26069435
49	0x3b09ac43	0.0021007217
50	0xbd1e737f	-0.038684364
51	0xbd8c0e73	-0.068386935
52	0xbd24e9a0	-0.040261865
53	0x3e053acf	0.13010715
54	0xbbbe9655	-0.005816261
55	0xbd61a154	-0.055085495
56	0x3c96a43f	0.018388866
57	0x3d672dbf	0.05644011
58	0x3e06eb63	0.1317573
59	0x3c736f6a	0.014858106
60	0xbdae4b24	-0.08510426
61	0x3e04b963	0.12961344
62	0x3d4c518c	0.049882457
63	0xbba59602	-0.0050532827
64	0xbdbebba2	-0.09313132
65	0xbcc5ed40	-0.024160981
66	0x3c35aa82	0.0110880155
67	0xbdc56522	-0.0963843
68	0x3b1382a2	0.0022508283
69	0x3d15e07c	0.036591038
70	0xb9639714	-0.00021704688
71	0xbdba8261	-0.09106899
72	0xbdb7c9dd	-0.08974049
73	0xbdfcac70	-0.12337577
74	0x3cdeabbf	0.027181504
75	0x3e923b5b	0.2856091
76	0x3ea924bb	0.33035836
77	0x3dc4eeb2	0.0961584
78	0xbbda47e7	-0.0066614035
79	0x3d1b14ce	0.037861638
80	0x3d8b4d9d	0.06801913
81	0x3e730234	0.23731309
82	0x3e8def06	0.27721423
83	0x3ee2681f	0.44220063
84	0x3da61a93	0.081105374
85	0x3cb8ff82	0.022582773
86	0x3e603066	0.21893463
87	0x3e9aa8b1	0.30206826
88	0x3c0f00bc	0.008728202
89	0xbd7b32e2	-0.061327823
90	0xbe2dfdd6	-0.16991362
91	0x3e52867e	0.20559117
92	0x3e3ddc20	0.18541002
93	0xbddba7a8	-0.10725337
94	0x3ea4ba10	0.32173204
95	0x3e7b6e33	0.24553756
96	0x3b6f4729	0.003651092
97	0x3d0cd0ab	0.03437869
98	0x3c047dd3	0.008086639
99	0x3e95a9e3	0.29231176

weight_ih_l2 f4 [100, 25]
0	0xbd8ca586	-0.068675086
1	0x3e454205	0.19263466
2	0xbdd0bb20	-0.10191941
3	0x3cbc0ce1	0.02295536
4	0xbd94aec0	-0.072598934
5	0xbe876d15	-0.2645041
6	0xbe3488be	-0.17630288
7	0x3e211963	0.1573234
8	0x3dab77ca	0.08372457
9	0xbcf43125	-0.02980859
10	0xbd5b19e4	-0.053491488
11	0x3cc025b8	0.023455486
12	0xbdde2dd0	-0.10848582
13	0x3d8d1f9a	0.06890793
14	0xbe0d530e	-0.13801214
15	0xbc978de5	-0.018500278
16	0xbe3fb410	-0.18721032
17	0xbde6ba61	-0.11266018
18	0x3c75ebd6	0.015009841
19	0x3b17e664	0.0023178095
20	0x3e479f09	0.19494261
21	0xbe39552f	-0.18098901
22	0x3d82e2a5	0.06390885
23	0x3e05010f	0.12988685
24	0x3e31d237	0.17365347
25	0xbe22221b	-0.15833323
26	0x3e50a5b1	0.20375706
27	0xbe6d5d2a	-0.2318007
28	0x3e2e2f17	0.17010151
29	0xbe2788a4	-0.16360718
30	0xbe3c2573	-0.1837366
31	0x3d30e210	0.04318434
32	0x3e79dc98	0.24400556
33	0xbcca209d	-0.024673754
34	0x3ddd86cb	0.10816725
35	0xbdeecdb3	-0.11660328
36	0x3de55914	0.11198631
37	0x3e18120f	0.14850639
38	0xbe27b9b4	-0.16379434
39	0xbca9fda1	-0.020750822
40	0xbd44d1a8	-0.048051506
41	0xbe550e23	-0.20806174
42	0xbe1d5123	-0.15362982
43	0xbd19153f	-0.037373777
44	0x3e395b4d	0.18101235
45	0x3e38e388	0.18055546
46	0xbeacc8e7	-0.33747026
47	0xbe2898f5	-0.16464598
48	0xbe505d91	-0.20348193
49	0x3e140a00	0.1445694
50	0xbbed23ae	-0.0072369194
51	0x3e14cebc	0.14531988
52	0xbe51207e	-0.20422551
53	0x3e77e424	0.24208122
54	0x3c8437a5	0.016139815
55	0xbdb9e69f	-0.090771906
56	0x3e11ad80	0.14226341
57	0x3e51c96d	0.20486994
58	0x3e5eef9a	0.21771088
59	0x3e3c5505	0.18391807
60	0x3de8cf05	0.11367611
61	0xbdb46fc6	-0.088103816
62	0x3e4ab4fb	0.19795601
63	0xbe53807e	-0.20654485
64	0x3c6bcda0	0.014392287
65	0x3d48bd09	0.049008403
66	0xbe9e5c83	-0.30929956
67	0xbe2fa126	-0.17151317
68	0xbd939690	-0.07206452
69	0x3e271806	0.16317758
70	0x3e88c169	0.2671006
71	0xbe19238d	-0.14954968
72	0x3e298244	0.16553599
73	0xbe886225	-0.26637378
74	0x3d9e25b7	0.07722037
75	0xbe45476c	-0.19265527
76	0x3e5de4bd	0.21669288
77	0xbd922889	-0.07136638
78	0x3d497ccb	0.049191277
79	0xbe106137	-0.14099585
80	0xbe6611d9	-0.22467746
81	0xbc7bebc2	-0.015376033
82	0x3e6a6cd7	0.22893082
83	0x3e404705	0.18777092
84	0x3d97d4c3	0.07413628
85	0xbdc06ad6	-0.09395377
86	0x3e2ce304	0.16883475
87	0x3e99c001	0.300293
88	0xbbd78455	-0.0065770545
89	0xbd24bc52	-0.04021866
90	0x3d0300e6	0.03198328
91	0x3d9b74b0	0.07590616
92	0xbcce1362	-0.025155727
93	0x3d9f5b83	0.07781126
94	0xbd168dee	-0.03675645
95	0x3e6a2389	0.22865118
96	0xbe0b5f8b	-0.13610666
97	0x3dd44cae	0.10366188
98	0xbdf5278d	-0.11970434
99	0x3e87a5f5	0.26493803
100	0xbe28a97d	-0.16470905
101	0xbc42636e	-0.011864526
102	0xbd43b03e	-0.0477755
103	0x3e257a53	0.16159944
104	0xbe16c45a	-0.1472334
105	0xbe73c335	-0.23804934
106	0x3e86d0ae	0.26331085
107	0x3e856442	0.26053053
108	0x3ea6cb5e	0.32577032
109	0x3ea93faf	0.330564
110	0xbbf30a98	-0.0074170344
111	0x3e2930a1	0.16522457
112	0x3e0fd6ab	0.14046733
113	0xbe33eb7a	-0.17570296
114	0x3d8b38ec	0.06797966
115	0xbe5d3752	-0.21603134
116	0xbd5ebd56	-0.054379784
117	0xbea10fe3	-0.31457433
118	0x3d165f96	0.03671225
119	0x3df8f56e	0.12156187
120	0x3e17a52e	0.14809105
121	0xbeb8c87a	-0.3609045
122	0x3ccf6427	0.025316311
123	0xbe455a1b	-0.19272654
124	0x3ba49e58	0.005023759
125	0xbe142bed	-0.14469881
126	0xbbe48ced	-0.0069748075
127	0xbd30f998	-0.04320678
128	0x3e2a9d2e	0.16661522
129	0xbcce4ebb	-0.025184026
130	0xbe00fd58	-0.12596643
131	0x3d1ec0a3	0.03875793
132	0x3d9de07e	0.07708834
133	0x3df1b700	0.118024826
134	0x3daabfb9	0.083373494
135	0xbd1f7f61	-0.038939837
136	0x3dd5cddb	0.104396544
137	0x3de7a76f	0.11311232
138	0x3a8ca6b6	0.0010730836
139	0xbd5a34df	-0.053273078
140	0xbe60f492	-0.21968296
141	0xbd17fe2c	-0.03710763
142	0x3d074b97	0.033031072
143	0x3d011a02	0.031518944
144	0xbc228b60	-0.009920925
145	0x3e3692a7	0.17829381
146	0xbe8cb682	-0.27482992
147	0x3e77ff96	0.24218592
148	0xbe5bf318	-0.21479452
149	0x3e9fab1f	0.31185243
150	0xbe7bcfac	-0.2459094
151	0xbc41a295	-0.011818548
152	0x3de82976	0.11336033
153	0x3e38a95e	0.18033358
154	0xbde21902	-0.11039926
155	0x3d242b5a	0.040080406
156	0x3e192792	0.14956501
157	0x3e7dabfa	0.24772635
158	0x3e08d22d	0.13361426
159	0x3c8d5655	0.01725308
160	0x3dc79dcc	0.09746894
161	0x3e757eeb	0.23974197
162	0x3d8cc52f	0.06873547
163	0xbe492f8f	-0.19647048
164	0xbb8c82d0	-0.004288055
165	0xbe648d1f	-0.22319458
166	0xbda502b7	-0.080571584
167	0xbe210af4	-0.15726835
168	0xbd807407	-0.062721305
169	0x3e5c667c	0.2152347
170	0x3e6477cd	0.22311325
171	0xbeaac31e	-0.33351988
172	0x3e8a5cc2	0.27023894
173	0xbe9eccd6	-0.31015652
174	0xbd7036e7	-0.05864611
175	0xbde2af8a	-0.11068638
176	0x3e5eb266	0.21747741
177	0xbe5788fa	-0.21048346
178	0xbc72dfda	-0.014823878
179	0xbe2ef2c1	-0.17084791
180	0xbd3a4af0	-0.045481622
181	0x3e0e9fda	0.13928166
182	0x3a75d6a7	0.0009377994
183	0x3e09d134	0.13458711
184	0x3db6393a	0.08897634
185	0x3d69a934	0.05704613
186	0x3e4b7adb	0.19871084
187	0x3d6cf825	0.057853837
188	0xbe96c5ae	-0.29447693
189	0xbbbca097	-0.0057564485
190	0xba999bb6	-0.0011719379
191	0xbe557990	-0.20847154
192	0x3da09d76	0.07842533
193	0x3e1ea30c	0.15491885
194	0x3e2fbd51	0.17162062
195	0x3e775f2d	0.241574
196	0xbd9df4d7	-0.07712715
197	0x3e04ddf4	0.12975293
198	0xbca0f74b	-0.019649168
199	0x3e847af0	0.25875044
200	0x3daeba89	0.085316725
201	0x3e9ae0b7	0.3024957
202	0x3e08fd7b	0.13377945
203	0xbe1d2290	-0.15345216
204	0x3ef54375	0.47903028
205	0x3dda17f7	0.10649102
206	0x3e3fa8b5	0.187167
207	0x3c8e2796	0.01735286
208	0x3a90fbe1	0.0011061394
209	0x3e3c2238	0.18372428
210	0x3db8a40f	0.09015667
211	0x3dedc0e5	0.11609057
212	0xbd6a8f93	-0.05726583
213	0x3d4d07e3	0.05005635
214	0x3d3ac881	0.04560137
215	0x3e0f3f96	0.139891
216	0x3df39ae8	0.118947804
217	0xbd80fedb	-0.0629861
218	0x3e1f7f24	0.15575844
219	0x3e0ee987	0.13956271
220	0xbd72f359	-0.059314106
221	0xbe4c6d0b	-0.19963472
222	0xbd18422b	-0.037172478
223	0x3d837fa8	0.06420833
224	0x3e67dfd1	0.22643973
225	0xbdcd0ef6	-0.10012619
226	0x3e005112	0.12530926
227	0x3dc159f1	0.09440983
228	0x3d48d850	0.049034417
229	0xbdf03870	-0.117295146
230	0x3d09975b	0.03359161
231	0x3e06174c	0.13094825
232	0x3e721d41	0.23643972
233	0x3d60dc04	0.054897323
234	0xbcd3180e	-0.025768306
235	0x3dcfcf21	0.101469286
236	0x3dbf873f	0.09351968
237	0xbddabb0d	-0.10680208
238	0x3bc136a4	0.0058964062
239	0x3e5a3cab	0.21312205
240	0xbde74d85	-0.112940826
241	0xbdcf3b07	-0.101186804
242	0xbe66a28b	-0.22522943
243	0x3e87e8f8	0.2654493
244	0x3e2b675c	0.16738647
245	0x3ebb7f1a	0.36620408
246	0xbe6268e9	-0.22110333
247	0xbc90d9ca	-0.017681975
248	0x3b21c073	0.002468136
249	0xbce2db83	-0.027692562
250	0xbdb510d4	-0.088411
251	0xbc909c13	-0.017652547
252	0x3d7313de	0.05934512
253	0x3db57f47	0.08862167
254	0xbd896bce	-0.06710015
255	0xbe3e6245	-0.18592174

weight_hh_l2 f4 [100, 25]
0	0xbd86067b	-0.06544205
1	0x3c991f62	0.018691722
2	0xbd4594af	-0.0482375
3	0x3dfa0497	0.12207907
4	0x3dc62965	0.09675864
5	0xbd316055	-0.04330476
6	0x3e262ecb	0.16228788
7	0x3e217c98	0.15770185
8	0x3e15f445	0.14643963
9	0xbddb767a	-0.10715957
10	0x3e55443c	0.2082681
11	0x3e041c66	0.12901458
12	0xbddc4e4b	-0.10757121
13	0x3e039e64	0.1285339
14	0xbcc2f2f0	-0.023797482
15	0x3ce6d302	0.028176788
16	0x3d963987	0.07335191
17	0xbbc0f95a	-0.0058891
18	0x3b33ab56	0.0027415357
19	0x3e27c6a8	0.16384375
20	0xbd138a07	-0.036020305
21	0x3d7ab55f	0.061208125
22	0xbdb5864b	-0.08863505
23	0xbe129fd2	-0.14318779
24	0x3e307116	0.17230639
25	0xbdbd69c7	-0.09248691
26	0x3d99b21c	0.07504675
27	0x3d694dc9	0.056958947
28	0x3e0ed6e8	0.13949168
29	0x3cb4f8dc	0.022091322
30	0xbe009f9d	-0.12560888
31	0xbdd57341	-0.104223736
32	0xbd42d363	-0.047564875
33	0xbdbfe980	-0.093707085
34	0x3e3f2c4c	0.18669242
35	0x3e2513be	0.16120812
36	0x3d43a50e	0.04776483
37	0x3db93844	0.09043935
38	0xbd201ad4	-0.039088085
39	0xbac0811e	-0.0014686917
40	0x3e4d5a75	0.20054038
41	0xbe08468b	-0.1330816
42	0xbe1cbf6f	-0.15307401
43	0xbdb82947	-0.08992248
44	0x3dd16fc2	0.10226394
45	0xbd50a9f7	-0.05094334
46	0x3e089e80	0.13341713
47	0x3df67a64	0.12035063
48	0xbe11270a	-0.14175048
49	0xbe5932f5	-0.21210845
50	0x3dd3d893	0.10344043
51	0xbdf52d8b	-0.11971577
52	0x3e500ce2	0.20317414
53	0x3e38e4a4	0.1805597
54	0xbd9f2ebd	-0.077725865
55	0x3e2b00e5	0.1669956
56	0x3db02178	0.08600134
57	0xbda3cbba	-0.07997842
58	0x3e1ad2bf	0.15119456
59	0x3e2c3ba7	0.1681963
60	0xbcd7e837	-0.026355846
61	0xbb2f6cc3	-0.0026767708
62	0x3e495607	0.19661723
63	0xbdbb4a40	-0.091450214
64	0xbbee66b4	-0.0072754268
65	0x3e017860	0.12643576
66	0x3e2a88f4	0.16653806
67	0xbdee5318	-0.116369426
68	0x3e275452	0.1634076
69	0x3e1d277d	0.15347095
70	0x3d9e975b	0.077437125
71	0xbddaa6e4	-0.10676363
72	0x3dcf0add	0.10109494
73	0xbe433012	-0.19061306
74	0xbdb5db37	-0.088797025
75	0xbd2cfcd2	-0.042233296
76	0x3d52df0d	0.05148225
77	0xbc81ef3a	-0.015861142
78	0xbd94a334	-0.07257691
79	0xbe2cfe9a	-0.16893998
80	0x3d1485f0	0.036260545
81	0xbd5acb0d	-0.0534163
82	0xbe46255d	-0.1935019
83	0x3e7164ca	0.23573604
84	0xbdf755f3	-0.120769404
85	0xbcc54d75	-0.024084786
86	0x3d1021d7	0.035188522
87	0xbdbe917e	-0.09305094
88	0x3e1129f4	0.1417616
89	0x3d8d5c59	0.069023795
90	0x3e40d1b0	0.1882999
91	0xbe142c1d	-0.14469953
92	0x3d1c3054	0.038132027
93	0x3e76a895	0.24087746
94	0x3dd110fa	0.10208316
95	0xbda3617b	-0.07977577
96	0x3dc05e8c	0.093930334
97	0xbe1036d0	-0.1408341
98	0x3d6ee289	0.05832151
99	0x3d7ea42e	0.062168293
100	0x3d1abd1a	0.037777998
101	0xbd4b9b18	-0.049708456
102	0xbddf230a	-0.10895355
103	0xbd89e0ab	-0.06732305
104	0x3d7ccfaf	0.0617215
105	0xbd7b1041	-0.061294798
106	0x3d984650	0.07435286
107	0x3e04feff	0.12987898
108	0x3d5526cb	0.05203895
109	0xbd2a56cb	-0.04158668
110	0xbd447122	-0.047959454
111	0xbe47eb96	-0.19523463
112	0x39609408	0.0002141745
113	0x3e16864c	0.14699668
114	0xbc808552	-0.015688572
115	0x3e90f7e8	0.28314137
116	0x3d5c60ed	0.053803373
117	0xbe3c228c	-0.18372554
118	0x3da7f019	0.08200092
119	0x3cf16962	0.029469196
120	0x3dca989b	0.098923884
121	0xbe8403ce	-0.25784153
122	0x3e50052a	0.2031447
123	0x3e57bdf5	0.21068557
124	0xbdd51a16	-0.10405366
125	0xbe154c9c	-0.14580005
126	0x3e352693	0.17690496
127	0xbddbe862	-0.10737683
128	0x3e0e9599	0.13924254
129	0x3c427f64	0.011871193
130	0x3dc37788	0.09544283
131	0x3df861b6	0.12128012
132	0x3e29abbf	0.16569422
133	0x3e27edf8	0.16399372
134	0xbe2c5525	-0.16829355
135	0xbe629817	-0.2212833
136	0xbd98f028	-0.07467681
137	0x3e3f536c	0.18684167
138	0x3e03f9c5	0.12888248
139	0x3dbdc902	0.09266855
140	0xba6fbdd8	-0.00091454154
141	0x3b4f5ff4	0.0031642886
142	0x3e0ee977	0.13956247
143	0x3c6df76c	0.014524322
144	0x3e28b194	0.1647399
145	0xbe01d2cc	-0.12678069
146	0xbe0d6c36	-0.1381081
147	0xbde63d66	-0.112421796
148	0x3d82d04d	0.063873865
149	0xbc181bbe	-0.009283958
150	0xbcee835e	-0.029115375
151	0x3e1a41ec	0.1506421
152	0xbe306006	-0.1722413
153	0xbd4cecff	-0.050030705
154	0x3d4f0cca	0.050549306
155	0xbd2ebef0	-0.04266256
156	0xbe2eecb3	-0.17082481
157	0x3dcd346d	0.10019765
158	0xbc6af0d2	-0.014339643
159	0x3d6c88e0	0.05774772
160	0xbe603807	-0.21896373
161	0xbdb05193	-0.08609309
162	0x3db6283c	0.08894393
163	0xbda4232d	-0.08014522
164	0x3dc71d12	0.097223416
165	0xba1c3743	-0.00059591624
166	0x3ca6b3d2	0.020349417
167	0xbdc76d68	-0.097376645
168	0xbdba9402	-0.091102615
169	0xbe17fc35	-0.14842303
170	0x3c28f0c0	0.0103113055
171	0x3deb640b	0.11493691
172	0xbdc2a71b	-0.09504529
173	0xbe3aa563	-0.18227153
174	0xbe1f5e9b	-0.15563433
175	0x3df71cb0	0.120660186
176	0xbdce9e18	-0.10088748
177	0x3e1fd301	0.15607835
178	0xbdab8980	-0.083758354
179	0xbdca0ee7	-0.09866124
180	0xbc7e5db1	-0.015525267
181	0xbde86290	-0.11346924
182	0xbe4539fd	-0.19260402
183	0x3e16e85d	0.14737077
184	0x3df27981	0.11839581
185	0xbe04ad2e	-0.12956688
186	0x3d08dcf9	0.03341386
187	0x3da4434b	0.080206476
188	0x3d6aeb74	0.05735345
189	0xbd196404	-0.037448898
190	0x3cf0a04f	0.029373316
191	0xbdb01118	-0.085970104
192	0x3dbe614a	0.092959
193	0x3d4a3963	0.049371134
194	0x3e498ad1	0.1968186
195	0xbe03e1eb	-0.1287915
196	0x3cf243fb	0.029573431
197	0xbdff5c90	-0.12468827
198	0xbd4e3664	-0.05034484
199	0x3d909d74	0.07061282
200	0xbd01a171	-0.031648103
201	0xbc0b49f4	-0.0085015185
202	0x3e1799f5	0.14804824
203	0x3df6c8a2	0.120499864
204	0x3dec2466	0.1153038
205	0xbbf46443	-0.007458241
206	0x3e1a7584	0.15083891
207	0xbdab0753	-0.08351006
208	0x378048b8	1.5292651e-05
209	0xbdb7a61c	-0.0896723
210	0x3e5425d7	0.2071756
211	0xbe2df697	-0.16988598
212	0xbe1dc75e	-0.15408084
213	0x3dc4071c	0.095716685
214	0xbe1f59d9	-0.15561618
215	0xbb056a5a	-0.002035758
216	0xbd46a3e3	-0.04849614
217	0xbe722aad	-0.23649092
218	0x3d9a5b5b	0.07536956
219	0x3d750e40	0.059828043
220	0xbe0ac175	-0.1355036
221	0xbe22ec21	-0.15910389
222	0x3e2381c3	0.15967469
223	0xbdbe1ece	-0.09283219
224	0xbd0e2279	-0.034700844
225	0xbd5a4775	-0.053290803
226	0xbe20bc7f	-0.15696906
227	0x3e406cc2	0.18791488
228	0xbd1ce3d3	-0.038303208
229	0xbce862d5	-0.02836744
230	0xbc44f7b1	-0.012021945
231	0x3da33a65	0.07970122
232	0xbdc8185f	-0.097702734
233	0x3e89d17a	0.2691763
234	0xbcb5d3c0	-0.022195697
235	0x3dab97fa	0.083785966
236	0x3d357655	0.044302303
237	0xbe01f69a	-0.12691727
238	0x3d65658a	0.05600504
239	0x3e5b5b30	0.21421504
240	0xbd9bf7be	-0.076156124
241	0x3df79411	0.12088788
242	0x3d0bf590	0.034169734
243	0xbd6dcd2c	-0.058056995
244	0xbddc58c1	-0.10759116
245	0x3e6ac44a	0.22926441
246	0xbe65ab01	-0.22428514
247	0x3ddc9490	0.107705235
248	0xbde5a8bf	-0.112138264
249	0x3d887d35	0.06664506
250	0xbd5f1950	-0.0544675
251	0xbe27904e	-0.16363642
252	0x3e10b12c	0.14130086
253	0xbe1c73c4	-0.15278536
254	0x3e349afe	0.1763725
255	0x3e832168	0.25611424

bias_ih_l2 f4 [100]
0	0xbd4387b6	-0.047736846
1	0x3da629fa	0.08113475
2	0x3e2466dc	0.16054863
3	0xbe024f65	-0.12725599
4	0x3de6ecef	0.1127566
5	0x3e02cb4a	0.12772861
6	0xbd464777	-0.048407998
7	0xbcf1676d	-0.029468263
8	0x3d6592ca	0.056048192
9	0xbd7a3028	-0.06108108
10	0xbe0cc5d7	-0.13747345
11	0x3dfc2c7f	0.123131745
12	0x3e4a3b22	0.1974912
13	0xbc9bc637	-0.019015415
14	0x3e44c9db	0.19217627
15	0x3dda5db9	0.106624074
16	0x3dbcd0ad	0.09219489
17	0x3e35f277	0.17768274
18	0xbcea3d1b	-0.02859359
19	0x3e1d271f	0.15346955
20	0xbda5b891	-0.08091844
21	0xbe022583	-0.12709622
22	0x3e626e3f	0.22112368
23	0x3e03404f	0.128175
24	0x3d609947	0.054833677
25	0xbddd02fa	-0.10791583
26	0xbebc0855	-0.36725107
27	0xbe832fa1	-0.25622275
28	0x3d8fdabb	0.070241414
29	0xbd85ce86	-0.06533532
30	0x3d9894a6	0.074502274
31	0xbe506ffb	-0.20355217
32	0x3daf8e53	0.08572068
33	0xbec2012c	-0.3789152
34	0xbe25044e	-0.16114923
35	0xbda9b022	-0.08285548
36	0xbe8384d4	-0.25687277
37	0x3cf3582d	0.029705131
38	0xbe9fa129	-0.31177643
39	0xbea269be	-0.317213
40	0xbeb52fdd	-0.3538808
41	0xbdc7b9db	-0.09752246
42	0x3c894239	0.01675521
43	0x3d03860b	0.032110255
44	0x3d32423e	0.043520205
45	0xbe55432d	-0.20826407
46	0x3c42bba9	0.011885562
47	0xbe13ede6	-0.1444622
48	0xbdeaad5d	-0.11458848
49	0xbda519be	-0.080615506
50	0xbc15177f	-0.00909984
51	0xbdf31409	-0.11869056
52	0x3dc590b9	0.09646744
53	0xbe2a0960	-0.16605139
54	0xbd41ac01	-0.047283176
55	0x3e222c17	0.15837131
56	0x3c26f09a	0.0101892
57	0xbc876b54	-0.01653067
58	0x3a6842ab	0.0008860032
59	0xbd5f5b8d	-0.05453067
60	0x3cfed33b	0.031106582
61	0x3c2e8129	0.010650911
62	0xbe05154d	-0.12996407
63	0x3d6573a4	0.056018487
64	0x3e2610d3	0.16217355
65	0xbd0bed04	-0.034161583
66	0x3d811502	0.06302835
67	0x3b9fd1bc	0.004877297
68	0x3c6a8c02	0.014315607
69	0xbcb38882	-0.021915678
70	0x3bcd29bc	0.0062610786
71	0xbbda021c	-0.0066530835
72	0x3dc982b2	0.09839381
73	0xbd7afcfe	-0.06127643
74	0xbd7bdf6a	-0.06149236
75	0xbd705e44	-0.05868365
76	0xbd73cf97	-0.059524145
77	0x3c21c313	0.0098731695
78	0x3e52470b	0.20534913
79	0x3e8ff3e6	0.28115767
80	0xbde9b154	-0.11410776
81	0x3e39147b	0.18074219
82	0xbd858e82	-0.06521322
83	0xbdb79a06	-0.089649245
84	0x3d1978f5	0.03746887
85	0x3d3ffa74	0.04686971
86	0x3eac4c55	0.33651987
87	0xbd08f6d8	-0.033438534
88	0x3de486e2	0.11158539
89	0x3cc08abc	0.023503654
90	0x3e838633	0.25688323
91	0x3d91dd37	0.071222715
92	0x3e983b8a	0.29732925
93	0x3e545fec	0.20739716
94	0x3ad55e38	0.001627869
95	0x3e409ce6	0.18809852
96	0xbe043c8a	-0.12913719
97	0x3e065817	0.13119541
98	0x3e0b578a	0.13607612
99	0x3e77440b	0.2414705
