Covid/.darts/checkpoints/Air_RNN/checkpoint_399.pth.tar (torch_old, 266181 bytes, 51 tensors)

weight_ih_l0 f4 [100, 1]
0	0x3eb368ac	0.35040796
1	0x3ec59b4a	0.3859504
2	0x3dfa264a	0.12214334
3	0xbccfdf61	-0.02537507
4	0x3e1758ec	0.14780015
5	0xbe4d0680	-0.20022011
6	0x3e5aec2d	0.21379156
7	0x3dc5aa97	0.09651678
8	0x3e42f0bb	0.19037144
9	0x3e816f9b	0.2528046
10	0x3da35a6e	0.079762325
11	0x3ea2dd4e	0.31809467
12	0x3e4ac264	0.19800717
13	0x3e514339	0.204358
14	0x3d7a2f9a	0.061080553
15	0x3e007528	0.12544692
16	0x3e859c02	0.26095587
17	0x3e7532fe	0.23945233
18	0x3e2b1038	0.16705406
19	0x3d0352c1	0.032061342
20	0xbea90548	-0.33011842
21	0x3e3679aa	0.17819849
22	0x3dbde466	0.09272079
23	0x3ebf8d5e	0.37412542
24	0xbd99b1ab	-0.075045906
25	0xbe5ddd62	-0.21666482
26	0xbdaae58d	-0.083445646
27	0xbeb30575	-0.349651
28	0xbdcdff7c	-0.100584954
29	0x3e536763	0.20644908
30	0xbe7d9019	-0.24762
31	0xbf0956f1	-0.5364829
32	0xbc483393	-0.0122193275
33	0xbc011225	-0.007877861
34	0x3e9aa96f	0.30207393
35	0xbd285133	-0.041093063
36	0x3db4232f	0.08795773
37	0xbed976b4	-0.42473376
38	0x3db1e338	0.08685917
39	0x3dbcd4ab	0.09220251
40	0xbdd9be86	-0.106320426
41	0x3c09138a	0.008366475
42	0x3e2d6f83	0.1693707
43	0x3e5a0621	0.212914
44	0x3e11f8ed	0.14255114
45	0xbf1b0abd	-0.6056326
46	0x3e9bbe0b	0.3041843
47	0x3ceb73da	0.028741766
48	0x3e6630ab	0.22479503
49	0xbf068a68	-0.5255494
50	0x3eff8a32	0.49910122
51	0x3ece03af	0.40237185
52	0xbeec7b04	-0.46187603
53	0x3dc8a85d	0.09797738
54	0x3ecdfc5d	0.402316
55	0xbe9a35aa	-0.30119067
56	0xbef12dbb	-0.47105202
57	0x3eba5f9b	0.36401066
58	0xbec8e9ba	-0.3924082
59	0x3e61fcc8	0.22069085
60	0x3ea5f6a9	0.3241475
61	0x3e283e6c	0.16430062
62	0xbeea55ca	-0.45768577
63	0xbe554d30	-0.20830226
64	0x3d9b5e18	0.07586306
65	0xbea71675	-0.3263432
66	0xbe2a7263	-0.16645198
67	0xbe5d526e	-0.21613476
68	0x3e771051	0.24127318
69	0xbee9cf6f	-0.45666072
70	0xbec240cf	-0.3794007
71	0x3e9aa810	0.30206347
72	0x3dad27af	0.08454835
73	0x3e3803bd	0.17970176
74	0xbea4e2e7	-0.32204363
75	0x3ef6910f	0.48157546
76	0x3eab5b6a	0.3346818
77	0xbe4db11c	-0.20087093
78	0xbe20f3ac	-0.15717953
79	0x3ea01a2c	0.31269968
80	0xbdd7c2b9	-0.10535187
81	0x3e3dde94	0.18541938
82	0x3e9ed604	0.31022656
83	0x3ea4a027	0.32153437
84	0x3e0b51cb	0.1360542
85	0x3eb43267	0.35194704
86	0x3e2ba8b6	0.16763577
87	0x3ecc7e72	0.3994022
88	0x3eb3c656	0.35112256
89	0xbd353785	-0.0442424
90	0x3e86b770	0.26311827
91	0x3cbcc2b5	0.023042062
92	0x3de0c8eb	0.10975822
93	0x3de8fe3f	0.113766186
94	0x3ea8e993	0.32990703
95	0xbe82ca6c	-0.2554506
96	0x3e3e73f5	0.18598922
97	0x3ddccc29	0.10781128
98	0x3e89f071	0.26941255
99	0xbe46ba88	-0.19407094

weight_hh_l0 f4 [100, 25]
0	0xbea4eb7f	-0.3221092
1	0xbe047b84	-0.12937742
2	0x3cfde2c5	0.030991921
3	0x3ef385cd	0.4756302
4	0xbe5e7deb	-0.21727721
5	0x3f5ee6de	0.87071025
6	0x3e7cec6f	0.24699567
7	0xbd72e748	-0.0593026
8	0xbdc19e24	-0.09453991
9	0x3ea820a2	0.32837397
10	0xbe594d3e	-0.21220872
11	0x3efee0c1	0.4978085
12	0x3e24425e	0.16040942
13	0xbe90f947	-0.28315184
14	0x3ef586f1	0.47954515
15	0xbdf75bbc	-0.12078044
16	0xbf4f9bff	-0.81097406
17	0xbd88e284	-0.066838294
18	0x3e044f36	0.12920842
19	0x3e994f30	0.29943228
20	0x3e8344cb	0.25638422
21	0x3cc746b1	0.0243257
22	0x3f29c2a9	0.6631265
23	0x3f13587b	0.57556885
24	0x3ecb8d56	0.39756268
25	0x3e177d0c	0.14793795
26	0xbd9f2614	-0.07770935
27	0x3e0f056b	0.1396691
28	0x3e2dee36	0.16985402
29	0x3e4aae93	0.19793157
30	0x3ee384d3	0.44437274
31	0xbe444f76	-0.19170937
32	0x3ea83346	0.3285162
33	0xbec01072	-0.37512547
34	0x3ec5413b	0.3852633
35	0x3e9f8543	0.31156358
36	0x3e4dd8dd	0.20102258
37	0x3ae92d11	0.001778992
38	0xbd287a8e	-0.041132502
39	0x3ef30880	0.47467422
40	0x3dd12990	0.102130055
41	0xbe92bf3a	-0.2866152
42	0xbe6383b9	-0.22218217
43	0x3d956a9c	0.07295725
44	0xbe1f637d	-0.15565296
45	0x3ec401b3	0.38282546
46	0x3dc4ceb4	0.09609738
47	0x3e71bfd4	0.23608333
48	0x3eb73d8d	0.35789147
49	0x3ea089de	0.31355184
50	0xbe4e297c	-0.20133013
51	0xbe9247af	-0.28570315
52	0x3e04048f	0.12892364
53	0x3d96c284	0.0736132
54	0xbeaae5b1	-0.33378366
55	0x3e9bfe1c	0.30467308
56	0x3eb020f0	0.3440013
57	0xbec3ca5e	-0.3824033
58	0x3d34355c	0.0439962
59	0xbd04a667	-0.032385256
60	0xbc86a7a2	-0.016437355
61	0x3e021937	0.12704931
62	0x3edd5bf3	0.43234214
63	0xbcf9922d	-0.03046521
64	0x3e88e3e2	0.2673636
65	0x3e18e71b	0.1493191
66	0xbf07b957	-0.5301718
67	0xbe824046	-0.25439662
68	0x3de2ca58	0.1107375
69	0x3cdd6969	0.027027803
70	0x3e2f9d4c	0.17149848
71	0x3da753ca	0.08170278
72	0x3de33275	0.11093608
73	0x3ee2c591	0.44291356
74	0x3e44758f	0.1918547
75	0xbe56053d	-0.20900436
76	0xbda9558f	-0.08268272
77	0x3e1378d9	0.14401568
78	0xbe8adebb	-0.27123055
79	0xbdbb7ebd	-0.09155033
80	0xbc62f560	-0.013852447
81	0xbd3035f9	-0.043020222
82	0x3e2b4d75	0.16728766
83	0xbdc8b391	-0.097998746
84	0xbe086779	-0.13320722
85	0x3dbd3928	0.09239417
86	0xbe2ab833	-0.16671829
87	0xbd9cad5f	-0.076502554
88	0x3d2d22c0	0.04226947
89	0x3da1c8ca	0.078996256
90	0x3e09ddc8	0.13463509
91	0x3c67b1e2	0.014141532
92	0xbdbc869f	-0.092053644
93	0x3dcfb518	0.10141963
94	0xbd14db2d	-0.036341835
95	0xbe4591e8	-0.1929394
96	0x3e962b8c	0.293301
97	0xbb958c90	-0.0045638755
98	0xbe46d2b1	-0.1941631
99	0x3d828dd2	0.06374706
100	0xbdcc7cbf	-0.09984731
101	0x3d6536c7	0.055960443
102	0x3dc718ee	0.09721552
103	0x3e02bcc8	0.12767327
104	0x3db88e11	0.09011472
105	0x3f080eb2	0.53147423
106	0x3dcc7f9e	0.099852785
107	0x3e07fc0e	0.13279745
108	0x3cfc4419	0.03079419
109	0x3e375b00	0.17905807
110	0xbddf1dec	-0.10894379
111	0x3ec0bacf	0.37642524
112	0x3e5f9a1d	0.21836133
113	0xbcb2751e	-0.021784361
114	0x3e6b62d9	0.22986926
115	0x3cf1d790	0.029521734
116	0xbe910d91	-0.28330663
117	0xbeb096a3	-0.34489927
118	0x3e082d5b	0.13298552
119	0x3d9cafcd	0.07650719
120	0x3eaf469a	0.34233552
121	0x3c68d7d4	0.014211614
122	0x3e86cb54	0.26327002
123	0x3e8f5685	0.27995697
124	0x3efb486d	0.49078694
125	0xbd0d7864	-0.03453864
126	0xbd2b9f66	-0.04190006
127	0x3cca6d63	0.024710363
128	0xbd07677b	-0.03305767
129	0xbe337e9a	-0.17528763
130	0xbdcddb98	-0.1005165
131	0x3e33a88b	0.17544763
132	0xbc5beed1	-0.0134236375
133	0xbe5d019e	-0.21582648
134	0xbde617b4	-0.1123499
135	0x3d7ec863	0.062202822
136	0x3c8cb8a5	0.01717789
137	0xbd23c92a	-0.039986767
138	0xbe6957f8	-0.22787464
139	0x3e5b397a	0.21408644
140	0xbdacfcfb	-0.0844669
141	0xbe884523	-0.26615247
142	0xbda093ab	-0.078406654
143	0x3e21a93d	0.15787216
144	0xbdd15e45	-0.102230586
145	0x3de2d440	0.1107564
146	0xbdd0cb38	-0.10195011
147	0x3db0ddbd	0.08636043
148	0x3e37a284	0.17933089
149	0x3e1367b5	0.1439503
150	0xbec1e18d	-0.37867394
151	0x3cf1bfc3	0.029510384
152	0x3eaba3a4	0.33523285
153	0x3eac333e	0.33632845
154	0xbebe8313	-0.37209377
155	0x3f29aaa9	0.6627603
156	0x3ec9261a	0.39286882
157	0xbe8d698c	-0.27619588
158	0xbce2f6db	-0.0277056
159	0x3dc37097	0.09542959
160	0xbe736a44	-0.23771006
161	0x3ea145ec	0.3149866
162	0x3ea84fee	0.32873482
163	0xbe0f13fc	-0.13972467
164	0x3edef889	0.43548992
165	0x3e3e85e6	0.18605766
166	0xbf37f6df	-0.7186107
167	0xbecc6091	-0.39917424
168	0x3de6227a	0.11237045
169	0xbd201cbc	-0.039089903
170	0x3e216940	0.15762806
171	0x3b9c67c6	0.004773113
172	0x3ee57443	0.44815263
173	0x3f14a9c2	0.5807153
174	0x3eb7d3d3	0.35903797
175	0xbe91c7bb	-0.28472695
176	0x3e771ee9	0.24132885
177	0x3e34b63d	0.17647643
178	0x3e0553b9	0.13020219
179	0xbd1984bc	-0.0374801
180	0x3f28abb5	0.65887004
181	0x3e3e1f42	0.18566611
182	0xbd34b192	-0.044114657
183	0xbdf1f181	-0.11813641
184	0x3ec5460b	0.3853
185	0x3cbb02ce	0.022828486
186	0x3f089132	0.5334655
187	0x3ee27039	0.44226244
188	0xbe9158a5	-0.28387943
189	0x3ef1f5d3	0.47257861
190	0xbc8ffedc	-0.017577581
191	0xbf0266db	-0.50938195
192	0xbebaade6	-0.364608
193	0x3e80580a	0.25067168
194	0xbd8d4944	-0.0689874
195	0x3ec810ec	0.3907541
196	0x3c9a337f	0.018823383
197	0x3ebdb840	0.37054634
198	0x3eec63e6	0.46169966
199	0x3ea4f404	0.3221742
200	0xbe9a5b85	-0.3014795
201	0x3db15923	0.086595796
202	0x3e865d2a	0.26242954
203	0x3ebf2634	0.37333834
204	0x3e367470	0.17817855
205	0x3ee653f0	0.44985914
206	0xbdce17fe	-0.1006317
207	0x3d1c0376	0.038089238
208	0xbd3fb184	-0.04680015
209	0x3e8232e2	0.25429446
210	0xbe396e5f	-0.1810851
211	0x3e6c5394	0.23078758
212	0x3d02f7da	0.03197465
213	0xbdf76054	-0.1207892
214	0x3ec16d92	0.37778908
215	0xbb92c15a	-0.0044786157
216	0xbed6cc65	-0.41952816
217	0xbe10db66	-0.14146194
218	0x3e23969d	0.15975423
219	0xbd9295ec	-0.071575016
220	0x3ed90900	0.4238968
221	0xbda9facc	-0.08299789
222	0x3eea726f	0.4579043
223	0x3f2a6be9	0.6657091
224	0x3ecdbfb9	0.40185335
225	0xbd417e79	-0.047239754
226	0x3ec6a95a	0.3880108
227	0x3d680aa1	0.05665076
228	0x3e25e31a	0.16199914
229	0xbd099ef2	-0.033598848
230	0xbaa52f60	-0.001260262
231	0xbe6083bb	-0.21925251
232	0x3e2ee160	0.17078161
233	0xbdfa14a1	-0.12210966
234	0xbb2c5470	-0.0026295446
235	0x3d96a422	0.073555246
236	0x3e902f20	0.28160954
237	0xbdb56783	-0.08857634
238	0xbd5563da	-0.05209718
239	0x3e59fd2f	0.21287988
240	0xbd611c9d	-0.05495893
241	0xbeca93eb	-0.39565977
242	0xbea57028	-0.3231213
243	0x3e7dc3f5	0.24781783
244	0x3d727caa	0.05920092
245	0x3e0bd016	0.13653597
246	0x3e371f6f	0.17883085
247	0x3d72ec2e	0.05930727
248	0x3e0b846b	0.13624732
249	0x3e7f0b34	0.24906617
250	0x3c87918d	0.016548896
251	0x3d7123dc	0.05887209
252	0x3e5cc48b	0.2155935
253	0x3e1737b2	0.1476734
254	0x3e5ca372	0.21546724
255	0x3ef2912a	0.47376376

bias_ih_l0 f4 [100]
0	0x3f5b7eef	0.8574056
1	0x3ec8e9e5	0.39240947
2	0x3db4a97b	0.08821388
3	0x3d59e199	0.053193662
4	0x3e75a377	0.23988138
5	0x3d62a37a	0.055331685
6	0x3e931e5b	0.28734097
7	0x3edbaac8	0.42903733
8	0x3f086eb9	0.5329395
9	0x3d9e12e5	0.077184476
10	0x3ef0ecd6	0.4705569
11	0x3b261135	0.0025339846
12	0x3f169723	0.58824366
13	0xbda13ccd	-0.07872925
14	0xbe4d0f1e	-0.20025298
15	0x3ea15749	0.31511906
16	0x3ed78a94	0.42097914
17	0x3e4a00db	0.19726889
18	0x3e076794	0.13223106
19	0x3e9dab62	0.30794817
20	0xbd7d180a	-0.061790504
21	0x3eab1d8b	0.33420977
22	0xbde77474	-0.113015085
23	0x3e435ab4	0.19077569
24	0x3d992819	0.07478351
25	0xbec43987	-0.3832514
26	0xbe594b27	-0.21220075
27	0xbe4fd411	-0.2029574
28	0xbc23cdf1	-0.009997831
29	0xbd5a35c8	-0.053273946
30	0x3d9244e6	0.071420476
31	0xbe3f5adf	-0.18687008
32	0xbc174dce	-0.009234859
33	0xbea7afc2	-0.3275128
34	0xbc4527fc	-0.012033459
35	0x3dff1f0d	0.12457094
36	0xbe69aaa2	-0.22818998
37	0xbe5ff305	-0.21870048
38	0xbd7b44f4	-0.061345056
39	0xbe06f3e4	-0.13178974
40	0xbe8ae00d	-0.27124062
41	0x3e62691d	0.2211041
42	0x3c3fad80	0.0116990805
43	0xbc07f264	-0.0082975365
44	0xbd6d056c	-0.0578665
45	0x3dbc00c0	0.091798306
46	0xbe16e6db	-0.14736502
47	0xbe0761a9	-0.13220848
48	0x3e14c59d	0.14528508
49	0x3bcfe16d	0.0063440115
50	0xbdf25aa6	-0.11833696
51	0xbde74f83	-0.112944625
52	0x3df91038	0.121612966
53	0xbbde02bc	-0.0067752283
54	0xbd15cb67	-0.036570933
55	0x3dc9a743	0.09846356
56	0x3d884dc8	0.066554606
57	0xbe3df1be	-0.18549249
58	0x3dd19141	0.10232783
59	0xbdab2fd2	-0.083587304
60	0xbd726c38	-0.059185237
61	0xbde66649	-0.11249978
62	0x3e0bfe51	0.13671233
63	0x3e04ce3e	0.129693
64	0xbe3f661d	-0.18691297
65	0xbd1c349e	-0.038136117
66	0x3d9ebaf4	0.07750502
67	0xbcb92468	-0.022600368
68	0xbc9a9599	-0.018870162
69	0xbd47af07	-0.048750903
70	0x3e02accb	0.12761228
71	0xbdd4b1b1	-0.103854544
72	0x3dc22ef6	0.09481613
73	0x3ddab8e9	0.106798
74	0x3e0b3e5c	0.13598007
75	0x3f49ab3a	0.78776896
76	0x3e1f69ee	0.15567753
77	0x3e399fb3	0.18127327
78	0xbde7958f	-0.11307823
79	0x3e917996	0.28413075
80	0x3e3c6158	0.18396509
81	0x3ee18142	0.44043928
82	0x3ea432a3	0.32069883
83	0x3f09f4f9	0.53889424
84	0x3ce09726	0.027415823
85	0x3ec8a3cd	0.3918747
86	0xbe037c14	-0.12840301
87	0x3ecd8d8d	0.40147057
88	0x3e4945eb	0.19655578
89	0x3e530902	0.20608905
90	0x3ed8b8a2	0.42328364
91	0x3e4debf4	0.2010954
92	0xbce02b60	-0.027364433
93	0xbdb5229f	-0.08844494
94	0x3eb0bbc3	0.3451825
95	0xbd11547c	-0.03548096
96	0x3e8234dd	0.25430956
97	0xbe4f9c7f	-0.20274542
98	0xbddd7ee3	-0.10815217
99	0x3dd2dd23	0.10296085

bias_hh_l0 f4 [100]
0	0x3f426360	0.75932884
1	0x3e89990a	0.26874572
2	0x3ec4975b	0.38396725
3	0xbe86fd76	-0.2636525
4	0x3edf903e	0.43664736
5	0x3e19f27c	0.15033907
6	0x3eaeacb1	0.34116128
7	0x3e131b4b	0.1436588
8	0x3f1ae22f	0.6050138
9	0xbd967fac	-0.0734857
10	0x3ee6d084	0.4508096
11	0xbe1774fa	-0.14790717
12	0x3eae8a05	0.34089676
13	0x3dfc08f2	0.12306394
14	0xbcbf29c2	-0.023335341
15	0x3ed17b24	0.4091426
16	0x3e1994cf	0.14998172
17	0xbd25822b	-0.04040734
18	0x3dd7e062	0.105408445
19	0x3e2c03b0	0.16798282
20	0x3dab7bbe	0.08373211
21	0x3dbfaafd	0.09358785
22	0xbd84ffc3	-0.06494095
23	0x3e81853c	0.25296962
24	0x3e6a9b8f	0.22910903
25	0xbe98510d	-0.29749337
26	0xbe5c1e34	-0.21495897
27	0xbe09ebc7	-0.13468848
28	0xbe453baa	-0.19261041
29	0xbdfcd867	-0.12345963
30	0xbd19fb4b	-0.037593167
31	0xbe997537	-0.2997224
32	0xbcaf18a3	-0.021374052
33	0xbea39ed9	-0.3195713
34	0xbe3e9ba4	-0.1861406
35	0xbe62a9d6	-0.221351
36	0x3d8fa338	0.070135534
37	0x3c58e66c	0.013238531
38	0x3d1b7508	0.037953407
39	0xbe1a8da1	-0.1509309
40	0xbddf6b82	-0.10909177
41	0x3e4c0dd2	0.19927147
42	0x3cc62e0a	0.024191875
43	0xbddde9bf	-0.10835599
44	0x3db2ed1d	0.08736632
45	0x3d9d0475	0.07666866
46	0xbdf97547	-0.12180572
47	0x3c1e196c	0.009649616
48	0xbdb7233b	-0.089422666
49	0x3c04ebf9	0.008112901
50	0xbd38fd5a	-0.04516349
51	0xbd3492d6	-0.044085346
52	0x3c8028b6	0.015644412
53	0x3dfe34df	0.12412428
54	0xbda16051	-0.07879699
55	0x3e0413d3	0.12898187
56	0x3da56cc2	0.080773845
57	0x3dabcaa9	0.08388264
58	0x3a7724d6	0.0009427791
59	0x3d35dee0	0.044402003
60	0xbd0c4a8c	-0.03425078
61	0x3d88b2fc	0.066747636
62	0x3c6cdc11	0.014456765
63	0xbdb64ad1	-0.08900989
64	0x3e086604	0.13320166
65	0x3e040558	0.12892663
66	0xbd507754	-0.05089505
67	0x3dcc78f4	0.099840075
68	0xbce723f6	-0.02821539
69	0x3e1e9490	0.1548636
70	0x3d27cf61	0.040969256
71	0x3d07f7c3	0.03319527
72	0x3def91c6	0.11697726
73	0x3c2c4dde	0.010516612
74	0xbd57cbc6	-0.052684568
75	0x3f28e4e2	0.6597425
76	0x3ea5144f	0.32242057
77	0x3e96e377	0.29470417
78	0x3dcd381f	0.1002047
79	0x3ea7b7d5	0.3275744
80	0x3da90250	0.08252394
81	0x3f04ef0b	0.5192725
82	0x3e3470ec	0.17621201
83	0x3f050675	0.5196298
84	0x3e6792bf	0.22614573
85	0x3e3745e2	0.17897752
86	0xbdc3ea5a	-0.095661834
87	0x3eaab70b	0.33342776
88	0x3e56083f	0.20901583
89	0xbe18c656	-0.14919409
90	0x3eac565d	0.3365964
91	0x3e7bc937	0.24588476
92	0x3d4a771a	0.04942999
93	0x3e43c447	0.19117843
94	0x3e8aceca	0.27110893
95	0xbd2edb7b	-0.04268978
96	0x3e46642c	0.1937415
97	0xbdeb260c	-0.11481866
98	0xbdcb77e4	-0.09934977
99	0x3e422392	0.18958881

weight_ih_l1 f4 [100, 25]
0	0xbde0b1f0	-0.10971439
1	0x3eb771a6	0.35828894
2	0x3d49619d	0.049165357
3	0x3e77facb	0.24216764
4	0xbc5ec0bf	-0.013595759
5	0x3e58a0ec	0.21155137
6	0xbe9456d4	-0.28972495
7	0x3d7fcf81	0.06245375
8	0xbde65a59	-0.11247701
9	0x3e7cfb48	0.24705231
10	0xbaa82bd9	-0.001283045
11	0xbdad7ba4	-0.08470848
12	0xbe83d8e5	-0.25751415
13	0x3dc64a50	0.09682143
14	0x3e917298	0.2840774
15	0xbe8520e7	-0.26001665
16	0xbd62a40e	-0.055332236
17	0xbe4ec04c	-0.20190543
18	0xbcec48f5	-0.028843382
19	0xbcd390eb	-0.025825938
20	0xbe2c0253	-0.16797762
21	0xbdc563af	-0.09638154
22	0x3e92f399	0.28701475
23	0x3e92478c	0.2857021
24	0x3d06ad9b	0.032880407
25	0x3da0b4fd	0.07847021
26	0x3dc66f96	0.09689252
27	0x3de87709	0.11350829
28	0x3da23b9c	0.07921526
29	0x3df39e61	0.11895443
30	0xbd8f1210	-0.06985867
31	0xbe328533	-0.17433624
32	0x3d9d6215	0.07684723
33	0x3c9a450e	0.018831756
34	0x3d99a2fe	0.075017914
35	0x3dc04d8d	0.09389792
36	0x3e6fc0d9	0.2341341
37	0xbe6c1e61	-0.23058464
38	0x3d6317ce	0.055442624
39	0x3e24c464	0.16090542
40	0xbddfd396	-0.10929029
41	0xba0c6458	-0.00053555286
42	0xbeb9f1d1	-0.36317304
43	0xbca161d3	-0.019699967
44	0xbda1752f	-0.07883679
45	0xbdede990	-0.11616814
46	0x3cda2ea6	0.026633572
47	0x3dc23da3	0.094844125
48	0x3df2db11	0.1185819
49	0x3e83f27c	0.25770938
50	0x3ceafb10	0.028684169
51	0x3aaae4f6	0.0013038206
52	0xbbe78094	-0.0070648883
53	0xbe49d499	-0.19710006
54	0x3e0a44d0	0.13502812
55	0xbe39c3eb	-0.18141143
56	0x3cb54947	0.022129668
57	0x3ea29ef4	0.31761897
58	0xbdb4e62c	-0.08832964
59	0x3df9062d	0.12159381
60	0xbbce816c	-0.0063020494
61	0x3dc9387b	0.09825226
62	0xbdf54b08	-0.11977202
63	0x3c9ca186	0.01911999
64	0xbc314aa7	-0.010821021
65	0xbd87c247	-0.06628852
66	0x3dc8f1ff	0.09811782
67	0x3b8a235c	0.004215641
68	0xbdc3a2cf	-0.09552538
69	0xbe8c231a	-0.2737053
70	0xbe9e1ae9	-0.30879906
71	0xbe162af1	-0.14664818
72	0x3b7c2711	0.0038475434
73	0x3d2f4511	0.042790476
74	0x3d1824fd	0.03714465
75	0xbd14f8b3	-0.03636999
76	0x3e8fe2a7	0.2810261
77	0xbd1926e5	-0.03739061
78	0x3df70b8b	0.120627485
79	0x3dbeb07f	0.09311008
80	0xbd3635d7	-0.04448494
81	0xbea28e20	-0.31749058
82	0x3dff53fd	0.12467191
83	0xbe85fa63	-0.26167592
84	0x3e1688d7	0.14700638
85	0x3e480a19	0.19535102
86	0x3e2d5064	0.16925198
87	0xbcc013ee	-0.023447003
88	0xbe2fd445	-0.17170818
89	0x3e8d78fa	0.2763136
90	0xbd66a243	-0.05630709
91	0xbcf0e28e	-0.029404905
92	0xbcf6de0b	-0.030135175
93	0x3e3eb6f6	0.18624482
94	0x3d1ce975	0.03830858
95	0x3d036c11	0.032085482
96	0x3de5d736	0.11222689
97	0x3b93ab71	0.0045065214
98	0xbcc6d82d	-0.024273003
99	0x3c883354	0.016626038
100	0xbe98ba1e	-0.29829496
101	0xbc956654	-0.01823727
102	0x3e66124e	0.2246792
103	0x3dcf2a47	0.10115486
104	0xbf12aaa2	-0.57291615
105	0x3e942c3a	0.28939992
106	0x3d98b42b	0.07456239
107	0xbea5962c	-0.32341135
108	0x3ed26997	0.41096184
109	0xbe1444e0	-0.14479399
110	0xbec253a4	-0.37954438
111	0xbe36320f	-0.17792533
112	0x3ebee9eb	0.3728784
113	0x3ed63431	0.41836694
114	0xbb7f2e52	-0.0038937521
115	0x3e47a0d6	0.19494948
116	0xbd3ffcb9	-0.046871874
117	0x3e082ce4	0.13298374
118	0xbdc70761	-0.09718204
119	0x3eab3f07	0.33446524
120	0x3c31bba2	0.010847958
121	0xbea7425e	-0.32667822
122	0xbd0583b5	-0.03259631
123	0x3ce3b84c	0.02779784
124	0x3ef721a0	0.4826784
125	0x3c863fd6	0.016387861
126	0x3edbc33f	0.42922398
127	0xbe7a1f2a	-0.2442595
128	0x3e43392f	0.19064783
129	0x3dc40d52	0.09572853
130	0x3e626e15	0.22112305
131	0xbe883637	-0.26603863
132	0x3ce7e703	0.028308397
133	0xbe87e78b	-0.2654384
134	0x3e1efee9	0.15526928
135	0x3dc96bff	0.09835052
136	0x3ea868a4	0.32892334
137	0xbe4aef1b	-0.19817774
138	0x3c95317c	0.018212073
139	0x3e71b11f	0.23602723
140	0xbe17fef0	-0.14843345
141	0xbe0045ed	-0.12526675
142	0xbeaca9ca	-0.3372329
143	0x3e1631d4	0.14667445
144	0xbbba4f10	-0.0056856945
145	0x3cd8a04d	0.026443625
146	0x3d2d3da5	0.042295117
147	0x3d9d3ff2	0.07678212
148	0x3e31ef86	0.17376527
149	0x3df134d9	0.11777658
150	0x3c9f4888	0.019443765
151	0x3de93180	0.113863945
152	0x3e12a563	0.14320903
153	0x3db6e0a3	0.08929565
154	0x3dfc5536	0.1232094
155	0x3dd9558d	0.10612021
156	0x3d5aeae6	0.053446673
157	0x3e7777ec	0.2416684
158	0x3bc637c2	0.0060491273
159	0x3dcfbba6	0.10143213
160	0x3e7ebec5	0.2487746
161	0x3dca69bb	0.09883448
162	0xbd8d54fc	-0.06900975
163	0xbde1dd86	-0.1102858
164	0x3d237f52	0.039916344
165	0xbc0ec74b	-0.008714507
166	0xbe1fce36	-0.15606007
167	0xbce77e6f	-0.02825853
168	0x3c8df840	0.017330289
169	0xbeb6b5fc	-0.35685718
170	0xbe7016e3	-0.2344623
171	0x3e408fcb	0.18804853
172	0xbda54948	-0.08070618
173	0xbda36359	-0.079779334
174	0x3dcb3fe3	0.09924295
175	0xbda79a71	-0.08183754
176	0x3ec3c054	0.38232672
177	0x3deeeb8d	0.116660215
178	0x3e988550	0.2978921
179	0xbd859493	-0.06522479
180	0x3bc964e2	0.0061460594
181	0xbd96a3cf	-0.07355463
182	0x3e385487	0.18000995
183	0xbe3cdbae	-0.18443176
184	0x3e3411c8	0.17584908
185	0x39c02260	0.00036646705
186	0x3e355b11	0.1771052
187	0xbdae3288	-0.08505732
188	0xbe337bc4	-0.17527682
189	0x3e6ec368	0.23316729
190	0xbd899c53	-0.067192696
191	0xbcb596bf	-0.022166608
192	0x3a65f629	0.00087723375
193	0x3e0a5d98	0.13512266
194	0xbdc2ca41	-0.09511233
195	0xbe025484	-0.12727553
196	0x3e8679e6	0.26264876
197	0x3d93a92e	0.07210003
198	0xbde154f9	-0.110025354
199	0x3e004c96	0.12529215
200	0xbe1f0c48	-0.15532029
201	0xbe181f26	-0.14855632
202	0x3d5b3fc4	0.05352761
203	0xbd7280d9	-0.05920491
204	0x3e4cb70f	0.19991706
205	0x3e3bc14c	0.18335456
206	0x3d8d0819	0.0688631
207	0x3e84c25d	0.25929537
208	0xbe4ba5e6	-0.19887504
209	0x3e702203	0.23450474
210	0x3d083c5e	0.033260696
211	0x3e7041ab	0.2346255
212	0x3e4126cb	0.18862455
213	0x3e634ce3	0.22197299
214	0x3e18031b	0.14844935
215	0xbe87cca9	-0.2652333
216	0x3de2c55e	0.11072801
217	0x3d2d109e	0.042252176
218	0xbd7cff82	-0.06176711
219	0xbd9a56ee	-0.07536112
220	0x3d0a4bb3	0.0337636
221	0xbde04ed0	-0.10952532
222	0x3e933a86	0.28755587
223	0x3d38398b	0.044976752
224	0x3e0ebf34	0.13940126
225	0x3e389911	0.1802714
226	0x3e327c7d	0.17430301
227	0xbe0aca4a	-0.1355373
228	0x3e588a72	0.21146563
229	0x3dc43954	0.09581247
230	0x3e6ebcb6	0.23314175
231	0xbead0f30	-0.3380065
232	0x3ecae63e	0.39628786
233	0xbeb4ba94	-0.35298598
234	0x3ea59d03	0.32346353
235	0x3eaa71fc	0.33290088
236	0xbce9b5aa	-0.028529007
237	0xbe4ca2ef	-0.19984029
238	0xbcdee966	-0.027210902
239	0x3e4b21a3	0.1983705
240	0xbe34e8b0	-0.17666888
241	0xbd15f479	-0.0366101
242	0xbe1cc5ec	-0.15309876
243	0x3e9f3f2e	0.3110289
244	0xbe176e46	-0.1478816
245	0xbdeda09d	-0.116029
246	0x3e5ed7a7	0.21761952
247	0x3e16648d	0.14686795
248	0x3e53b757	0.20675407
249	0x3dc6a49c	0.096993655
250	0x3e9352e1	0.2877417
251	0x3db0d51c	0.086343974
252	0xbdf04fcb	-0.11733969
253	0x3e68529f	0.22687767
254	0x3e970c94	0.29501784
255	0x3d658534	0.056035236

weight_hh_l1 f4 [100, 25]
0	0xbe1804ab	-0.1484553
1	0x3d8817b3	0.06645145
2	0xbe084e6b	-0.13311164
3	0x3e061022	0.13092092
4	0xbe64acc5	-0.22331531
5	0xbde078a5	-0.10960511
6	0x3e626f38	0.22112739
7	0xbd1cd71c	-0.03829108
8	0xbd1161fc	-0.035493836
9	0xbe099d1a	-0.13438836
10	0xbe6e9ea6	-0.23302707
11	0x3e920e8a	0.28526717
12	0x3d9763a6	0.07392053
13	0xbd91f164	-0.0712612
14	0x3e7a4d30	0.24443507
15	0x3a860995	0.0010226244
16	0x3e2fc587	0.17165194
17	0xbc812a73	-0.015767312
18	0x3df58159	0.11987562
19	0x3e036923	0.12833075
20	0x3d59f486	0.05321171
21	0xbdb8a073	-0.09014978
22	0x3c092d74	0.008372653
23	0xbe081250	-0.13288236
24	0x3e168b3e	0.14701554
25	0xbe93e944	-0.28888905
26	0xbc3b40e5	-0.011429046
27	0xbe56056c	-0.20900506
28	0x3ea147da	0.3150013
29	0xbe49d89c	-0.19711536
30	0xbd90e0aa	-0.07074101
31	0x3eb71752	0.3575998
32	0x3e99513b	0.29944786
33	0x3e7d969d	0.24764486
34	0x3ea7a3f7	0.32742283
35	0xbe40b7c0	-0.18820095
36	0x3e22c817	0.1589664
37	0xbd83c5d8	-0.0643422
38	0x3bff2a7f	0.0077870484
39	0x3dbf486b	0.093399845
40	0x3c86571e	0.016398963
41	0x3dd088ab	0.10182317
42	0xbbc9f91f	-0.0061637308
43	0x3ec8cc7e	0.39218515
44	0x3e03ff24	0.12890297
45	0x3cb514c5	0.02210463
46	0xbe37b49d	-0.17939992
47	0x3ea4d1d8	0.32191348
48	0xbe63942d	-0.22224493
49	0x3ce4cfb4	0.027931072
50	0x3dd57f99	0.10424728
51	0xbe2a8411	-0.16651942
52	0x3dddf5b0	0.10837877
53	0xbdc31102	-0.09524728
54	0xbec1f6a1	-0.37883475
55	0xbdfb9129	-0.122835465
56	0x3da8c4fd	0.082406975
57	0xbdfd40c1	-0.123658665
58	0x3e38f5fc	0.18062586
59	0xbd8a4492	-0.0675136
60	0x3d152074	0.036407903
61	0x3e5e3ad7	0.21702133
62	0x3cd20abe	0.025639888
63	0x3c4086e0	0.011750907
64	0xbcd77b69	-0.026303964
65	0x3def202b	0.116760574
66	0xbdcc1f98	-0.099669635
67	0x3e2a1126	0.16608104
68	0x3c37f69e	0.011228232
69	0xbe1b2893	-0.15152197
70	0xbda36da7	-0.07979899
71	0xbd0ada1b	-0.033899408
72	0xbe2adb37	-0.16685186
73	0xbde04d8d	-0.10952292
74	0x3cd6b1be	0.026207801
75	0xbe61b310	-0.22040963
76	0x3e82f6b1	0.25578836
77	0xbe014c0b	-0.12626664
78	0x3d2fb7e7	0.042899992
79	0xbda8972a	-0.08231957
80	0xbdcb1e46	-0.099178836
81	0x3e115823	0.14193778
82	0x3d82c55d	0.063853
83	0x3d8b81f7	0.06811898
84	0xbd38de72	-0.045134015
85	0x3d3c92e7	0.046038534
86	0x3ddf7212	0.10910429
87	0xbdd0239d	-0.10163043
88	0x3d8517c3	0.06498673
89	0x3e4c6f0a	0.19964233
90	0xbe7e3cef	-0.24827932
91	0xbe11589f	-0.14193963
92	0x3e5f22ce	0.2179062
93	0xbd01490c	-0.031563804
94	0x3e87fe7f	0.26561353
95	0x3e7b33dc	0.24531502
96	0x3da6c272	0.08142556
97	0x3d0a0985	0.033700485
98	0xbe6b5663	-0.22982173
99	0x3e50fb22	0.204083
100	0x3e429f2d	0.19006033
101	0xbeaf2fcf	-0.34216163
102	0xbdf9be19	-0.121944614
103	0xbea1e180	-0.31617355
104	0xbdbec73b	-0.09315344
105	0x3ea5304a	0.32263404
106	0x3ce81c7e	0.028333899
107	0xbed2c004	-0.4116212
108	0xbd51d362	-0.05122698
109	0xbe671374	-0.22566015
110	0xbdb0282d	-0.08601413
111	0x3d70d9a2	0.0588013
112	0xbeada6ce	-0.33916324
113	0xbdfd113f	-0.12356805
114	0x3cdaf672	0.026728842
115	0x3e259cf2	0.16173151
116	0x3dcd6625	0.10029248
117	0x3e00bb03	0.1257134
118	0x3c7f4ba6	0.015582001
119	0xbd7290f4	-0.05922027
120	0xbedf0906	-0.43561572
121	0x3e740783	0.2383099
122	0x3d00dfcf	0.03146344
123	0x3d1a50be	0.037674658
124	0xbeedcfe5	-0.46447673
125	0xbdde5ef4	-0.108579546
126	0x3da41da7	0.08013468
127	0xbde2cdf4	-0.11074439
128	0x3e96bef7	0.2944257
129	0xbf0a67aa	-0.5406443
130	0xbe9274e6	-0.2860481
131	0x3dffc81e	0.12489341
132	0x3e4ff793	0.20309286
133	0x3dc9c8c9	0.0985275
134	0xbcd46e9a	-0.025931645
135	0xbea32bb0	-0.31869268
136	0x3ed33c79	0.41257074
137	0xbd9e0d1d	-0.07717345
138	0xbe3642b1	-0.17798878
139	0x3e106462	0.14100793
140	0xbe85ad7d	-0.26108924
141	0xbd6fc495	-0.058537085
142	0x3df07ae5	0.1174219
143	0x3e66bd58	0.22533166
144	0x3ea35643	0.3190175
145	0xbd9205a5	-0.07129983
146	0xbe8b804f	-0.2724633
147	0x3ca59a23	0.0202151
148	0xbd892542	-0.066965595
149	0xbc940bcb	-0.01807203
150	0x3da854d0	0.08219302
151	0xbd8039a4	-0.06260994
152	0x3e370043	0.17871194
153	0xbdbf9cdf	-0.09356093
154	0xbde1b0fb	-0.110200845
155	0x3e08e594	0.13368827
156	0x3d926085	0.07147316
157	0x3e3d0d02	0.18461993
158	0x3e090f7e	0.13384816
159	0xbd92b142	-0.071627155
160	0x3d1bf084	0.03807117
161	0x3e3b2722	0.18276647
162	0xbe314d9f	-0.17314766
163	0x3dbcc7b7	0.0921778
164	0xbd19db40	-0.03756261
165	0xbda6ea7b	-0.08150192
166	0xbda5f46a	-0.08103259
167	0x3b930b9a	0.004487467
168	0xbd9a32c4	-0.07529214
169	0x3e73033e	0.23731706
170	0x3d91e0de	0.07122968
171	0x3dc0afda	0.09408541
172	0x3daea225	0.0852702
173	0xbe0ccbdb	-0.1374964
174	0x3e3164b8	0.17323577
175	0xbe8eff25	-0.27929035
176	0x3e45b707	0.193081
177	0xbd52eacb	-0.051493447
178	0x3e4b6bf9	0.19865407
179	0xbe992e51	-0.2991815
180	0x3c9033db	0.017602852
181	0xbc86ac5f	-0.016439615
182	0x3dc5bb07	0.09654813
183	0x3e1f612c	0.15564412
184	0x3d9453d2	0.0724255
185	0xbd0ed87b	-0.03487442
186	0x3d1bf141	0.038071875
187	0xbd338702	-0.043829925
188	0xbd63bfe4	-0.055602923
189	0x3dbec151	0.09314216
190	0xbdbc6578	-0.09199041
191	0x3e0a140e	0.13484213
192	0x3ea5e485	0.3240091
193	0x3ca00f41	0.019538524
194	0x3e7987cd	0.2436821
195	0x3e840856	0.2578761
196	0x3d909e29	0.07061417
197	0x3d534ca6	0.05158677
198	0xbcbe8552	-0.023256931
199	0xbd85c26e	-0.06531225
200	0x3e2f4daf	0.17119478
201	0xbda9abd5	-0.082847275
202	0x3e48d960	0.19614172
203	0xbdc010f8	-0.093782365
204	0xbeb53725	-0.35393634
205	0xbe10106f	-0.14068769
206	0x3e39d54f	0.18147777
207	0x3c71709f	0.014736324
208	0xbd9c1609	-0.0762139
209	0xbd96c845	-0.07362417
210	0xbd079665	-0.03310241
211	0x3e3947c2	0.1809378
212	0xbe1d7ed7	-0.15380417
213	0x3da44ead	0.08022819
214	0x3e5c7a71	0.21531083
215	0x3e06f3ac	0.13178891
216	0x3d31c6d8	0.043402523
217	0x3cbaa60d	0.022784257
218	0x3e2e98d9	0.17050494
219	0x3e196157	0.14978538
220	0x3cebfb55	0.028806368
221	0xbe139422	-0.14411977
222	0xbdcf24a6	-0.10114412
223	0xbd9fa9d0	-0.07796061
224	0xbc2dc694	-0.010606427
225	0xbdc582eb	-0.09644111
226	0xbd4f99e3	-0.050683867
227	0xbe03c88d	-0.12869473
228	0xbd58b1ba	-0.05290387
229	0xbeb79940	-0.35859108
230	0x3d8aa16c	0.0676907
231	0x3d73dbe2	0.05953587
232	0x3d0e9e3e	0.03481888
233	0x3d895733	0.06706085
234	0xbe150e59	-0.14556254
235	0xbe561948	-0.20908082
236	0x3e8d9005	0.2764894
237	0x3d28793e	0.04113125
238	0x3d8755e1	0.06608177
239	0x3ead7fec	0.3388666
240	0x3c847fcf	0.016174225
241	0xbe129cd3	-0.14317636
242	0x3ca697ba	0.02033602
243	0x3e8f5e63	0.280017
244	0xbdb7a2a0	-0.08966565
245	0xbc122ddc	-0.008922067
246	0x3d92d60d	0.07169733
247	0x3e87cad7	0.26521942
248	0xbdc8f25d	-0.09811852
249	0xbdbe62b5	-0.092961706
250	0xbd929c5a	-0.07158728
251	0xbd40371f	-0.046927568
252	0xbe41286e	-0.18863079
253	0x3e486429	0.19569458
254	0xbeab3adc	-0.33443344
255	0x3dbac98d	0.09120474

bias_ih_l1 f4 [100]
0	0x3d3606e1	0.044440154
1	0x3eb5562f	0.35417315
2	0x3e42a3f6	0.19007859
3	0x3e7d9780	0.24764824
4	0x3e502c95	0.20329507
5	0x3e3883ea	0.18019071
6	0x3e8ec95b	0.27887997
7	0x3c8effca	0.017455954
8	0x3e690401	0.22755434
9	0xbd682d02	-0.056683548
10	0xbdc60859	-0.09669561
11	0x3e2c9610	0.1685412
12	0xbd399150	-0.045304596
13	0x3de62850	0.11238158
14	0xbde1dffb	-0.11029049
15	0x3e341dec	0.1758954
16	0x3eb0e688	0.3455088
17	0x3e3619dc	0.17783302
18	0x3dcfca90	0.101460576
19	0x3e3d9ac8	0.18516076
20	0x3eae3710	0.34026384
21	0x3e641b21	0.22275974
22	0xbe034289	-0.1281835
23	0x3d42e275	0.047579248
24	0x3e33d54b	0.17561834
25	0xbe8a8bab	-0.27059683
26	0xbe92c490	-0.2866559
27	0xbda26080	-0.07928562
28	0xbe9416c8	-0.2892363
29	0xbdc40f75	-0.09573261
30	0xbc9f9a18	-0.019482657
31	0xbea3f474	-0.3202244
32	0xbda769b2	-0.08174457
33	0xbd77152f	-0.060322937
34	0xbe8817c8	-0.26580644
35	0xbc747f22	-0.014922889
36	0x3ccb6996	0.02483062
37	0xbe7514b1	-0.23933674
38	0xbdabc0ac	-0.083863586
39	0xbcc91ce4	-0.024549909
40	0x3d288e89	0.041151557
41	0xbe9855b5	-0.2975289
42	0xbe1fc9e5	-0.1560436
43	0x3d24c0e6	0.040223025
44	0xbe3b42c1	-0.18287183
45	0xbda4b7bb	-0.08042856
46	0x3d668ef1	0.056288663
47	0xbdde9aaf	-0.10869347
48	0xbe9673f3	-0.29385337
49	0xbea020e5	-0.31275097
50	0x3cf8fdbe	0.030394431
51	0x3d1300df	0.035889503
52	0x3c393af0	0.011305556
53	0xbe16eca4	-0.14738709
54	0xbc88c999	-0.016697692
55	0x3d17987c	0.037010655
56	0x3ca276d8	0.01983206
57	0xbd65ae3e	-0.056074373
58	0xbe054d07	-0.13017665
59	0x3d2fe959	0.042947147
60	0x3dc0c36a	0.09412272
61	0xbe2f5a78	-0.17124355
62	0xba20a8ac	-0.00061286497
63	0xbd16f375	-0.036853272
64	0x3daaf5cc	0.08347663
65	0xbc074388	-0.008255847
66	0xbbbe7aa1	-0.0058129583
67	0x3dd389eb	0.1032904
68	0x3b74c41a	0.003734833
69	0xbcbc4beb	-0.02298542
70	0x3c96e3c2	0.01841915
71	0x3dcf0822	0.10108973
72	0x3de85385	0.11344055
73	0x3deadd8f	0.1146804
74	0xbd7b59ae	-0.061364822
75	0x3e6522e1	0.22376586
76	0x3d9104c1	0.07080985
77	0x3b88e6e8	0.004177917
78	0x3e854627	0.26030084
79	0xbcf5991c	-0.029980235
80	0x3e7071cf	0.23480915
81	0x3dd6b2d8	0.104833305
82	0xbcb6ca51	-0.022313269
83	0x3df78ab8	0.120870054
84	0x3cd8d09e	0.026466664
85	0x3dd8a94c	0.10579166
86	0x3dbe0226	0.092777535
87	0x3e7e812d	0.24853964
88	0x3d6b8a5b	0.057504993
89	0x3dbbcb92	0.09169687
90	0x3d458d9d	0.048230756
91	0x3e8f7351	0.28017667
92	0x3eca2cb1	0.39487222
93	0xbdaf8366	-0.08569984
94	0x3d3f3a15	0.04668625
95	0x3e3bd14a	0.18341556
96	0x3e28dca0	0.16490412
97	0x3e38f8e2	0.18063691
98	0x3e4e0ad3	0.20121317
99	0x3e525f1f	0.20544098

bias_hh_l1 f4 [100]
0	0x3e878e19	0.264756
1	0xbc13e9d7	-0.00902792
2	0xbe3d0953	-0.18460588
3	0x3b40d602	0.0029424434
4	0xbdee3f03	-0.11633112
5	0x3e7c7e4e	0.24657556
6	0x3dfc32e1	0.12314392
7	0x3c675588	0.014119513
8	0x3d412553	0.047154736
9	0x3ea6bc0a	0.32565337
10	0xbc7d2423	-0.01545051
11	0xbdf1905d	-0.11795113
12	0x3e971f7a	0.29516202
13	0x3e1f5f52	0.15563706
14	0x3dbccb56	0.09218471
15	0xbe398935	-0.18118747
16	0x3db99642	0.090618625
17	0x3e98bec7	0.29833052
18	0x3c7aeb12	0.015314834
19	0x3e68f5ad	0.22749968
20	0x3ec87a47	0.3915579
21	0x3eab5d13	0.33469447
22	0x3ddb0f3a	0.106962636
23	0x3e98d421	0.29849342
24	0x3e950ca6	0.29111212
25	0xbe9bf968	-0.3046372
26	0xbd0e8096	-0.034790598
27	0xbe9dd2b6	-0.30824822
28	0xbe640597	-0.22267757
29	0xbe251e3a	-0.16124812
30	0xbe8ea610	-0.2786107
31	0xbd90a8f0	-0.07063472
32	0xbe0fc550	-0.14040112
33	0xbe7d2df3	-0.2472456
34	0xbeb54b29	-0.35408905
35	0xbd338f12	-0.043837614
36	0xbe048ece	-0.129451
37	0xbe8b38e5	-0.27191845
38	0xbcabf76a	-0.020992
39	0xbe5aa245	-0.21350963
40	0xbdf65508	-0.12027937
41	0xbe400e14	-0.1875537
42	0xbe6b87dd	-0.23001046
43	0xbd9ffe4d	-0.07812176
44	0xbe52216a	-0.20520559
45	0xbe187ac6	-0.14890584
46	0x3df081fa	0.11743541
47	0xbdb5aa4a	-0.08870371
48	0xbe8904ef	-0.26761577
49	0xbb244e00	-0.0025070906
50	0xbd31779b	-0.043326955
51	0xbd962c7e	-0.07332705
52	0xbd0b0f61	-0.033950213
53	0x3e044445	0.12916668
54	0x3a18f20d	0.0005834408
55	0xbd6caa02	-0.05777932
56	0x3cadd448	0.021219388
57	0x3d7ed84c	0.062217996
58	0x3e017d98	0.12645566
59	0x3c916afa	0.017751206
60	0xbdb40d72	-0.08791627
61	0x3e053820	0.13009691
62	0x3d50fe84	0.051023975
63	0xbbadc1fb	-0.0053026653
64	0xbdc2262f	-0.09479939
65	0xbcae3124	-0.021263666
66	0x3bef4d43	0.0073029115
67	0xbdc2cb71	-0.095114596
68	0x3b4d1a31	0.003129613
69	0x3d2167f0	0.039405763
70	0xba68be0d	-0.00088784174
71	0xbdafea17	-0.08589571
72	0xbdbf1f47	-0.093321376
73	0xbdf9baa9	-0.12193806
74	0x3cbd482d	0.023105705
75	0x3e92e238	0.28688216
76	0x3eab84f8	0.33499885
77	0x3dcdc1a6	0.10046701
78	0xbbd4e580	-0.006497085
79	0x3d1e3bc7	0.038631227
80	0x3d84688e	0.06465255
81	0x3e787ba7	0.2426592
82	0x3e8d74a3	0.2762805
83	0x3ee453be	0.4459514
84	0x3db098eb	0.08622917
85	0x3cb87b2e	0.022519674
86	0x3e5f86ba	0.21828738
87	0x3e9b9247	0.30385038
88	0x3b98845f	0.0046544517
89	0xbd634851	-0.05548889
90	0xbe2e19b5	-0.17001994
91	0x3e54eede	0.20794246
92	0x3e45c83d	0.19314666
93	0xbdd53916	-0.10411279
94	0x3ea2c36a	0.31789714
95	0x3e78a4d1	0.24281622
96	0x3b44a821	0.003000744
97	0x3d0f8716	0.035040937
98	0x3c01b726	0.007917201
99	0x3e95022e	0.29103225

weight_ih_l2 f4 [100, 25]
0	0xbd8d607e	-0.0690317
1	0x3e4364bb	0.19081394
2	0xbdca7344	-0.098852664
3	0x3cadc1c2	0.021210555
4	0xbd9e78be	-0.077378735
5	0xbe8764f9	-0.26444224
6	0xbe351b04	-0.17686087
7	0x3e1ed35a	0.15510312
8	0x3da4b124	0.080415994
9	0xbd023e26	-0.03179755
10	0xbd4d894d	-0.05017977
11	0x3cc39656	0.023875397
12	0xbde21cca	-0.11040647
13	0x3d938758	0.07203549
14	0xbe0c47d0	-0.1369927
15	0xbc8b4429	-0.017000275
16	0xbe3ffe6f	-0.18749402
17	0xbde8232f	-0.11334836
18	0x3c3cc6ac	0.011521976
19	0x3a0656c8	0.0005124626
20	0x3e4723d6	0.19447264
21	0xbe3797b0	-0.17928958
22	0x3d7a9be2	0.061183818
23	0x3e06f3dc	0.13178962
24	0x3e2f29fb	0.17105858
25	0xbe2454fd	-0.16048045
26	0x3e54bdc0	0.20775509
27	0xbe731be4	-0.23741108
28	0x3e2e1db1	0.17003514
29	0xbe20f905	-0.15719993
30	0xbe396af1	-0.18107201
31	0x3d3b8554	0.04578145
32	0x3e7b78ed	0.24557848
33	0xbcbfed65	-0.023428628
34	0x3dddc4e7	0.10828572
35	0xbdf47af6	-0.119375154
36	0x3dde2368	0.10846597
37	0x3e18718f	0.14887069
38	0xbe28a3a6	-0.16468677
39	0xbc9d259d	-0.019182974
40	0xbd5325fa	-0.05154989
41	0xbe5898ac	-0.2115199
42	0xbe1bd174	-0.15216619
43	0xbd17083b	-0.036873084
44	0x3e38c8a5	0.1804529
45	0x3e3c720b	0.18402879
46	0xbeb0724f	-0.3446221
47	0xbe264cac	-0.16240185
48	0xbe508c99	-0.20366134
49	0x3e14fb70	0.14549041
50	0xbbe0d0ce	-0.006860829
51	0x3e158015	0.1459964
52	0xbe49f346	-0.19721708
53	0x3e7614e9	0.24031414
54	0x3c7953f0	0.015217766
55	0xbdb879d9	-0.090076156
56	0x3e0f1f5a	0.13976803
57	0x3e4e97a8	0.2017504
58	0x3e561128	0.20904982
59	0x3e3a10b9	0.18170442
60	0x3df975c9	0.12180669
61	0xbdb2fa9b	-0.087392054
62	0x3e49c9d9	0.19705905
63	0xbe482bc9	-0.19547953
64	0x3c84535b	0.016153028
65	0x3d5fa094	0.0545965
66	0xbe9e157b	-0.30875763
67	0xbe2a2402	-0.16615298
68	0xbda08ff5	-0.078399576
69	0x3e266ebd	0.16253181
70	0x3e8730ef	0.2640452
71	0xbe15573f	-0.14584063
72	0x3e29cf88	0.16583073
73	0xbe8813da	-0.26577646
74	0x3da4a6d3	0.08039632
75	0xbe499b74	-0.19688207
76	0x3e615f77	0.22009073
77	0xbd967eef	-0.073484294
78	0x3d5ec12d	0.054383446
79	0xbe11e515	-0.14247544
80	0xbe67c5e3	-0.22634082
81	0xbc1d298e	-0.009592427
82	0x3e6bea4c	0.23038596
83	0x3e3e8b9d	0.18607946
84	0x3d949e5e	0.07256769
85	0xbdc7eba2	-0.0976174
86	0x3e2a2e94	0.1661933
87	0x3e9c5e8b	0.3054088
88	0xbb8d86d2	-0.0043190503
89	0xbcf3ab6b	-0.029744824
90	0x3cf79a18	0.030224845
91	0x3d8e142e	0.06937443
92	0xbce91776	-0.02845357
93	0x3da0cc3e	0.07851456
94	0xbd0931b5	-0.03349467
95	0x3e710967	0.23538743
96	0xbe0bd17a	-0.13654128
97	0x3ddf9a3a	0.10918088
98	0xbdfe57c1	-0.124190815
99	0x3e875302	0.26430517
100	0xbe2bb65d	-0.16768785
101	0xbc2af6aa	-0.010434786
102	0xbd313c68	-0.0432705
103	0x3e22c50e	0.15895483
104	0xbe13989a	-0.14413682
105	0xbe73f238	-0.23822868
106	0x3e875d91	0.26438573
107	0x3e86aeda	0.26305276
108	0x3ea7deaa	0.32787067
109	0x3eaa7ac4	0.33296788
110	0xbbaa521d	-0.005197777
111	0x3e284609	0.16432966
112	0x3e123987	0.14279757
113	0xbe31ed34	-0.17375642
114	0x3d8e06ad	0.06934867
115	0xbe5d5bd3	-0.2161706
116	0xbd6487cc	-0.05579357
117	0xbea3e0b7	-0.3200738
118	0x3d15dfdf	0.036590453
119	0x3df6ab58	0.120444
120	0x3e1a4c62	0.150682
121	0xbeba9719	-0.36443403
122	0x3cdd336a	0.027002055
123	0xbe43e9b7	-0.19132124
124	0x3beadd63	0.0071675046
125	0xbe177de1	-0.14794113
126	0xbb10070c	-0.0021976857
127	0xbd34e0e7	-0.044159796
128	0x3e2cfa8a	0.16892448
129	0xbce28491	-0.027651103
130	0xbe030068	-0.12793124
131	0x3d1fcb69	0.039012346
132	0x3da1bd31	0.078974135
133	0x3ded9f14	0.11602607
134	0x3dad6cca	0.084680155
135	0xbd277865	-0.0408863
136	0x3dcccebf	0.10000371
137	0x3de77a57	0.11302631
138	0xbab8b996	-0.0014093395
139	0xbd4d57a6	-0.050132416
140	0xbe627a1b	-0.22116892
141	0xbd273cff	-0.040829655
142	0x3d0d3c79	0.0344815
143	0x3d0d0c53	0.03443558
144	0xbba1903b	-0.0049305237
145	0x3e35f665	0.17769773
146	0xbe8c6d70	-0.27427244
147	0x3e798646	0.24367628
148	0xbe5f13ce	-0.21784899
149	0x3ea07777	0.31341144
150	0xbe7ea721	-0.24868442
151	0xbc2701c1	-0.010193289
152	0x3de41fa4	0.111388475
153	0x3e3b6de5	0.1830364
154	0xbddf61ac	-0.10907301
155	0x3d246768	0.04013768
156	0x3e1a78c1	0.15085126
157	0x3e7f5740	0.24935627
158	0x3e02bddd	0.1276774
159	0x3c79acbb	0.015238936
160	0x3dd25093	0.102692746
161	0x3e6ef336	0.23334965
162	0x3d923973	0.07139864
163	0xbe3e0255	-0.18555577
164	0xb98c5947	-0.00026769398
165	0xbe651ea2	-0.22374967
166	0xbdaf3c67	-0.08556443
167	0xbe22574f	-0.15853618
168	0xbd806135	-0.06268541
169	0x3e5afc58	0.21385324
170	0x3e6835a8	0.22676718
171	0xbeab5ff8	-0.33471656
172	0x3e8b649b	0.27225193
173	0xbe9d4933	-0.3071991
174	0xbd706f53	-0.058699917
175	0xbde8e749	-0.11372239
176	0x3e5d20e9	0.21594585
177	0xbe54388b	-0.20724694
178	0xbc9c3bc8	-0.019071475
179	0xbe304bec	-0.17216462
180	0xbd2d5f74	-0.04232736
181	0x3e0c73b4	0.13716012
182	0x3afb7aa1	0.0019186327
183	0x3e04ed1e	0.12981078
184	0x3db09243	0.08621647
185	0x3d705dff	0.05868339
186	0x3e4951c0	0.19660091
187	0x3d52eaaa	0.051493324
188	0xbe94fe17	-0.29100105
189	0xbba2a03a	-0.004962948
190	0x3af8d608	0.0018984685
191	0xbe58394b	-0.21115606
192	0x3da431e5	0.08017329
193	0x3e1b5e07	0.15172587
194	0x3e31ffea	0.1738278
195	0x3e770b67	0.24125443
196	0xbd989ed2	-0.074521676
197	0x3e08285a	0.13296643
198	0xbc902fbb	-0.017600885
199	0x3e82e5fd	0.25566092
200	0x3dafd3d6	0.085853264
201	0x3e9b0e52	0.30284363
202	0x3e0d05e5	0.1377178
203	0xbe205a84	-0.15659529
204	0x3ef606d6	0.4805209
205	0x3de6094f	0.11232244
206	0x3e402d19	0.18767203
207	0x3ca47ad0	0.020078093
208	0x39518422	0.00019981017
209	0x3e3bd8c5	0.1834441
210	0x3db9187e	0.09037875
211	0x3ded1280	0.11575794
212	0xbd7c855e	-0.061650626
213	0x3d4b1fdf	0.04959094
214	0x3d2d66a2	0.042334206
215	0x3e105b30	0.14097285
216	0x3dfe4365	0.12415198
217	0xbd73ddd5	-0.059537727
218	0x3e1d81f8	0.1538161
219	0x3e0b6241	0.136117
220	0xbd801a86	-0.06255059
221	0xbe4844cb	-0.19557492
222	0xbd2317dd	-0.03981768
223	0x3d88a189	0.066714354
224	0x3e60ce37	0.21953665
225	0xbdd0fd06	-0.102045104
226	0x3e051918	0.12997854
227	0x3dbae821	0.09126306
228	0x3d4f5680	0.050619602
229	0xbdeb08ee	-0.114763126
230	0x3cff1039	0.031135665
231	0x3e09d15e	0.13458773
232	0x3e734f32	0.2376068
233	0x3d69ad64	0.057050124
234	0xbccad8e0	-0.024761617
235	0x3dd06162	0.10174824
236	0x3db9a3e4	0.09064463
237	0xbdd7f48f	-0.10544693
238	0x3c0d18fa	0.008611912
239	0x3e5e9086	0.21734819
240	0xbdf06124	-0.11737278
241	0xbdd3ec02	-0.10347749
242	0xbe6f28e0	-0.23355436
243	0x3e888cbf	0.2666988
244	0x3e2ea9e5	0.17056997
245	0x3ebeaa65	0.37239376
246	0xbe622a7d	-0.2208652
247	0xbc84a10c	-0.016190074
248	0x3ad9b180	0.0016608685
249	0xbcdbde28	-0.02683933
250	0xbdb9bfed	-0.0906981
251	0xbc691208	-0.01422549
252	0x3d5fcc7a	0.054638363
253	0x3dc2f1e7	0.095187955
254	0xbd7a821a	-0.06115923
255	0xbe448009	-0.19189467

weight_hh_l2 f4 [100, 25]
0	0xbd88f565	-0.0668743
1	0x3c8bd2db	0.017068317
2	0xbd4f204a	-0.050567903
3	0x3df646c0	0.12025213
4	0x3dc9d8c4	0.09855798
5	0xbd3b322a	-0.045702137
6	0x3e24517e	0.16046712
7	0x3e23c0f3	0.15991573
8	0x3e143769	0.14474262
9	0xbdd77e54	-0.10522142
10	0x3e578da4	0.21050125
11	0x3e02a32a	0.12757555
12	0xbde09416	-0.10965745
13	0x3e01ea70	0.12687087
14	0xbcd20a00	-0.025639534
15	0x3cf62c06	0.030050289
16	0x3d93db42	0.072195545
17	0xbbf9d4da	-0.007624251
18	0x392dd10f	0.00016576446
19	0x3e25eb7e	0.16203114
20	0xbd1b4292	-0.037905283
21	0x3d81fb24	0.063467294
22	0xbdb27ff5	-0.08715812
23	0xbe10afa1	-0.14129497
24	0x3e31de0a	0.17369857
25	0xbdbca9a7	-0.09212046
26	0x3d9923f9	0.07477564
27	0x3d65d635	0.056112487
28	0x3e0e2116	0.13879809
29	0x3cc9fb63	0.024656003
30	0xbe0263dc	-0.12733406
31	0xbdd2f288	-0.103001654
32	0xbd3f6b25	-0.04673304
33	0xbdbcdf32	-0.092222586
34	0x3e3f7211	0.18695857
35	0x3e258a46	0.16166028
36	0x3d3c9eeb	0.046049993
37	0x3db75c52	0.089531556
38	0xbd26dc77	-0.040737595
39	0xba9422ca	-0.0011301872
40	0x3e4c8cdd	0.1997561
41	0xbe08d5a8	-0.13362753
42	0xbe1b242e	-0.1515052
43	0xbdbbd2ab	-0.09171041
44	0x3dd1da2e	0.102466926
45	0xbd57b217	-0.052660074
46	0x3e08705a	0.13324109
47	0x3dfab017	0.12240618
48	0xbe103f07	-0.14086543
49	0xbe5875cc	-0.21138686
50	0x3dcb40d7	0.099244766
51	0xbdff50df	-0.12466597
52	0x3e4b875a	0.19875851
53	0x3e34ea91	0.17667605
54	0xbd99a8de	-0.07502912
55	0x3e29e78d	0.16592236
56	0x3da6f538	0.081522405
57	0xbd9e8cf3	-0.07741728
58	0x3e15f6c6	0.14644918
59	0x3e2e996b	0.17050712
60	0xbcc9a692	-0.02461556
61	0xbbbf75d1	-0.005842902
62	0x3e4812f9	0.19538487
63	0xbdc3d9e9	-0.095630474
64	0xbc2a5339	-0.010395818
65	0x3e08a19c	0.13342899
66	0x3e2457e1	0.16049148
67	0xbdfb7ba3	-0.12279441
68	0x3e267747	0.16256438
69	0x3e180e4e	0.14849207
70	0x3d9bcbd4	0.076072365
71	0xbdd44cb9	-0.10366196
72	0x3dd7b8ab	0.105332695
73	0xbe4038b9	-0.18771638
74	0xbdac00a0	-0.08398557
75	0xbd2ebb77	-0.04265925
76	0x3d50704e	0.050888352
77	0xbc9cbfcc	-0.019134425
78	0xbd94ad5a	-0.07259627
79	0xbe29f2b1	-0.16596486
80	0x3d01d49b	0.031696897
81	0xbd5b0047	-0.05346706
82	0xbe43272b	-0.1905791
83	0x3e70fc06	0.2353364
84	0xbdf3a59e	-0.11896823
85	0xbca82c50	-0.020528942
86	0x3d08f9bd	0.033441294
87	0xbdc41fdc	-0.09576389
88	0x3e0e5ed6	0.13903365
89	0x3d8c13fd	0.0683975
90	0x3e3d57fa	0.18490592
91	0xbe139c00	-0.14414978
92	0x3d1b4f4c	0.03791742
93	0x3e72befb	0.23705666
94	0x3dcf2509	0.10114486
95	0xbda9afa0	-0.08285451
96	0x3dc64264	0.09680632
97	0xbe0e42f1	-0.13892724
98	0x3d75afe0	0.05998218
99	0x3d80a4f0	0.06281459
100	0x3d0fe3c3	0.03512932
101	0xbd662276	-0.05618521
102	0xbdedc080	-0.11608982
103	0xbd968a57	-0.07350605
104	0x3d8b7de5	0.06811122
105	0xbd8b1385	-0.067908324
106	0x3d886fd4	0.066619545
107	0x3e0bc83c	0.13650602
108	0x3d425afe	0.04745006
109	0xbd06f22c	-0.032945797
110	0xbd26fb7b	-0.040767174
111	0xbe4d1bde	-0.20030162
112	0xbbbb4440	-0.005714923
113	0x3e1008cf	0.1406586
114	0xbcaa0a50	-0.02075687
115	0x3e92ee8c	0.28697622
116	0x3d59c052	0.053161927
117	0xbe4063aa	-0.18788019
118	0x3d9886dd	0.07447598
119	0x3ccf718e	0.025322702
120	0x3dc2a419	0.095039554
121	0xbe8125b6	-0.25224084
122	0x3e5825ee	0.21108219
123	0x3e5e2f4e	0.21697733
124	0xbdd11a02	-0.10210039
125	0xbe15208e	-0.145632
126	0x3e367287	0.17817126
127	0xbdd9530d	-0.10611544
128	0x3e0fac04	0.14030463
129	0x3c24f66e	0.010068519
130	0x3dc62eea	0.09676917
131	0x3dfbe3df	0.12299322
132	0x3e27fbbd	0.16404624
133	0x3e28e253	0.16492586
134	0xbe2dc64d	-0.16970177
135	0xbe635e2c	-0.22203892
136	0xbd96e168	-0.073672116
137	0x3e413ae1	0.18870117
138	0x3e056d4b	0.13029973
139	0x3dc15677	0.0944032
140	0xbb247307	-0.0025092976
141	0x3b857fb0	0.0040740594
142	0x3e0ffbca	0.14060894
143	0x3c823cef	0.015898196
144	0x3e2a4d97	0.1663116
145	0xbe009a4a	-0.12558857
146	0xbe0d082d	-0.1377265
147	0xbde8f5fc	-0.11375043
148	0x3d80cbe9	0.06288893
149	0xbc2c542c	-0.010518115
150	0xbcf83e5d	-0.030303175
151	0x3e177c60	0.14793539
152	0xbe3541d2	-0.1770089
153	0xbd59ff8d	-0.053222228
154	0x3d6518b2	0.055931754
155	0xbd3d1ad8	-0.04616818
156	0xbe31da1f	-0.17368363
157	0x3dd5fcfd	0.10448644
158	0xbc839474	-0.016061999
159	0x3d78d88f	0.0607534
160	0xbe5d31db	-0.2160105
161	0xbdb74e1c	-0.08950445
162	0x3daeccec	0.085351795
163	0xbdaa3595	-0.08311001
164	0x3dc0ae82	0.09408285
165	0x3b03eeb3	0.002013129
166	0x3c983dfa	0.01858424
167	0xbdccb07f	-0.099946015
168	0xbdc0c648	-0.09412819
169	0xbe1a0c57	-0.1504377
170	0x3bedec49	0.0072608334
171	0x3defb9f5	0.1170539
172	0xbdbc48a3	-0.09193542
173	0xbe36d869	-0.17855991
174	0xbe1cd6d9	-0.15316333
175	0x3dee098d	0.116229154
176	0xbde1189e	-0.109910235
177	0x3e13f7d5	0.14450009
178	0xbdbbeaa0	-0.091756105
179	0xbdb72920	-0.08943391
180	0xbcd4446f	-0.025911538
181	0xbdf9f154	-0.12204233
182	0xbe3b6e38	-0.18303764
183	0x3e113932	0.14181975
184	0x3e02afba	0.12762347
185	0xbdf5e201	-0.120059974
186	0x3cdaa794	0.026691236
187	0x3d913611	0.070903905
188	0x3d4cb14a	0.049973764
189	0xbd31cf15	-0.04341038
190	0x3d097f09	0.033568416
191	0xbdba5864	-0.090988904
192	0x3db3a9fe	0.08772658
193	0x3d1c1634	0.038107112
194	0x3e42d670	0.19027114
195	0xbe0ad27d	-0.13556857
196	0x3d1880ab	0.037232082
197	0xbdef8c31	-0.11696661
198	0xbd2c249e	-0.04202711
199	0x3d9c6e9b	0.07638284
200	0xbd0b2a1f	-0.033975717
201	0xbc28c38b	-0.010300527
202	0x3e14c4b5	0.14528163
203	0x3df44c3f	0.11928605
204	0x3defecae	0.11715065
205	0xbc217487	-0.009854442
206	0x3e17bbc5	0.14817722
207	0xbda5bfc9	-0.08093221
208	0xbb1bfb38	-0.002380086
209	0xbdb2dc9b	-0.087334834
210	0x3e56c377	0.20973001
211	0xbe2f5992	-0.17124012
212	0xbe1fb7c2	-0.15597442
213	0x3dc1688b	0.09443768
214	0xbe21001e	-0.15722701
215	0xb889e1f5	-6.574757e-05
216	0xbd49eeae	-0.04929989
217	0xbe736d65	-0.237722
218	0x3d9545c0	0.072886944
219	0x3d6ddff4	0.058074906
220	0xbe0c6e36	-0.13713917
221	0xbe1f9012	-0.15582302
222	0x3e254ee1	0.16143371
223	0xbdba21a1	-0.090884455
224	0xbd097d00	-0.033566475
225	0xbd55c7de	-0.05219256
226	0xbe1ef2a0	-0.15522242
227	0x3e430ec8	0.19048607
228	0xbd15c6c0	-0.036566496
229	0xbcf7ad6d	-0.030234063
230	0xbc18e9ac	-0.0093330555
231	0x3daa287b	0.08308502
232	0xbdcc8c83	-0.09987738
233	0x3e8b0495	0.27151933
234	0xbcd146a3	-0.025546378
235	0x3da5101b	0.080597125
236	0x3d39c334	0.045352176
237	0xbe0028cb	-0.12515561
238	0x3d6df912	0.05809886
239	0x3e5d2edc	0.21599907
240	0xbd9d32fa	-0.07675739
241	0x3df7ac43	0.12093403
242	0x3d116057	0.035492267
243	0xbd621b33	-0.05520172
244	0xbddae101	-0.10687447
245	0x3e6b254f	0.22963451
246	0xbe690aa5	-0.22757967
247	0x3dd8ebb4	0.10591832
248	0xbde845d7	-0.11341446
249	0x3d89a15b	0.06720229
250	0xbd4f07e3	-0.05054463
251	0xbe2350fa	-0.15948859
252	0x3e165bb9	0.14683427
253	0xbe179a1a	-0.14804879
254	0x3e2feccc	0.17180175
255	0x3e85c3bc	0.26125896

bias_ih_l2 f4 [100]
0	0xbd443755	-0.04790433
1	0x3dac8a6d	0.0842484
2	0x3e1e6457	0.15467964
3	0xbe01c5c9	-0.12673105
4	0x3de5d33a	0.11221929
5	0x3e00e9b6	0.12589154
6	0xbd4311db	-0.04762445
7	0xbd05e201	-0.032686237
8	0x3d688f25	0.05677714
9	0xbd64ba58	-0.055841774
10	0xbe0665b5	-0.13124736
11	0x3deefbeb	0.11669143
12	0x3e496d4f	0.19670604
13	0xbc5e49a3	-0.013567361
14	0x3e4437e2	0.19161943
15	0x3dd33052	0.10311951
16	0x3db7ab6b	0.08968242
17	0x3e373463	0.17891078
18	0xbcd8b6a7	-0.026454283
19	0x3e1eaf71	0.15496613
20	0xbdac4877	-0.08412259
21	0xbdfdbc08	-0.1238938
22	0x3e62e420	0.22157335
23	0x3e042ecd	0.12908478
24	0x3d5b7474	0.053577855
25	0xbddd03f3	-0.10791769
26	0xbebd78dc	-0.3700627
27	0xbe86b8b4	-0.26312792
28	0x3d95aa6c	0.07307896
29	0xbd8160a4	-0.06317261
30	0x3d8ff03f	0.07028245
31	0xbe4f7dd0	-0.20262837
32	0x3dae4a82	0.08510305
33	0xbec3af2a	-0.38219577
34	0xbe22fabb	-0.15915959
35	0xbd9cad73	-0.0765027
36	0xbe847022	-0.258668
37	0x3ced9c02	0.029005054
38	0xbe9f2d2f	-0.3108916
39	0xbea38f68	-0.31945348
40	0xbeb7f406	-0.35928363
41	0xbdc93854	-0.09825197
42	0x3c88910e	0.01667073
43	0x3d01900d	0.03163152
44	0x3d375fdf	0.044769164
45	0xbe580e9f	-0.21099328
46	0x3c66ae30	0.0140796155
47	0xbe0d7618	-0.1381458
48	0xbde8f600	-0.11375046
49	0xbda75fa1	-0.08172537
50	0xbbef1625	-0.007296341
51	0xbde92c61	-0.11385418
52	0x3db85bee	0.09001909
53	0xbe25f7b5	-0.16207774
54	0xbd401918	-0.04689893
55	0x3e1ff2cf	0.15619968
56	0x3c682f06	0.0141713675
57	0xbc823119	-0.015892552
58	0xbb527162	-0.0032111038
59	0xbd7b29c4	-0.061319128
60	0x3cd473c9	0.025934117
61	0x3c2f0199	0.010681533
62	0xbe05efa0	-0.13079691
63	0x3d65c7b1	0.056098644
64	0x3e26c5c8	0.16286385
65	0xbcd8bbc2	-0.026456717
66	0x3d7ee3c8	0.062228948
67	0x3bfec183	0.0077745332
68	0x3c773747	0.015088863
69	0xbca69d0c	-0.020338558
70	0x3bfd8bbb	0.0077376044
71	0xbbf75bab	-0.0075487695
72	0x3dc495f2	0.09598912
73	0xbd784aff	-0.060618397
74	0xbd844590	-0.064585805
75	0xbd70f6f8	-0.058829278
76	0xbd67869c	-0.056524858
77	0x3b6bbe10	0.003597144
78	0x3e52b88d	0.20578213
79	0x3e9016d1	0.28142408
80	0xbded2bfe	-0.115806565
81	0x3e3a7e08	0.1821214
82	0xbd8b1f6d	-0.06793103
83	0xbdb828f4	-0.08992186
84	0x3d2e3bd6	0.042537533
85	0x3d5bb951	0.05364353
86	0x3ea9743b	0.3309649
87	0xbd0c4b97	-0.034251776
88	0x3deeea95	0.11665837
89	0x3cbaedfa	0.022818554
90	0x3e819ae3	0.25313482
91	0x3d8d6ef5	0.06905929
92	0x3e988249	0.297869
93	0x3e56cac8	0.20975792
94	0x3b44335d	0.0029937841
95	0x3e3da266	0.18518981
96	0xbe021b87	-0.12705813
97	0x3e069207	0.13141643
98	0x3e0c3908	0.1369363
99	0x3e75d192	0.24005726
