Covid/.darts/checkpoints/Air_RNN/checkpoint_395.pth.tar (torch_old, 266181 bytes, 51 tensors)

weight_ih_l0 f4 [100, 1]
0.34107563 0.38365844 0.12238039 -0.020265318 0.14979608 -0.20095561 0.20990951 0.09172743
0.18229596 0.24827902 0.081091404 0.3230545 0.19801669 0.20267934 0.05545395 0.123301156
0.26227573 0.23572056 0.17112637 0.032807976 -0.32894126 0.17791681 0.08965779 0.3762185
-0.071731016 -0.21843337 -0.079590544 -0.3416337 -0.096479796 0.21150295 -0.24639326 -0.52855045
-0.012550752 -0.005050366 0.2977752 -0.039885756 0.09234884 -0.4175091 0.08969599 0.08446803
-0.10033599 0.009464803 0.16623497 0.21701734 0.14469112 -0.6041187 0.30251926 0.024614502
0.22690362 -0.5164102 0.4987817 0.4048023 -0.45332527 0.10457084 0.4026441 -0.30279475
-0.4751756 0.36271745 -0.39545545 0.2216134 0.32353753 0.16719317 -0.4546893 -0.20780419
0.07041871 -0.32678464 -0.16714431 -0.21378241 0.24279281 -0.4587004 -0.37809312 0.29462713
0.08176164 0.18006133 -0.31742153 0.4716841 0.33261308 -0.20098326 -0.15181561 0.31465897
-0.10568498 0.18128352 0.30550656 0.31324515 0.13053109 0.35384083 0.17222138 0.39915863
0.3490726 -0.050129488 0.26140758 0.0221362 0.105353564 0.11761654 0.33096448 -0.2540917
0.18506023 0.10529936 0.26927602 -0.19072406
00000000: 77a1 ae3e e16e c43e 92a2 fa3d 7403 a6bc
00000010: 2564 193e 4fc7 4dbe 85f2 563e 97db bb3d
00000020: cbab 3a3e db3c 7e3e 4013 a63d 6667 a53e
00000030: e3c4 4a3e 2c8b 4f3e ae23 633d 5185 fc3d
00000040: 0149 863e bb60 713e c03b 2f3e a861 063d
00000050: fd6a a8be d32f 363e 819e b73d b69f c03e
00000060: b6e7 92bd ffac 5fbe 5e00 a3bd 9dea aebe
00000070: 3397 c5bd 3b94 583e 844e 7cbe 154f 07bf
00000080: aba1 4dbc 8a7d a5bb fe75 983e 3f5f 23bd
00000090: 6321 bd3d c1c3 d5be 88b2 b73d 93fd ac3d
000000a0: f57c cdbd 4312 1b3c 8039 2a3e cb39 5e3e
000000b0: e929 143e 86a7 1abf cee3 9a3e 5aa4 c93c
000000c0: 6c59 683e 7533 04bf 5160 ff3e 3f42 cf3e
000000d0: 401a e8be 3d29 d63d 5e27 ce3e ea07 9bbe
000000e0: 374a f3be 1ab6 b93e 2379 cabe a0ee 623e
000000f0: b6a6 a53e b034 2b3e 09cd e8be 9fca 54be
00000100: af37 903d 5150 a7be e127 2bbe c7e9 5abe
00000110: ae9e 783e c7da eabe 6c95 c1be 5ed9 963e
00000120: a672 a73d ff61 383e 1385 a2be 9480 f13e
00000130: 434c aa3e 8ece 4dbe 8d75 1bbe fb1a a13e
00000140: 5e71 d8bd 63a2 393e 5b6b 9c3e ab61 a03e
00000150: f1a9 053e a02a b53e cd5a 303e 855e cc3e
00000160: a5b9 b23e 9454 4dbd 37d7 853e fa56 b53c
00000170: 9cc3 d73d f1e0 f03d 2d74 a93e 4f18 82be
00000180: 6e80 3d3e 31a7 d73d 8cde 893e 2b4d 43be

weight_hh_l0 f4 [100, 25]
-0.322405 -0.13114595 0.03338276 0.47372454 -0.21739262 0.86540085 0.24840094 -0.057836067
-0.09156278 0.31792644 -0.21335247 0.49110276 0.15677842 -0.27780765 0.47288322 -0.12163176
-0.79869103 -0.059041873 0.12161042 0.3036765 0.25935954 0.017847957 0.6592749 0.5629891
0.3978747 0.1455955 -0.07921994 0.13881546 0.16956824 0.19741821 0.4429789 -0.19056953
0.32735744 -0.37432536 0.3852622 0.31137174 0.20145251 0.0037801682 -0.041470718 0.47552404
0.10276123 -0.28744212 -0.22264381 0.07334532 -0.15502375 0.38109785 0.09658199 0.23516688
0.3580028 0.30558825 -0.19700539 -0.2827648 0.1248558 0.071722224 -0.3302586 0.29651788
0.34009928 -0.3778898 0.040320188 -0.029998792 -0.013290749 0.12893708 0.4275636 -0.03353571
0.26862887 0.14477734 -0.5328126 -0.2571617 0.11304316 0.024618153 0.16626813 0.08404799
0.10658631 0.44381014 0.18093286 -0.20599297 -0.07998241 0.14350958 -0.26806554 -0.089748695
-0.009801553 -0.04618465 0.16914327 -0.1009025 -0.13091195 0.094649166 -0.16610283 -0.07756464
0.04064194 0.079080045 0.13323751 0.014014964 -0.09279324 0.10304336 -0.039690867 -0.19082715
0.29557675 8.034004e-05 -0.19222485 0.06619533 -0.09555984 0.059126902 0.09383745 0.12768354
0.092734724 0.52726054 0.09624195 0.13493095 0.028167712 0.18023285 -0.106529556 0.37741327
0.21558185 -0.02363406 0.23076937 0.02613391 -0.28724483 -0.34690896 0.13518204 0.074093536
0.33754957 0.016389677 0.2620087 0.28230476 0.47629178 -0.03665126 -0.04400695 0.027109401
-0.032295696 -0.17736717 -0.09836365 0.1771876 -0.015391853 -0.21379237 -0.11356245 0.060406093
0.01586535 -0.037783988 -0.22612144 0.21263263 -0.08270002 -0.26347518 -0.076365 0.15591311
-0.10033905 0.11314095 -0.10373906 0.0878556 0.17749579 0.14750125 -0.37480462 0.033032104
0.33287203 0.33496022 -0.36915892 0.6572482 0.38951406 -0.2721468 -0.030432407 0.09474248
-0.23496032 0.31462297 0.32396534 -0.14070614 0.43442243 0.18247028 -0.7177026 -0.40004396
0.11233797 -0.04037768 0.15516478 0.004565793 0.44493863 0.5782258 0.35195896 -0.2876561
0.23529662 0.1793791 0.13101263 -0.040070437 0.65881383 0.18808907 -0.044363458 -0.1139882
0.37796164 0.019544823 0.52845764 0.44220498 -0.2799659 0.46675223 -0.014870211 -0.5060947
-0.3580485 0.24718672 -0.06401351 0.39213103 0.01317407 0.37158966 0.45816147 0.3162973
-0.30222377 0.08472958 0.2629853 0.37042364 0.17753483 0.44244143 -0.09948934 0.03827662
-0.044991866 0.24859568 -0.18246248 0.22788398 0.03048429 -0.11841804 0.37460947 -0.0050143823
-0.41441798 -0.13782173 0.15630984 -0.06840975 0.4228086 -0.086628035 0.4528227 0.65914446
0.3971807 -0.05118059 0.37969184 0.06316471 0.16341482 -0.039439216 0.006454661 -0.21568649
0.16675933 -0.11638494 -0.009205527 0.06841719 0.27427784 -0.08505166 -0.04383597 0.20474018
-0.04912282 -0.38982317 -0.31420547 0.24137275 0.06585862 0.14391948 0.17053115 0.06307805
0.13124317 0.25118944 0.015884373 0.055200096 0.21566346 0.1483029 0.21402837 0.4736875
00000000: 4512 a5be 204b 06be 5cbc 083d 068c f23e
00000010: 2c9c 5ebe e98a 5d3f d15c 7e3e 83e5 6cbd
00000020: 4485 bbbd 41c7 a23e 1279 5abe d271 fb3e
00000030: 868a 203e ce3c 8ebe c01d f23e 121a f9bd
00000040: 0477 4cbf e4d5 71bd e20e f93d 7c7b 9b3e
00000050: c6ca 843e e135 923c 3dc6 283f 0e20 103f
00000060: 3cb6 cb3e fd16 153e 103e a2bd a425 0e3e
00000070: 4ca3 2d3e 0028 4a3e 21ce e23e a924 43be
00000080: 659b a73e 93a7 bfbe 1641 c53e 1e6c 9f3e
00000090: 9149 4e3e b3bc 773b 33dd 29bd e377 f33e
000000a0: 7b74 d23d 9d2b 93be bdfc 63be 1236 963d
000000b0: 8cbe 1ebe 421f c33e c7cc c53d 96cf 703e
000000c0: 254c b73e 1076 9c3e c8bb 49be 8cc6 90be
000000d0: 66b4 ff3d 1ae3 923d a817 a9be 31d1 973e
000000e0: 7e21 ae3e c67a c1be c826 253d 07c0 f5bc
000000f0: 71c1 59bc 1508 043e 9ee9 da3e be5c 09bd
00000100: b989 893e 8340 143e 6866 08bf b3aa 83be
00000110: 2c83 e73d 02ac c93c 3142 2a3e 5a21 ac3d
00000120: ec49 da3d 153b e33e 7746 393e d2ef 52be
00000130: d1cd a3bd 2df4 123e e33f 89be 2ace b7bd
00000140: b196 20bc 1e2c 3dbd e533 2d3e f8a5 cebd
00000150: c80d 06be 6cd7 c13d dc16 2abe 36da 9ebd
00000160: 2a78 263d b8f4 a13d 6a6f 083e 059f 653c
00000170: 620a bebd 6608 d33d e492 22bd 3168 43be
00000180: d655 973e 3b7c a838 97d6 44be 6b91 873d
00000190: e1b4 c3bd 0d2f 723d d92d c03d 79bf 023e
000001a0: b4eb bd3d 8cfa 063f 801a c53d 572b 0a3e
000001b0: f9bf e63c f68e 383e 2b2c dabd 503c c13e
000001c0: 7dc1 5c3e 379c c1bc ce4e 6c3e c816 d63c
000001d0: c111 93be 0d9e b1be 296d 0a3e 5abe 973d
000001e0: 4cd3 ac3e a543 863c 0126 863e 408a 903e
000001f0: 84dc f33e a21f 16bd a240 34bd 8914 de3c
00000200: 7e48 04bd bd9f 35be e272 c9bd ab70 353e
00000210: 1c2e 7cbc 63ec 5abe 6e93 e8bd 616c 773d
00000220: 0df8 813c 62c3 1abd 618c 67be 5ebc 593e
00000230: a15e a9bd 38e6 86be 4165 9cbd b0a7 1f3e
00000240: 8f7e cdbd 71b6 e73d 2575 d4bd a3ed b33d
00000250: 75c1 353e 910a 173e 64e6 bfbe ac4c 073d
00000260: 346e aa3e e87f ab3e 6602 bdbe 6b41 283f
00000270: 636e c73e d356 8bbe 624d f9bc 5808 c23d
00000280: 7099 70be 4316 a13e c9de a53e 4515 10be
00000290: 9e6c de3e 7dd9 3a3e 5cbb 37bf 90d2 ccbe
000002a0: 7311 e63d 1163 25bd 84e3 1e3e a69c 953b
000002b0: ffce e33e 9b06 143f f733 b43e a947 93be
000002c0: 99f1 703e 28af 373e 2d28 063e e620 24bd
000002d0: 06a8 283f 6c9a 403e 75b6 35bd a572 e9bd
000002e0: 3084 c13e 771c a03c 0049 073f b168 e23e
000002f0: b157 8fbe 26fa ee3e 2fa2 73bc 6c8f 01bf
00000300: 2252 b7be 841e 7d3e 8419 83bd 66c5 c83e
00000310: 0ed8 573c 0041 be3e 2494 ea3e b8f1 a13e
00000320: 13bd 9abe b486 ad3d 02a6 863e 2ba8 bd3e
00000330: b1cb 353e af87 e23e 11c1 cbbd f2c7 1c3d
00000340: 6449 38bd de8f 7e3e 72d7 3abe 6b5a 693e
00000350: 31ba f93c 2885 f2bd d0cc bf3e b04f a4bb
00000360: 982e d4be 2421 0dbe b00f 203e 691a 8cbd
00000370: 5e7a d83e 0a6a b1bd 60d8 e73e b1bd 283f
00000380: 455b cb3e bda2 51bd f866 c23e 805c 813d
00000390: 3756 273e 048b 21bd 9f81 d33b ebdc 5cbe
000003a0: f5c2 2a3e 3a5b eebd c7d2 16bc 501e 8c3d
000003b0: 256e 8c3e 912f aebd 598d 33bd 69a7 513e
000003c0: 0335 49bd e796 c7be 8adf a0be 6b2a 773e
000003d0: e2e0 863d a15f 133e b89f 2e3e 112f 813d
000003e0: 9c64 063e e79b 803e f21f 823c 7f19 623d
000003f0: e2d6 5c3e b7dc 173e 412a 5b3e 2b87 f23e

bias_ih_l0 f4 [100]
0.8491009 0.3901171 0.083611876 0.05946251 0.23926273 0.056565344 0.28102276 0.42602363
0.5234119 0.07784547 0.47235432 0.0056903334 0.58821076 -0.07987776 -0.20487508 0.31180775
0.42306286 0.1947664 0.13458514 0.31056693 -0.061651368 0.33381003 -0.11371099 0.19238406
0.07611833 -0.38428795 -0.2076141 -0.19867632 -0.0050167814 -0.050191477 0.07363288 -0.18312632
-0.008404929 -0.32417792 -0.010992362 0.12710157 -0.22522922 -0.21023071 -0.057570606 -0.13870971
-0.26445127 0.22326106 0.010106581 -0.0050747967 -0.053156346 0.09180558 -0.14957686 -0.13433117
0.14744124 0.0102455 -0.11559257 -0.108524024 0.12929085 0.0008382114 -0.03837913 0.098333836
0.058640774 -0.1854417 0.095688164 -0.07902189 -0.05630179 -0.11019073 0.14008105 0.13061185
-0.18983075 -0.036805145 0.07765535 -0.021785308 -0.018757926 -0.05359663 0.12974143 -0.10914081
0.09239163 0.10686128 0.1402825 0.77902603 0.15346396 0.17706256 -0.10671217 0.28344777
0.18515596 0.43413723 0.31776413 0.52930087 0.027530072 0.39404258 -0.12541504 0.401058
0.19566737 0.20127071 0.42007628 0.20170796 -0.029875003 -0.08640823 0.34828994 -0.035448752
0.25408712 -0.20327987 -0.10731377 0.10472171
00000000: ad5e 593f 6ebd c73e b43c ab3d f68e 733d
00000010: 4a01 753e 10b1 673d 37e2 8f3e c51f da3e
00000020: 53fe 053f 726d 9f3d 6dd8 f13e fa75 ba3b
00000030: fb94 163f f396 a3bd c6ca 51be 44a5 9f3e
00000040: b29b d83e d870 473e b0d0 093e a102 9f3e
00000050: 2586 7cbd 26e9 aa3e 4fe1 e8bd 5400 453e
00000060: ede3 9b3d 64c1 c4be ca98 54be ce71 4bbe
00000070: d063 a4bb 9495 4dbd d6cc 963d 7785 3bbe
00000080: d4b4 09bc a6fa a5be 4f19 34bc ea26 023e
00000090: 7da2 66be b846 57be 28cf 6bbd eb09 0ebe
000000a0: 2866 87be 8c9e 643e 1396 253c 7b4a a6bb
000000b0: 78ba 59bd 9004 bc3d ad2a 19be 1c8e 09be
000000c0: d6fa 163e bedc 273c ccbb ecbd d841 debd
000000d0: d264 043e 6abb 5b3a 6f33 1dbd 4063 c93d
000000e0: 4f31 703d 6ee4 3dbe 28f8 c33d 3bd6 a1bd
000000f0: b59c 66bd adab e1bd 6871 0f3e 1dbf 053e
00000100: fe62 42be fec0 16bd c509 9f3d 1a77 b2bc
00000110: 39aa 99bc 2488 5bbd f0da 043e 3885 dfbd
00000120: d337 bd3d 16da da3d 37a6 0f3e 406e 473f
00000130: a825 1d3e e34f 353e e98b dabd 1120 913e
00000140: 8699 3d3e 3c47 de3e fbb1 a23e 4380 073f
00000150: bf86 e13c f3bf c93e cd6c 00be 7957 cd3e
00000160: 075d 483e e919 4e3e 3d14 d73e 888c 4e3e
00000170: 6cbc f4bc ccf6 b0bd 0f53 b23e b632 11bd
00000180: b517 823e 9928 50be 52c7 dbbd 5678 d63d

bias_hh_l0 f4 [100]
0.7510241 0.26645336 0.3793653 -0.25738364 0.4360287 0.15157267 0.33484307 0.14064516
0.5954862 -0.07282472 0.45260698 -0.1447508 0.34086353 0.12191543 -0.027957471 0.4058313
0.1520655 -0.042909842 0.107762575 0.17060152 0.08387126 0.09318798 -0.06563686 0.25457793
0.23044382 -0.29852992 -0.21037233 -0.1304074 -0.18762937 -0.12037713 -0.035380732 -0.29597867
-0.020544123 -0.3162364 -0.18509948 -0.21882036 0.07309625 0.021708373 0.041727863 -0.15785086
-0.10230242 0.20142844 0.022599377 -0.10513327 0.09207644 0.07667593 -0.12401762 0.007526932
-0.08726654 0.012014389 -0.042419102 -0.03966474 0.023322277 0.13173774 -0.08060518 0.12885207
0.07286001 0.08393342 -0.005696904 0.048967402 -0.03136732 0.06905669 0.017825507 -0.08809109
0.13028388 0.13025759 -0.050744724 0.10065517 -0.028103154 0.15001786 0.04309847 0.027909
0.114552766 0.0105798645 -0.048382185 0.65099955 0.320207 0.2904936 0.10657076 0.32689142
0.08371481 0.51297027 0.17327727 0.5100364 0.22625995 0.18114533 -0.092673905 0.33301517
0.20812741 -0.15401243 0.333389 0.24649732 0.04691938 0.19321516 0.27421635 -0.042657573
0.19351906 -0.115353115 -0.09851136 0.19134971
00000000: 1e43 403f 936c 883e 2b3c c23e cac7 83be
00000010: 273f df3e de35 1b3e 8d70 ab3e 4905 103e
00000020: c971 183f 2025 95bd 1abc e73e 8e39 14be
00000030: aa85 ae3e ccae f93d 1107 e5bc 1fc9 cf3e
00000040: 0fb7 1b3e 3bc2 2fbd a0b2 dc3d 2ab2 2e3e
00000050: b2c4 ab3d 57d9 be3d 9e6c 86bd 0a58 823e
00000060: 77f9 6b3e ead8 98be d86b 57be 8489 05be
00000070: ea21 40be 4988 f6bd 63eb 10bd 848a 97be
00000080: 264c a8bc bde9 a1be b88a 3dbe 7212 60be
00000090: 7db3 953d c2d5 b13c d6ea 2a3d a8a3 21be
000000a0: ee83 d1bd 4243 4e3e 5422 b93c 1d50 d7bd
000000b0: 9392 bc3d 4508 9d3d f3fc fdbd 7ba4 f63b
000000c0: cdb8 b2bd 00d8 443c a7bf 2dbd 7f77 22bd
000000d0: 5c0e bf3c 42e6 063e 5414 a5bd ccf1 033e
000000e0: a137 953d 49e5 ab3d 18ad babb 0b92 483d
000000f0: 057b 00bd 986d 8d3d cc06 923c 1a69 b4bd
00000100: 2369 053e 3f62 053e b3d9 4fbd 4c24 ce3d
00000110: 9638 e6bc 489e 193e 0588 303d 6aa1 e43c
00000120: a49a ea3d 2b57 2d3c 662c 46bd e8a7 263f
00000130: 2cf2 a33e 94bb 943e c541 da3d 505e a73e
00000140: ac72 ab3d 0552 033f 996f 313e bf91 023f
00000150: b0b0 673e 297e 393e d1cb bdbd f780 aa3e
00000160: 5a1f 553e 6fb5 1dbe f7b1 aa3e cb69 7c3e
00000170: 892e 403d 32da 453e 1666 8c3e b5b9 2ebd
00000180: dc29 463e 413e ecbd 53c0 c9bd 2ef1 433e

weight_ih_l1 f4 [100, 25]
-0.11235135 0.3516128 0.05196456 0.24125177 -0.013358673 0.21150137 -0.28751904 0.06120911
-0.10874676 0.24506196 -0.0050415364 -0.08201778 -0.25506714 0.100416884 0.284966 -0.2580756
-0.056603443 -0.1976434 -0.029211592 -0.026483534 -0.16599257 -0.09981989 0.28686672 0.28404063
0.038326435 0.07707518 0.095525965 0.11452093 0.07900508 0.11979115 -0.07234832 -0.17506367
0.07677535 0.025881192 0.06935595 0.09692645 0.23562264 -0.23068507 0.05705674 0.16279437
-0.11007527 0.0025945164 -0.35689002 -0.019703845 -0.07685754 -0.115168065 0.025160743 0.095536456
0.114318326 0.25592303 0.023943309 -0.0073925997 -0.0022450322 -0.19923356 0.13401197 -0.18604007
0.02810078 0.3131056 -0.0813237 0.10824797 -0.011957502 0.09313542 -0.12134045 0.033962086
-0.018228622 -0.06597631 0.103538804 0.015931116 -0.10364607 -0.2666965 -0.2999664 -0.1582528
0.0033558144 0.03396066 0.04116811 -0.040166862 0.2753986 -0.035415024 0.11959391 0.089733236
-0.04155088 -0.31837168 0.12160513 -0.25770503 0.13564199 0.19079785 0.16588002 -0.016855815
-0.1664089 0.2723151 -0.052169435 -0.027732998 -0.021606097 0.18229134 0.048022013 0.03268779
0.10502622 0.0023263672 -0.029778788 0.017930474 -0.29860312 -0.016941315 0.2241515 0.10199312
-0.56686604 0.28592163 0.073911585 -0.31929976 0.4095856 -0.14562799 -0.37626183 -0.17832297
0.36937594 0.41921204 -0.007080991 0.19487979 -0.043720882 0.13079852 -0.09876839 0.33008644
0.009495091 -0.32896027 -0.03163406 0.02627851 0.48384893 0.0103332745 0.42262205 -0.23590745
0.1916638 0.09234275 0.22554354 -0.26278803 0.024898391 -0.25910032 0.15737773 0.09464672
0.33126393 -0.18980436 0.017721038 0.24100575 -0.14390586 -0.12996125 -0.33337772 0.14647496
-0.010198211 0.02839839 0.041736774 0.07943314 0.17805463 0.11682898 0.017410604 0.11219322
0.13998365 0.088296056 0.123804875 0.09979343 0.053092085 0.2424999 0.007868771 0.09635286
0.25180182 0.09880548 -0.06940933 -0.10820854 0.04076214 -0.011236666 -0.14765383 -0.029224781
0.018151598 -0.35734043 -0.23252752 0.18368857 -0.08230428 -0.08055696 0.1023939 -0.08669005
0.37931347 0.11503579 0.29780027 -0.062771805 0.0067880624 -0.0689405 0.1778941 -0.18252595
0.18589506 0.0008009078 0.18200983 -0.07941656 -0.18001437 0.23822714 -0.06388083 -0.023960987
-0.0015352718 0.13868333 -0.096694835 -0.13164997 0.26536793 0.06949116 -0.10165237 0.119601764
-0.15643524 -0.1563317 0.054936327 -0.058268532 0.19790892 0.18080482 0.06858916 0.26112968
-0.19806382 0.22224335 0.03160683 0.23058856 0.17939079 0.23396567 0.13725194 -0.26500806
0.12488418 0.051881313 -0.066274226 -0.06924822 0.042113516 -0.12442293 0.28605437 0.033117775
0.1411336 0.1837187 0.17503786 -0.13823879 0.21087958 0.09664932 0.22738431 -0.33994335
0.39956555 -0.3487342 0.319591 0.33344862 -0.022486279 -0.19910833 -0.023141017 0.19838762
-0.17542385 -0.037778698 -0.15058036 0.31415892 -0.1514663 -0.117538296 0.21605535 0.13887097
0.2004657 0.09310977 0.28645742 0.08274185 -0.112617776 0.22859977 0.29629833 0.056678373
00000000: 7718 e6bd 9806 b43e cad8 543d b40a 773e
00000010: 56de 5abc d193 583e b235 93be 67b6 7a3d
00000020: 9fb6 debd 86f1 7a3e 7933 a5bb f0f8 a7bd
00000030: 2998 82be 5ea7 cd3d 10e7 913e 7c22 84be
00000040: 03d9 67bd 0863 4abe 264d efbc fff3 d8bc
00000050: f5f9 29be 5f6e ccbd 32e0 923e c66d 913e
00000060: 2efc 1c3d 98d9 9d3d 1ea3 c33d f389 ea3d
00000070: 6acd a13d 1055 f53d 5b2b 94bd e443 33be
00000080: 653c 9d3d cb04 d43c 7e0a 8e3d 6081 c63d
00000090: 1047 713e b538 6cbe 54b4 693d 91b3 263e
000000a0: 256f e1bd c308 2a3b 4aba b6be f569 a1bc
000000b0: 7c67 9dbd 3cdd ebbd e71d ce3c 9ea8 c33d
000000c0: ba1f ea3d 5808 833e c224 c43c 9f3d f2bb
000000d0: 6421 13bb e203 4cbe 6f3a 093e 4a81 3ebe
000000e0: 9b33 e63c 614f a03e 0a8d a6bd 1db1 dd3d
000000f0: 66e9 43bc c8bd be3d 5881 f8bd d41b 0b3d
00000100: 3154 95bc 961e 87bd 270c d43d f981 823c
00000110: 6444 d4bd 728c 88be 3295 99be 060d 22be
00000120: 39ed 5b3b 551a 0b3d e49f 283d 0286 24bd
00000130: 0c01 8d3e 580f 11bd a7ed f43d 0fc6 b73d
00000140: 4131 2abd 9d01 a3be 1c0c f93d eaf1 83be
00000150: bce5 0a3e 8360 433e 74dc 293e 3515 8abc
00000160: 1867 2abe e36c 8b3e 9eaf 55bd 5030 e3bc
00000170: 45ff b0bc 95aa 3a3e bbb2 443d a2e3 053d
00000180: fd17 d73d f775 183b a5f2 f3bc eee2 923c
00000190: 82e2 98be 83c8 8abc f987 653e c5e1 d03d
000001a0: 221e 11bf 5264 923e f55e 973d 427b a3be
000001b0: 34b5 d13e 811f 15be 64a5 c0be 4c9a 36be
000001c0: d81e bd3e f6a2 d63e a807 e8bb 918e 473e
000001d0: ab14 33bd 0cf0 053e 1547 cabd 1701 a93e
000001e0: 4c91 1b3c 7b6d a8be b792 01bd 0846 d73c
000001f0: 0cbb f73e e54c 293c eb61 d83e b991 71be
00000200: 8443 443e 321e bd3d e3f4 663e 278c 86be
00000210: b6f7 cb3c cca8 84be a127 213e 24d6 c13d
00000220: 6d9b a93e 135c 42be b62b 913c 36ca 763e
00000230: 0f5c 13be 9014 05be 7cb0 aabe 88fd 153e
00000240: 6616 27bc bea3 e83c 2ef4 2a3d d8ad a23d
00000250: f453 363e 0844 ef3d afa0 8e3c 8fc5 e53d
00000260: e057 0f3e 90d4 b43d 698d fd3d 7f60 cc3d
00000270: 1677 593d e551 783e 05ec 003c a654 c53d
00000280: 2bec 803e 875a ca3d 7b26 8ebd 709c ddbd
00000290: 34f6 263d fe19 38bc 9132 17be cf68 efbc
000002a0: a9b2 943c 53f5 b6be b21b 6ebe db18 3c3e
000002b0: 258f a8bd 0cfb a4bd e5b3 d13d 8e8a b1bd
000002c0: 6035 c23e e297 eb3d 4779 983e 818e 80bd
000002d0: 656e de3b ad30 8dbd df29 363e 15e8 3abe
000002e0: 465b 3e3e 03f4 513a c960 3a3e 26a5 a2bd
000002f0: b055 38be d1f1 733e f4d3 82bd d549 c4bc
00000300: 2c3b c9ba 0103 0e3e f107 c6bd 40cf 06be
00000310: 4ede 873e 6251 8e3d 1e2f d0bd c5f1 f43d
00000320: 8f30 20be 6b15 20be ea04 613d fcaa 6ebd
00000330: a3a8 4a3e e624 393e 7978 8c3d cab2 853e
00000340: 3ed1 4abe c393 633e 2a76 013d 681f 6c3e
00000350: 38b2 373e b294 6f3e c68b 0c3e 23af 87be
00000360: 47c3 ff3d 8081 543d c8ba 87bd 03d2 8dbd
00000370: 397f 2c3d 73d1 febd b875 923e 81a6 073d
00000380: 5485 103e c120 3c3e 203d 333e 788e 0dbe
00000390: d1f0 573e 14f0 c53d 6fd7 683e 0e0d aebe
000003a0: db93 cc3e 4a8d b2be 6ea1 a33e c7b9 aa3e
000003b0: 2535 b8bc 0ee3 4bbe 3b92 bdbc 2026 4b3e
000003c0: 4fa2 33be d6bd 1abd bd31 1abe 70d9 a03e
000003d0: fb19 1bbe ebb7 f0bd 9d3d 5d3e 3134 0e3e
000003e0: e146 4d3e 56b0 be3d 8caa 923e 8f74 a93d
000003f0: 26a4 e6bd 0f16 6a3e 6ab4 973e 9527 683d

weight_hh_l1 f4 [100, 25]
-0.14578326 0.06425073 -0.13138847 0.12971437 -0.22360826 -0.10800187 0.22137651 -0.039589755
-0.037173975 -0.135319 -0.23315136 0.28729743 0.07391116 -0.07017814 0.24318556 0.0027154658
0.17326297 -0.012564667 0.117767386 0.12581801 0.051378608 -0.086947255 0.0076379846 -0.13242362
0.14541411 -0.29147455 -0.009830561 -0.20844582 0.31278232 -0.19315715 -0.07114892 0.35748073
0.30310535 0.24937703 0.32879284 -0.18636161 0.15985572 -0.064191446 0.009839799 0.09439545
0.017967768 0.09939959 -0.0061310166 0.39219 0.1301854 0.024625074 -0.18235606 0.32119116
-0.222585 0.02697036 0.109481856 -0.17710811 0.11389425 -0.107919015 -0.3758477 -0.10926141
0.07110758 -0.1268729 0.17282546 -0.079665154 0.049531553 0.22613537 0.009988915 0.026537301
-0.037915792 0.12872112 -0.09115342 0.17660782 0.0034743957 -0.15810555 -0.08783413 -0.024315385
-0.18006843 -0.09820144 0.012061302 -0.21520601 0.24732457 -0.12260119 0.03470152 -0.078236505
-0.08839719 0.1351425 0.061301768 0.062388934 -0.05243346 0.0524043 0.11208001 -0.11143304
0.071485 0.19283277 -0.24038754 -0.13689095 0.22405748 -0.034635685 0.25908536 0.2379429
0.08810442 0.026755294 -0.22144909 0.19427434 0.1862874 -0.33689997 -0.12238412 -0.31359074
-0.09219038 0.31858483 0.030202948 -0.40943962 -0.048506178 -0.22266193 -0.08675668 0.058661878
-0.33606294 -0.122847006 0.029869871 0.16066636 0.09767778 0.121644564 0.01689051 -0.056265842
-0.43278354 0.23592795 0.033644628 0.034842055 -0.4603584 -0.10325437 0.08051823 -0.10788869
0.29504913 -0.54137146 -0.2858771 0.1273538 0.20165247 0.09735233 -0.026944356 -0.32222414
0.41262135 -0.07507393 -0.17987013 0.14228278 -0.26095793 -0.055237636 0.11969687 0.22279279
0.3155117 -0.07447996 -0.26572347 0.021404509 -0.06816378 -0.018498668 0.08186966 -0.061627135
0.18118627 -0.0936942 -0.10894871 0.13312997 0.071271576 0.18625927 0.13318421 -0.07260868
0.03975572 0.18591881 -0.17540592 0.09521764 -0.03741163 -0.07953006 -0.08163454 0.006280773
-0.076340616 0.23855628 0.07058412 0.09582283 0.083769366 -0.13724099 0.17128319 -0.28082004
0.2042207 -0.054183967 0.21098985 -0.29455173 0.0071035493 -0.006668104 0.0998066 0.16291192
0.081063226 -0.046270166 0.028793076 -0.031545065 -0.06578001 0.10405138 -0.09980634 0.12982906
0.3132608 0.023436587 0.2494083 0.26241547 0.06809416 0.06279076 -0.03359837 -0.054227404
0.17297962 -0.0909205 0.20121555 -0.10645436 -0.35039878 -0.130171 0.16949826 0.009674646
-0.08214229 -0.08441605 -0.0192294 0.19812143 -0.16751648 0.096326135 0.2044255 0.14340873
0.048756633 0.031882312 0.16364706 0.14374007 0.023809943 -0.1408671 -0.114177406 -0.06890087
-0.0216719 -0.09615412 -0.04844051 -0.13130422 -0.053069267 -0.34692866 0.06763232 0.062220342
0.040707722 0.0712256 -0.14434285 -0.20983784 0.26998493 0.04313474 0.06454793 0.33926734
0.017528243 -0.14495502 0.0149197085 0.2787885 -0.08938926 -0.0074092085 0.071297914 0.26601964
-0.09852441 -0.09337331 -0.07143133 -0.04663969 -0.18950813 0.1960762 -0.33451813 0.09109838
00000000: 3548 15be e395 833d b38a 06be d8d3 043e
00000010: 90f9 64be 1630 ddbd 86b0 623e de28 22bd
00000020: bd43 18bd 1091 0abe 3bbf 6ebe a618 933e
00000030: bc5e 973d 8fb9 8fbd a305 793e f5f5 313b
00000040: d96b 313e 08dc 4dbc 0730 f13d 70d6 003e
00000050: 6072 523d 6711 b2bd 0f48 fa3b 0f9a 07be
00000060: 70e7 143e 273c 95be 5c10 21bc d272 55be
00000070: 0125 a03e fdca 45be 86b6 91bd b707 b73e
00000080: a030 9b3e b15c 7f3e 8957 a83e 94d5 3ebe
00000090: 38b1 233e ce76 83bd 1c37 213c 6752 c13d
000000a0: 2431 933c 0392 cb3d b2e6 c8bb 21cd c83e
000000b0: 524f 053e 86ba c93c 8cbb 3abe 2b73 a43e
000000c0: 52ed 63be f2f0 dc3c 0638 e03d d45b 35be
000000d0: 6341 e93d a504 ddbd 1c6f c0be 72c4 dfbd
000000e0: daa0 913d f8ea 01be 28f9 303e 7c27 a3bd
000000f0: 99e1 4a3d 0890 673e 8ca8 233c c164 d93c
00000100: 974d 1bbd 78cf 033e a5ae babd aed8 343e
00000110: b0b2 633b 6ce6 21be 61e2 b3bd 0f31 c7bc
00000120: dc63 38be d61d c9bd c49c 453c f75e 5cbe
00000130: a742 7d3e 5516 fbbd 2e23 0e3d 763a a0bd
00000140: 9609 b5bd cc62 0a3e 9017 7b3d 8a8b 7f3d
00000150: 78c4 56bd e4a5 563d 348a e53d 0137 e4bd
00000160: ba66 923d f475 453e 2728 76be 242d 0cbe
00000170: 536f 653e 26de 0dbd d6a6 843e 4ea7 733e
00000180: 1770 b43d eb2d db3c 8dc3 62be daef 463e
00000190: 20c2 3e3e 277e acbe 87a4 fabd f78e a0be
000001a0: 4fce bcbd 8d1d a33e 2c6c f73c 12a2 d1be
000001b0: 6aae 46bd 7d01 64be 7cad b1bd 7047 703d
000001c0: 7110 acbe 3697 fbbd a9b1 f43c b985 243e
000001d0: 4a0b c83d c920 f93d f85d 8a3c 0377 66bd
000001e0: ce95 ddbe 1997 713e f3ce 093d 8bb6 0e3d
000001f0: 19b4 ebbe 0777 d3bd bee6 a43d bff4 dcbd
00000200: ae10 973e 5297 0abf 7c5e 92be 0969 023e
00000210: fc7d 4e3e a960 c73d 69ba dcbc 90fa a4be
00000220: 1b43 d33e 5cc0 99bd e02f 38be 94b2 113e
00000230: 479c 85be dc40 62bd a223 f53d cb23 643e
00000240: c08a a13e f388 98bd e80c 88be 8258 af3c
00000250: 7499 8bbd 858a 97bc 48ab a73d bc6c 7cbd
00000260: e588 393e bfe2 bfbd 8020 dfbd 3953 083e
00000270: d5f6 913d c0ba 3e3e 7161 083e dcb3 94bd
00000280: e5d6 223d 8061 3e3e 9c9d 33be 7701 c33d
00000290: f03c 19bd a8e0 a2bd 0230 a7bd f1ce cd3b
000002a0: 7858 9cbd 1948 743e 688e 903d c33e c43d
000002b0: 468f ab3d e788 0cbe dc64 2f3e a5c7 8fbe
000002c0: 3b1f 513e 02f0 5dbd b90d 583e 7ccf 96be
000002d0: e4c4 e83b 1c80 dabb 6767 cc3d 62d2 263e
000002e0: 7a04 a63d c985 3dbd 75df eb3c 6635 01bd
000002f0: abb7 86bd e418 d53d 4467 ccbd e9f1 043e
00000300: b863 a03e 16fe bf3c e464 7f3e 525b 863e
00000310: f374 8b3d 7198 803d 729e 09bd 8e1d 5ebd
00000320: 9221 313e 8734 babd 730b 4e3e be04 dabd
00000330: 7867 b3be 8c4b 05be f490 2d3e 6882 1e3c
00000340: 383a a8bd 52e2 acbd fa86 9dbc 58e0 4a3e
00000350: 7189 2bbe a346 c53d eb54 513e bdd9 123e
00000360: 09b5 473d 0797 023d 1893 273e 9930 133e
00000370: 120d c33c 773f 10be d8d5 e9bd e61b 8dbd
00000380: 4589 b1bc 74ec c4bd 8e69 46bd 9d74 06be
00000390: 295f 59bd a2a0 b1be d082 8a3d c2da 7e3d
000003a0: 24bd 263d bade 913d 9dce 13be bbdf 56be
000003b0: 773b 8a3e 0eae 303d b531 843d 73b4 ad3e
000003c0: 6497 8f3c 176f 14be cb71 743c 5ebd 8e3e
000003d0: b711 b7bd f2c8 f2bb a404 923d ba33 883e
000003e0: 2ac7 c9bd 823a bfbd 974a 92bd 4209 3fbd
000003f0: 6b0e 42be 33c8 483e f645 abbe ca91 ba3d

bias_ih_l1 f4 [100]
0.042003363 0.3486861 0.1827059 0.24591403 0.2018856 0.18373886 0.273416 0.019130662
0.21774568 -0.06269852 -0.09567516 0.1686594 -0.0498449 0.11730465 -0.11582698 0.17660919
0.34166798 0.16895081 0.09591965 0.1928041 0.34130758 0.22278298 -0.13044745 0.04705747
0.17880577 -0.26486495 -0.28261024 -0.08062854 -0.29333562 -0.094753586 -0.013672723 -0.31355965
-0.083169654 -0.05738138 -0.26799527 -0.01589917 0.027968694 -0.23680148 -0.079175115 -0.029039435
0.04540239 -0.2988069 -0.15852337 0.03595532 -0.17848024 -0.07839997 0.05649818 -0.10659329
-0.2881739 -0.30706596 0.0318452 0.044299837 0.006331788 -0.14746074 -0.023038143 0.03714909
0.014869726 -0.058727317 -0.12687002 0.042510144 0.09753117 -0.17051423 -0.005556261 -0.03850047
0.08435402 -0.012642551 -0.005779764 0.1048813 0.0040599457 -0.021479808 0.01664629 0.0941409
0.11713002 0.114360616 -0.055423107 0.22139667 0.06625035 -0.003305926 0.25888938 -0.031610854
0.24011722 0.10045506 -0.020965233 0.11229134 0.020438239 0.10699616 0.09245143 0.24459058
0.06288303 0.08605432 0.048927747 0.27647728 0.38518363 -0.09142356 0.054761756 0.1850166
0.16490948 0.17863876 0.20111048 0.2090226
00000000: b80b 2c3d fc86 b23e 4117 3b3e e3d0 7b3e
00000010: 19bb 4e3e 0a26 3c3e 2ffd 8b3e e8b7 9c3c
00000020: b9f8 5e3e 1568 80bd 57f1 c3bd 0db5 2c3e
00000030: 2a2a 4cbd 6c3d f03d b236 edbd 0ad9 343e
00000040: 1bef ae3e 7101 2d3e 8571 c43d 706e 453e
00000050: debf ae3e 3921 643e 0494 05be 55bf 403d
00000060: dc18 373e 619c 87be 4ab2 90be 9320 a5bd
00000070: 1630 96be 2b0e c2bd 8f03 60bc e48a a0be
00000080: da54 aabd bd08 6bbd ad36 89be fa3e 82bc
00000090: 9a1e e53c 167c 72be 9026 a2bd 1ce4 edbc
000000a0: dbf7 393d 38fd 98be f353 22be e345 133d
000000b0: 86c3 36be 2a90 a0bd a36a 673d 954d dabd
000000c0: 888b 93be c037 9dbe 1d70 023d bf73 353d
000000d0: e37a cf3b f3ff 16be 7dba bcbc a529 183d
000000e0: 27a0 733c 0e8c 70bd 37ea 01be 1e1f 2e3d
000000f0: 6cbe c73d 489b 2ebe 4c11 b6bb abb2 1dbd
00000100: cdc1 ac3d b422 4fbc 2d64 bdbb 02cc d63d
00000110: 4b09 853b 6cf6 afbc cd5d 883c f2cc c03d
00000120: dde1 ef3d e635 ea3d 5703 63bd cfb5 623e
00000130: 43ae 873d 3ca8 58bb 268d 843e 627a 01bd
00000140: 4ae1 753e 62bb cd3d 48bf abbc 01f9 e53d
00000150: 186e a73c cd20 db3d 2d57 bd3d f475 7a3e
00000160: d1c8 803d 3f3d b03d 7668 483d 6e8e 8d3e
00000170: ca36 c53e 473c bbbd dd4d 603d fe74 3d3e
00000180: 08de 283e 14ed 363e e8ef 4d3e 050a 563e

bias_hh_l1 f4 [100]
0.26231918 -0.01451491 -0.19197857 0.0012082346 -0.117740646 0.2501237 0.11767982 0.015794216
0.03734605 0.3196384 -0.014430062 -0.11783289 0.29062173 0.16056018 0.08664822 -0.18047367
0.08677786 0.2894483 0.009773906 0.23514302 0.39260164 0.3347178 0.10469875 0.29797158
0.29429948 -0.2989053 -0.030745013 -0.30959105 -0.22677684 -0.1602691 -0.2728008 -0.06396994
-0.14182624 -0.244304 -0.35627788 -0.04481391 -0.12631294 -0.26938313 -0.01630353 -0.21799916
-0.11602854 -0.1888317 -0.23249023 -0.08238946 -0.200814 -0.14687726 0.11764492 -0.08660352
-0.2619363 0.0031778112 -0.041876186 -0.064916715 -0.038923983 0.12909302 -0.0057570096 -0.057640884
0.016257059 0.059565052 0.1297623 0.017314188 -0.084507816 0.13082623 0.046080574 -0.0069498564
-0.093922004 -0.025650369 0.0073361075 -0.09352369 0.0034547248 0.040911388 -0.0026607031 -0.09284454
-0.08963191 -0.12225784 0.029047422 0.2845129 0.3304394 0.09298317 -0.007908573 0.037000597
0.0699606 0.2382809 0.27762845 0.43737274 0.08020076 0.023724217 0.21796131 0.29990143
0.010032479 -0.061131418 -0.169323 0.20424308 0.18345818 -0.10983651 0.32597265 0.24441727
0.0030060948 0.033042792 0.00781457 0.2946138
00000000: b34e 863e f2cf 6dbc 0896 44be a05d 9e3a
00000010: 0222 f1bd 3710 803e 1e02 f13d df62 813c
00000020: 2cf8 183d a5a7 a33e 116c 6cbc 5f52 f1bd
00000030: 5fcc 943e e369 243e 9f74 b13d 17ce 38be
00000040: 97b8 b13d 9132 943e bc22 203c 55c9 703e
00000050: 1503 c93e 2260 ab3e 4c6c d63d bb8f 983e
00000060: 6cae 963e 1e0a 99be f7dc fbbc b882 9ebe
00000070: 3038 68be 951d 24be 8cac 8bbe ac02 83bd
00000080: e63a 11be d42a 7abe 0e6a b6be ca8e 37bd
00000090: 2e58 01be 96ec 89be fb8e 85bc 2c3b 5fbe
000000a0: 5fa0 edbd 195d 41be eb11 6ebe cebb a8bd
000000b0: 2fa2 4dbe fe66 16be d2ef f03d 305d b1bd
000000c0: 841c 86be d342 503b 5d86 2bbd 0ef3 84bd
000000d0: c16e 1fbd f630 043e 4ca5 bcbb d918 6cbd
000000e0: 862d 853c 7cfa 733d 69e0 043e 7cd6 8d3c
000000f0: 6f12 adbd 50f7 053e fcbe 3c3d 9fbb e3bb
00000100: 2e5a c0bd b920 d2bc bb63 f03b 5989 bfbd
00000110: aa68 623b b392 273d 315f 2ebb 4725 bebd
00000120: ef90 b7bd 5262 fabd dcf4 ed3c adab 913e
00000130: 5a2f a93e f66d be3d f692 01bc f08d 173d
00000140: 8147 8f3d e9ff 733e 5125 8e3e 52ef df3e
00000150: 4c40 a43d 4a59 c23c 4031 5f3e ae8c 993e
00000160: 445f 243c f064 7abd 0263 2dbe 1925 513e
00000170: 76dc 3b3e f7f1 e0bd e3e5 a63e 8548 7a3e
00000180: e701 453b e157 073d af08 003c 9fd7 963e

weight_ih_l2 f4 [100, 25]
-0.06832665 0.19319403 -0.1006046 0.023312183 -0.0715025 -0.2676673 -0.17557147 0.15915456
0.08353155 -0.030626578 -0.055079393 0.023569299 -0.10990712 0.06783342 -0.13733076 -0.019375183
-0.18764274 -0.11217993 0.0145507725 0.0056893346 0.19492555 -0.18015806 0.06381922 0.12861492
0.17427722 -0.15773265 0.20378909 -0.2322073 0.17076468 -0.16472207 -0.1836937 0.043868132
0.24230234 -0.025974514 0.107327834 -0.117389046 0.1137618 0.14594002 -0.16221479 -0.020685501
-0.046726372 -0.2079875 -0.15385169 -0.03711291 0.18313839 0.17850728 -0.33649355 -0.16654235
-0.20401089 0.14583158 -0.0056799706 0.14487386 -0.20150635 0.2400761 0.017638875 -0.088067435
0.14029014 0.20323834 0.21470325 0.1816317 0.11493154 -0.088114284 0.19356099 -0.20494966
0.012992153 0.050623644 -0.30684483 -0.16899529 -0.07455854 0.16475546 0.26415122 -0.14593485
0.16039152 -0.26650095 0.07695009 -0.19200002 0.21661228 -0.07103216 0.049678728 -0.140239
-0.22463028 -0.016037887 0.22827141 0.18630432 0.07342802 -0.09335585 0.16888906 0.29827926
-0.0066521927 -0.040347308 0.030843742 0.076139145 -0.024439482 0.07703353 -0.034427047 0.22698261
-0.13389309 0.10205512 -0.11956496 0.26513815 -0.16393529 -0.009972856 -0.04766534 0.163496
-0.15028124 -0.23944484 0.26244736 0.25918669 0.32535106 0.33269742 -0.008059098 0.16243373
0.1408775 -0.17513928 0.06789761 -0.21692385 -0.05397424 -0.31249127 0.037046578 0.12451251
0.1480202 -0.3628198 0.027451122 -0.19350047 0.0065341447 -0.14047249 -0.011173002 -0.0437171
0.16116275 -0.022772184 -0.120005354 0.032842968 0.07119165 0.11453947 0.07912343 -0.034494847
0.10532186 0.10891737 0.008257006 -0.059053276 -0.21540765 -0.032844797 0.036419995 0.028642688
-0.013635038 0.17395312 -0.27196148 0.23539431 -0.20906132 0.30741346 -0.2461959 -0.0069956766
0.111460924 0.18262638 -0.10687993 0.033886258 0.15139262 0.24906173 0.13422765 0.018726332
0.094733715 0.23533145 0.06914808 -0.19977969 -0.002548683 -0.22541638 -0.08152569 -0.15850113
-0.06483413 0.22063604 0.2241752 -0.33235794 0.2713699 -0.31359997 -0.055542536 -0.110536054
0.21872504 -0.21219641 -0.015522277 -0.16730683 -0.045294426 0.1400929 0.00080534985 0.13450187
0.08980573 0.056203004 0.1965158 0.058605067 -0.29345816 -0.006890097 -0.0010024266 -0.20861761
0.07857624 0.15493976 0.17386365 0.24135776 -0.077488184 0.12953462 -0.019313635 0.2596795
0.08534561 0.30128533 0.13281827 -0.1526718 0.4801499 0.106940486 0.1872292 0.016531158
0.0017319828 0.1847819 0.09091282 0.113062404 -0.05726879 0.051113036 0.04532168 0.14164898
0.117578804 -0.063311204 0.15565382 0.13861036 -0.060325213 -0.20012489 -0.036657285 0.06477668
0.22753526 -0.09957046 0.12536909 0.09515442 0.04996978 -0.11676597 0.03449513 0.12952775
0.23554268 0.053060718 -0.026011514 0.102973 0.09244191 -0.108585276 0.006035954 0.21319461
-0.11215825 -0.10216729 -0.22456199 0.26541495 0.16818707 0.3629766 -0.22103892 -0.019134667
0.003038579 -0.027036905 -0.08486391 -0.02123093 0.06010955 0.085229546 -0.066248484 -0.17968602
00000000: d8ee 8bbd a8d4 453e c909 cebd 31f9 be3c
00000010: e76f 92bd b00b 89be 02c9 33be 6af9 223e
00000020: 9712 ab3d 97e4 fabc ee9a 61bd 6714 c13c
00000030: fc16 e1bd 40ec 8a3d 6fa0 0cbe b4b8 9ebc
00000040: 6b25 40be 97be e5bd 5d66 6e3c 996d ba3b
00000050: 909a 473e 5b7b 38be a7b3 823d a1b3 033e
00000060: ba75 323e ab84 21be 16ae 503e c0c7 6dbe
00000070: f0dc 2e3e e7ac 28be 341a 3cbe 12af 333d
00000080: 1b1e 783e 81c8 d4bc b2ce db3d ab69 f0bd
00000090: f2fb e83d 4d71 153e a21b 26be a474 a9bc
000000a0: 2764 3fbd adfa 54be 4c8b 1dbe b503 18bd
000000b0: a188 3b3e 9dca 363e e248 acbe 148a 2abe
000000c0: 3be8 50be e054 153e 0c1f babb d059 143e
000000d0: ae57 4ebe 82d6 753e 677f 903c b35c b4bd
000000e0: 38a8 0f3e b61d 503e 2bdb 5b3e a9fd 393e
000000f0: 3a61 eb3d 4375 b4bd da34 463e 53de 51be
00000100: 0add 543c bd5a 4f3d c41a 9dbe 1a0d 2dbe
00000110: 26b2 98bd a8b5 283e d43e 873e f26f 15be
00000120: ad3d 243e d072 88be 0298 9d3d a79b 44be
00000130: 9ccf 5d3e 4f79 91bd ec7b 4b3d d09a 0fbe
00000140: 7b05 66be e361 83bc fbbf 693e 8fc6 3e3e
00000150: 6e61 963d 5a31 bfbd 41f1 2c3e 0fb8 983e
00000160: a3fa d9bb 3843 25bd 04ac fc3c d7ee 9b3d
00000170: 4f35 c8bc c1c3 9d3d 6003 0dbd 216e 683e
00000180: 451b 09be 4602 d13d 79de f4bd 30c0 873e
00000190: a7de 27be 3165 23bc bb3c 43bd 7f6b 273e
000001a0: 53e3 19be 0731 75be 805f 863e 1eb4 843e
000001b0: 6a94 a63e 5157 aa3e 4f0a 04bc 0755 263e
000001c0: 3142 103e b657 33be e70d 8b3d 4921 5ebe
000001d0: 1814 5dbd dbfe 9fbe 27be 173d 6a00 ff3d
000001e0: 9b92 173e 84c3 b9be 2de1 e03c fd24 46be
000001f0: 611c d63b 05d8 0fbe f80e 37bc b410 33bd
00000200: d907 253e bb8c babc 5ec5 f5bd 5986 063d
00000210: eecc 913d ab93 ea3d 770b a23d 784a 0dbd
00000220: fdb2 d73d 1210 df3d 6548 073c d9e1 71bd
00000230: d393 5cbe 4488 06bd 222d 153d 12a4 ea3c
00000240: 7f65 5fbc c420 323e 893e 8bbe 350b 713e
00000250: 2c14 56be 4c65 9d3e c71a 7cbe fd3b e5bb
00000260: a045 e43d 6902 3b3e dde3 dabd 51cc 0a3d
00000270: ab06 1b3e 0a0a 7f3e f972 093e f767 993c
00000280: c003 c23d bafa 703e 829d 8d3d 0c93 4cbe
00000290: ce07 27bb 8dd3 66be f1f6 a6bd 1f4e 22be
000002a0: c2c7 84bd 6aee 613e 2f8e 653e d22a aabe
000002b0: fff0 8a3e 2d90 a0be 9280 63bd ba60 e2bd
000002c0: 75f9 5f3e 044a 59be 2651 7ebc 7b52 2bbe
000002d0: a686 39bd 8374 0f3e 1d1e 533a dcba 093e
000002e0: 11ec b73d 1f35 663d 703b 493e de0b 703d
000002f0: 2640 96be 53c6 e1bb db63 83ba db9f 55be
00000300: 94ec a03d 87a8 1e3e 5009 323e 7d26 773e
00000310: 20b2 9ebd b9a4 043e a137 9ebc b6f4 843e
00000320: aec9 ae3d 1242 9a3e 8301 083e ff55 1cbe
00000330: 35d6 f53e 9d03 db3d 03b9 3f3e 5a6c 873c
00000340: b303 e33a 7737 3d3e 8030 ba3d 438d e73d
00000350: ae92 6abd e75b 513d 3aa3 393d 6e0c 113e
00000360: 28cd f03d 4ea9 81bd b763 1f3e e0ef 0d3e
00000370: 9217 77bd 8aed 4cbe f325 16bd a3a9 843d
00000380: 01ff 683e 99eb cbbd c160 003e 52e0 c23d
00000390: 1dad 4c3d ff22 efbd c44a 0d3d eca2 043e
000003a0: 1a32 713e 3256 593d 1916 d5bc 82e3 d23d
000003b0: 2f52 bd3d f561 debd 41c9 c53b b04f 5a3e
000003c0: 39b3 e5bd 163d d1bd 94f3 65be 78e4 873e
000003d0: 3b39 2c3e 12d8 b93e 0758 62be 4ec0 9cbc
000003e0: e522 473b 807c ddbc 21cd adbd 7dec adbc
000003f0: 6e35 763d d48c ae3d 49ad 87bd 9dff 37be

weight_hh_l2 f4 [100, 25]
-0.06481923 0.019800395 -0.046366256 0.12333908 0.095352165 -0.041663233 0.16343328 0.15588848
0.14697765 -0.10837357 0.20680316 0.13020432 -0.10605271 0.12973572 -0.02294375 0.027462779
0.073911205 -0.0057011163 0.004684465 0.1646866 -0.03479359 0.059948683 -0.089931965 -0.14444916
0.1712868 -0.09180733 0.07540089 0.058358632 0.1399665 0.021000389 -0.12381469 -0.10326078
-0.0492047 -0.09308349 0.1853496 0.15998664 0.0480373 0.09113565 -0.03881805 -0.001187821
0.20055592 -0.13287374 -0.15437867 -0.08800817 0.10273116 -0.049833357 0.13182648 0.11989371
-0.14261396 -0.21214491 0.1024734 -0.12154725 0.2021875 0.17872311 -0.07691265 0.1668165
0.084133156 -0.0793133 0.15031318 0.16991414 -0.02589374 -0.004240029 0.1948415 -0.0930746
-0.0085578915 0.12812303 0.16489945 -0.11897263 0.16292489 0.15145722 0.07693683 -0.10654724
0.102071226 -0.1893607 -0.08744275 -0.041541476 0.052042026 -0.013919921 -0.07168389 -0.17021187
0.038588077 -0.05220088 -0.19549294 0.23643853 -0.122446656 -0.025949828 0.03607522 -0.091547
0.14277767 0.06985842 0.1886402 -0.14511587 0.03746571 0.24315143 0.10240771 -0.07831372
0.09228065 -0.14194039 0.056953803 0.061889865 0.038956247 -0.0483591 -0.10633967 -0.065434575
0.059893016 -0.059076473 0.077174455 0.12679219 0.05359654 -0.044284645 -0.05035912 -0.19347833
0.0018909533 0.14892729 -0.0144695705 0.28232646 0.053163968 -0.18400799 0.08482853 0.029939093
0.10076571 -0.260411 0.20109588 0.2081406 -0.1045229 -0.1485697 0.1720915 -0.1137496
0.13365419 0.017260402 0.09014778 0.11486804 0.17173795 0.16088174 -0.16230427 -0.21602301
-0.07891116 0.18098591 0.12412921 0.08908503 0.0027580974 5.617221e-05 0.13653421 0.008293514
0.16028965 -0.13188842 -0.13364328 -0.1088646 0.06979789 -0.0057905936 -0.026888356 0.15315449
-0.16670409 -0.046611786 0.04627025 -0.038054265 -0.16700087 0.09545406 -0.012007253 0.053328287
-0.22330597 -0.08312981 0.092823975 -0.0761997 0.099902086 -0.0029632577 0.020454725 -0.096436135
-0.085951716 -0.14618711 0.01404175 0.11103943 -0.09869187 -0.18637164 -0.1570666 0.12136917
-0.09985121 0.15736115 -0.08287 -0.09944018 -0.014909153 -0.112565376 -0.19361492 0.14823353
0.11758562 -0.13020681 0.034351632 0.08122374 0.05819524 -0.036372554 0.028036155 -0.0850685
0.09373456 0.049722627 0.19751589 -0.128885 0.029368196 -0.12626672 -0.05070614 0.06965117
-0.031793855 -0.009122905 0.14690946 0.119619064 0.11608414 -0.008182744 0.15019833 -0.0825302
-0.00041251548 -0.08904268 0.20779507 -0.17057756 -0.15504688 0.09509044 -0.15609133 -0.0015767904
-0.048880395 -0.23666061 0.07445506 0.05916853 -0.13613755 -0.15862721 0.16029423 -0.09210384
-0.0341069 -0.05383781 -0.15763412 0.18675736 -0.03930166 -0.02786623 -0.012760601 0.07849432
-0.097045235 0.26877198 -0.021321371 0.08444416 0.043803457 -0.12810412 0.054714948 0.21359263
-0.07578603 0.12065058 0.033430446 -0.059123848 -0.10823542 0.2286175 -0.22333151 0.10805182
-0.11141365 0.06712951 -0.05763431 -0.16777492 0.13546158 -0.15728875 0.18091887 0.25137544
00000000: f2bf 84bd 7034 a23c 8bea 3dbd 3399 fc3d
00000010: ff47 c33d 11a7 2abd 0e5b 273e 3ba1 1f3e
00000020: 4f81 163e f6f2 ddbd 35c4 533e 4854 053e
00000030: 2a32 d9bd 71d9 043e 88f4 bbbc 9ff9 e03c
00000040: c25e 973d 6ed0 babb 2480 993b 9ba3 283e
00000050: b983 0ebd c08c 753d 402e b8bd 7bea 13be
00000060: cf65 2f3e 7b05 bcbd c86b 9a3d 7609 6f3d
00000070: 6153 0f3e 0209 ac3c 8e92 fdbd 637a d3bd
00000080: de8a 49bd 8fa2 bebd 49cc 3d3e 8ad3 233e
00000090: c3c2 443d 54a5 ba3d adff 1ebd a9b0 9bba
000000a0: 885e 4d3e 0e10 08be 7115 1ebe a13d b4bd
000000b0: b764 d23d 101e 4cbd 85fd 063e d58a f53d
000000c0: 6509 12be 843c 59be 93dd d13d c4ed f8bd
000000d0: 3d0a 4f3e 3103 373e 6184 9dbd f2d1 2a3e
000000e0: 014e ac3d 036f a2bd b3eb 193e f9fd 2d3e
000000f0: 1c1f d4bc f1ef 8abb 8884 473e e59d bebd
00000100: 6636 0cbc af32 033e 67db 283e eca7 f3bd
00000110: c8d5 263e 9a17 1b3e 0f91 9d3d 7035 dabd
00000120: b80a d13d c5e7 41be 2f15 b3bd 6527 2abd
00000130: 052a 553d 6110 64bc 01cf 92bd 054c 2ebe
00000140: 880e 1e3d 97d0 55bd 4d2f 48be f11c 723e
00000150: 50c5 fabd bc94 d4bc 9cc3 133d fe7c bbbd
00000160: 4f34 123e ee11 8f3d e62a 413e 4199 14be
00000170: a575 193d b0fc 783e 22bb d13d f262 a0bd
00000180: a3fd bc3d d258 11be 6448 693d 3a80 7d3d
00000190: 9690 1f3d 3114 46bd 9dc8 d9bd 9002 86bd
000001a0: 6152 753d 2cfa 71bd a40d 9e3d d0d5 013e
000001b0: 0c88 5b3d d163 35bd 5d45 4ebd 2f1f 46be
000001c0: ddd9 f73a 6580 183e c711 6dbc 188d 903e
000001d0: 76c2 593d 976c 3cbe 95ba ad3d d442 f53c
000001e0: 415e ce3d 9754 85be 14ec 4d3e cf22 553e
000001f0: 1a10 d6bd a822 18be c138 303e 8df5 e8bd
00000200: a5dc 083e b065 8d3c 669f b83d ef3f eb3d
00000210: 13dc 2f3e 2fbe 243e 1733 26be 2335 5dbe
00000220: 2d9c a1bd 5f54 393e 7537 fe3d 3672 b63d
00000230: 32c1 343b 749a 6b38 a0cf 0b3e 85e1 073c
00000240: f822 243e c20d 07be c9d9 08be 67f4 debd
00000250: 32f2 8e3d 05bf bdbb f844 dcbc 88d4 1c3e
00000260: 7ab4 2abe 00ec 3ebd e085 3d3d cade 1bbd
00000270: 4702 2bbe 6b7d c33d 12ba 44bc c36e 5a3d
00000280: 52aa 64be f63f aabd 7f1a be3d 970e 9cbd
00000290: 7799 cc3d 3733 42bb ab90 a73c 4f80 c5bd
000002a0: 7407 b0bd 13b2 15be 5e0f 663c a468 e33d
000002b0: f71e cabd 35d8 3ebe 11d6 20be 6690 f83d
000002c0: cb7e ccbd 4823 213e bfb7 a9bd 4ba7 cbbd
000002d0: 8545 74bc ad88 e6bd fd42 46be 88ca 173e
000002e0: bbd0 f03d ef54 05be 4cb4 0c3d a258 a63d
000002f0: 225e 6e3d 63fb 14bd 14ac e53c 6538 aebd
00000300: e8f7 bf3d f4a9 4b3d 9b41 4a3e 6efa 03be
00000310: 9295 f03c 104c 01be 3eb1 4fbd 46a5 8e3d
00000320: 463a 02bd 3d78 15bc 6f6f 163e d7fa f43d
00000330: 86bd ed3d ea10 06bc 97cd 193e 9805 a9bd
00000340: e446 d8b9 025c b6bd 3bc8 543e e2ab 2ebe
00000350: 9cc4 1ebe c7be c23d 68d6 1fbe 4eac ceba
00000360: cf36 48bd 2957 72be e57b 983d b35a 723d
00000370: a467 0bbe 2c6f 22be 2c24 243e f0a0 bcbd
00000380: adb3 0bbd 0985 5cbd d76a 21be 523d 3f3e
00000390: c7fa 20bd b847 e4bc d711 51bc a1c1 a03d
000003a0: a7bf c6bd 7b9c 893e 28aa aebc 0ff1 ac3d
000003b0: 416b 333d ba2d 03be c81c 603d 07b8 5a3e
000003c0: b535 9bbd a717 f73d 5dee 083d d92b 72bd
000003d0: 88aa ddbd b51a 6a3e 04b1 64be 464a dd3d
000003e0: d72c e4bd 327b 893d f411 6cbd 30cd 2bbe
000003f0: 71b6 0a3e 4d10 21be cc42 393e 48b4 803e

bias_ih_l2 f4 [100]
-0.047830515 0.080246 0.15979145 -0.12776121 0.114171244 0.12441244 -0.04847428 -0.030267078
0.054225203 -0.061773553 -0.14175265 0.12543394 0.19834751 -0.018879035 0.19292375 0.10609782
0.090719216 0.17614323 -0.028521737 0.15239644 -0.07923423 -0.12841162 0.2208553 0.12884
0.054173205 -0.10737146 -0.36837512 -0.25741985 0.06929735 -0.06443811 0.07051067 -0.20460749
0.08546664 -0.38009727 -0.16212358 -0.086021796 -0.25658542 0.028535439 -0.31027833 -0.3183069
-0.353313 -0.09791079 0.016400147 0.0316692 0.04353934 -0.20515677 0.010793534 -0.14600646
-0.11397172 -0.079744145 -0.008522579 -0.1209578 0.096387684 -0.16841477 -0.045217544 0.1574107
0.011323633 -0.018162813 0.0036305087 -0.051736034 0.03309433 0.013235488 -0.12829365 0.060824167
0.16398844 -0.03340386 0.06599181 0.0038336236 0.015477009 -0.018663334 0.008965592 -0.005618998
0.09784922 -0.062451616 -0.062271625 -0.058743034 -0.06054791 0.008947832 0.20487149 0.28249407
-0.11768522 0.1803149 -0.06590744 -0.091407 0.036911175 0.042058453 0.33810946 -0.03262476
0.11172747 0.024327697 0.25656146 0.06986569 0.29581627 0.20715323 0.0008536783 0.18987586
-0.13033316 0.13106564 0.13675517 0.24095553
00000000: eee9 43bd 0458 a43d 5fa0 233e d6d3 02be
00000010: 9dd2 e93d f3cb fe3d f78c 46bd aaf2 f7bc
00000020: 3f1b 5e3d 4406 7dbd 9b27 11be c171 003e
00000030: 9c1b 4b3e 35a8 9abc ce8d 453e d049 d93d
00000040: ffca b93d e45e 343e 6ba6 e9bc d00d 1c3e
00000050: 8e45 a2bd 567e 03be e427 623e a2ee 033e
00000060: b9e4 5d3d 91e5 dbbd aa9b bcbe 89cc 83be
00000070: c5eb 8d3d 21f8 83bd e667 903d a084 51be
00000080: 2209 af3d 1c9c c2be b903 26be 322c b0bd
00000090: 2a5f 83be 27c3 e93c cddc 9ebe 1ff9 a2be
000000a0: 71e5 b4be 7485 c8bd 9a59 863c 90b7 013d
000000b0: 4f56 323d 9e14 52be 5dd7 303c b882 15be
000000c0: 016a e9bd e650 a3bd 4aa2 0bbc b9b8 f7bd
000000d0: e866 c53d ec74 2cbe 0836 39bd 4530 213e
000000e0: c286 393c 2eca 94bc d4ed 6d3b 2ae9 53bd
000000f0: ec8d 073d a9d9 583c 695f 03be c322 793d
00000100: 96ec 273e 7cd2 08bd b726 873d 883d 7b3b
00000110: 4893 7d3c d9e3 98bc 6be4 123c 921f b8bb
00000120: 2c65 c83d 44cd 7fbd 8810 7fbd 899c 70bd
00000130: 1601 78bd ed99 123c d5c9 513e 10a3 903e
00000140: f304 f1bd 78a4 383e 7bfa 86bd 9833 bbbd
00000150: 2c30 173d 7c45 2c3d af1c ad3e 8aa1 05bd
00000160: 5fd1 e43d e14a c73c 065c 833e be15 8f3d
00000170: 3b75 973e fa1f 543e 62c9 5f3a d16e 423e
00000180: 0e76 05be 1236 063e 8c09 0c3e 0cbd 763e

bias_hh_l2 f4 [100]
-0.06123465 0.18624958 -0.042336382 0.20742114 -0.0424784 -0.016967904 0.109567754 -0.024815442
-0.02347039 0.10757599 0.10574814 0.2829122 0.024150467 0.15454155 -0.082916595 0.07679298
-0.06888142 0.07041362 -0.0960866 -0.033406295 -0.006463843 0.061412733 0.14708585 0.124108754
-0.052402478 0.08276786 -0.0083691105 -0.29747027 -0.025944818 -0.3883916 -0.14287093 0.0036330316
0.007420932 -0.021174068 -0.29959622 -0.14927985 -0.1671849 -0.25434548 -0.12703605 -0.19755132
-0.02158353 -0.025956627 -0.27229735 -0.2569668 -0.00916657 -0.18964708 -0.15501896 -0.21802665
-0.11578209 -0.0929222 0.015450055 0.12536032 -0.04529576 0.17820312 0.02981806 -0.14289355
0.0044917716 0.0057440894 0.017226439 0.034556482 -0.049330942 0.0034911965 0.1422616 -0.028176522
-0.16240722 0.015380787 -0.04408525 0.009661514 -0.012009607 0.038366936 -0.020299604 -0.006396363
-0.09769536 0.03990335 0.05894637 0.008687461 -0.03334606 0.20917065 0.21935254 0.13651355
0.009258261 0.017817354 0.018576143 0.16348737 0.19152926 -0.10871537 0.30116084 0.13896792
0.11254594 0.30108672 0.24389908 0.23068261 0.24929947 0.17788687 -0.05591899 -0.13379698
-0.20563379 -0.030765956 -0.09998867 -0.032591578
00000000: 2fd1 7abd 36b8 3e3e ea68 2dbd 3566 543e
00000010: d5fd 2dbd 4600 8bbc 0f65 e03d c149 cbbc
00000020: fa44 c0bc cd50 dc3d 7b92 d83d ded9 903e
00000030: 33d7 c53c 2440 1e3e 2dd0 a9bd a345 9d3d
00000040: b411 8dbd 0435 903d 0dc9 c4bd 0ad5 08bd
00000050: a5ce d3bb eb8b 7b3d ac9d 163e bb2c fe3d
00000060: fba3 56bd 3282 a93d 981e 09bc 064e 98be
00000070: 3a8a d4bc 44db c6be c24c 12be 2818 6e3b
00000080: 4a2b f33b 3d75 adbc ad64 99be d1dc 18be
00000090: 8532 2bbe 9239 82be bd15 02be e54a 4abe
000000a0: f1cf b0bc fea2 d4bc 8f6a 8bbe 2791 83be
000000b0: 622f 16bc d832 42be 4abd 1ebe 6142 5fbe
000000c0: 291f edbd ff4d bebd 3a22 7d3c 755e 003e
000000d0: 0c88 39bd e17a 363e 0145 f43c b052 12be
000000e0: b62f 933b ea38 bc3b 761e 8d3c 198b 0d3d
000000f0: 3e0f 4abd 8fcc 643b 06ad 113e 73d2 e6bc
00000100: 144e 26be b2ff 7b3c bc92 34bd 544b 1e3c
00000110: f1c3 44bc a626 1d3d 5b4b a6bc 9598 d1bb
00000120: 8114 c8bd b271 233d c071 713d da55 0e3c
00000130: e195 08bd d530 563e f49d 603e 35ca 0b3e
00000140: f6af 173c b3f5 913c ff2c 983c 3c69 273e
00000150: 3f20 443e 2aa6 debd c131 9a3e 9b4d 0e3e
00000160: 7c7e e63d 0a28 9a3e aec0 793e 1038 6c3e
00000170: 5c48 7f3e fa27 363e 500b 65bd 1302 09be
00000180: aa91 52be e308 fcbc dcc6 ccbd bf7e 05bd
