Covid/.darts/checkpoints/Air_RNN/checkpoint_398.pth.tar (torch_old, 266181 bytes, 51 tensors)

weight_ih_l0 f4 [100, 1]
0	0x3eb2011a	0.34766465
1	0x3ec54e6c	0.38536394
2	0x3df7684d	0.12080441
3	0xbcc15ff8	-0.023605332
4	0x3e17a9b4	0.1481083
5	0xbe4e2a21	-0.20133258
6	0x3e574c0d	0.21025105
7	0x3dc51566	0.09623222
8	0x3e40dc7c	0.18834108
9	0x3e808eb2	0.25108868
10	0x3da3c1b7	0.079959325
11	0x3ea3005d	0.31836215
12	0x3e48ecf5	0.19621642
13	0x3e4f5105	0.2024575
14	0x3d73f008	0.059555084
15	0x3dfb4431	0.12268866
16	0x3e8607cf	0.26177832
17	0x3e75926a	0.23981634
18	0x3e2d5f19	0.16930808
19	0x3d0514c4	0.032490507
20	0xbea8c5ed	-0.32963505
21	0x3e33baec	0.17551774
22	0x3db68f0d	0.089140035
23	0x3ec04c1a	0.3755806
24	0xbd98c6cc	-0.074597925
25	0xbe5f6029	-0.21814026
26	0xbda66774	-0.08125201
27	0xbeb2b4fa	-0.349037
28	0xbdc89f9c	-0.09796068
29	0x3e557b0e	0.20847723
30	0xbe7e8c37	-0.24858175
31	0xbf093263	-0.5359251
32	0xbc4470ea	-0.011989811
33	0xbbc36023	-0.005962388
34	0x3e99f851	0.30072263
35	0xbd1ebc59	-0.03875384
36	0x3db3c4f2	0.08777799
37	0xbed87a0d	-0.42280617
38	0x3daf4c5c	0.08559486
39	0x3db8b92d	0.090196945
40	0xbddcd836	-0.107834265
41	0x3c1537eb	0.00910757
42	0x3e2d7e9e	0.16942832
43	0x3e5d08c5	0.21585377
44	0x3e14f68e	0.14547178
45	0xbf1af2cd	-0.60526735
46	0x3e9adc9b	0.30246434
47	0x3cc7769e	0.024348553
48	0x3e679170	0.22614074
49	0xbf06226f	-0.5239629
50	0x3eff61b8	0.4987924
51	0x3ece4eea	0.40294582
52	0xbeeaedb4	-0.45884478
53	0x3dd19e54	0.10235277
54	0x3ece52ff	0.40297696
55	0xbe9b6514	-0.30350554
56	0xbef17416	-0.4715888
57	0x3eb8fd00	0.36130524
58	0xbec99c2d	-0.39376965
59	0x3e61f4b3	0.22066002
60	0x3ea62b47	0.32454893
61	0x3e26f8ff	0.16305922
62	0xbee9cff9	-0.45666483
63	0xbe5267a0	-0.20547342
64	0x3d9951da	0.07486315
65	0xbea519e7	-0.32246324
66	0xbe2b431c	-0.16724819
67	0xbe5ca16d	-0.21545954
68	0x3e792e78	0.24334133
69	0xbeeb51ca	-0.45960838
70	0xbec1ed29	-0.3787625
71	0x3e991c0e	0.29904217
72	0x3da59351	0.08084739
73	0x3e38f440	0.18061924
74	0xbea3d14b	-0.31995615
75	0x3ef5206c	0.47876298
76	0x3eaaf63e	0.33390993
77	0xbe4f0a43	-0.20218758
78	0xbe1f3498	-0.15547407
79	0x3ea02bdb	0.3128346
80	0xbdda0a97	-0.10646551
81	0x3e3a3b11	0.18186595
82	0x3e9eb15f	0.30994698
83	0x3ea38f38	0.31945205
84	0x3e0948db	0.13406698
85	0x3eb469f9	0.352371
86	0x3e2bef67	0.16790543
87	0x3ecb918a	0.39759475
88	0x3eb2cb98	0.34920955
89	0xbd3bb9cf	-0.045831498
90	0x3e856b7e	0.26058573
91	0x3cb9b700	0.022670269
92	0x3de15446	0.11002402
93	0x3ded2663	0.11579587
94	0x3ea926a2	0.33037287
95	0xbe828b8d	-0.25497094
96	0x3e3b683c	0.18301481
97	0x3dd58001	0.104248054
98	0x3e8a31f5	0.2699124
99	0xbe463c43	-0.19358926

weight_hh_l0 f4 [100, 25]
0	0xbea4cd07	-0.32187673
1	0xbe03f10f	-0.12884925
2	0x3cff954a	0.031199116
3	0x3ef31ff3	0.47485313
4	0xbe5e238a	-0.21693245
5	0x3f5e6c9a	0.8688446
6	0x3e7c99a8	0.2466799
7	0xbd6fbca2	-0.058529504
8	0xbdc1837b	-0.09448906
9	0x3ea7712f	0.3270354
10	0xbe58cc00	-0.2117157
11	0x3efe7eb1	0.49706033
12	0x3e232e70	0.15935683
13	0xbe90bd9d	-0.28269663
14	0x3ef50cf1	0.47861436
15	0xbdf86c12	-0.12129988
16	0xbf4ee952	-0.8082477
17	0xbd87af4e	-0.066252336
18	0x3e02ef94	0.12786704
19	0x3e99a993	0.30012187
20	0x3e836764	0.25664818
21	0x3cbe8e65	0.023261258
22	0x3f295f89	0.661614
23	0x3f1298a9	0.5726419
24	0x3ecb9103	0.39759073
25	0x3e187784	0.14889342
26	0xbd9c58af	-0.076341026
27	0x3e0d86e6	0.13820991
28	0x3e2da567	0.16957627
29	0x3e4c015c	0.19922394
30	0x3ee2a909	0.4426959
31	0xbe456861	-0.19278099
32	0x3ea8947c	0.32925785
33	0xbec09710	-0.37615252
34	0x3ec5bfb0	0.38622808
35	0x3ea0517b	0.31312165
36	0x3e4e7b85	0.20164306
37	0x3a0d3d18	0.0005387827
38	0xbd2bda70	-0.041956365
39	0x3ef363f4	0.47537196
40	0x3dcf4e5e	0.10122369
41	0xbe92bd13	-0.28659877
42	0xbe64edd7	-0.22356354
43	0x3d96a96e	0.07356535
44	0xbe2070db	-0.15668051
45	0x3ec366fc	0.38164508
46	0x3dc73b9c	0.097281665
47	0x3e70e898	0.23526227
48	0x3eb71611	0.35759023
49	0x3e9f30b5	0.31091848
50	0xbe4d4cce	-0.2004883
51	0xbe925271	-0.28578523
52	0x3e03465b	0.12819807
53	0x3d9478fc	0.072496384
54	0xbeaac277	-0.3335149
55	0x3e9a9daa	0.30198413
56	0x3eafc98f	0.34333465
57	0xbec36134	-0.38160098
58	0x3d3262c0	0.043551207
59	0xbd0614a5	-0.032734532
60	0xbc85e3d1	-0.016343983
61	0x3e021e7c	0.12706941
62	0x3edce400	0.431427
63	0xbcf9edef	-0.030508963
64	0x3e88d5e7	0.26725695
65	0x3e180904	0.14847189
66	0xbf07dec2	-0.53074276
67	0xbe82425d	-0.25441256
68	0x3de24e78	0.11050123
69	0x3cdf2ac1	0.027242066
70	0x3e2e2fae	0.17010376
71	0x3da6d62e	0.0814632
72	0x3ddf21af	0.108950965
73	0x3ee2b9cc	0.44282377
74	0x3e41db8b	0.18931405
75	0xbe544914	-0.20731002
76	0xbda53b7d	-0.08067987
77	0x3e122e2a	0.14275423
78	0xbe8a90de	-0.2706365
79	0xbdb83420	-0.08994317
80	0xbc65a8b1	-0.01401727
81	0xbd3679c2	-0.04454971
82	0x3e2cb56b	0.1686608
83	0xbdcc5bd4	-0.09978452
84	0xbe06ae8a	-0.13152519
85	0x3dc09ec1	0.0940528
86	0xbe29c9d5	-0.16580899
87	0xbd9fc98a	-0.078021124
88	0x3d26a738	0.040686816
89	0x3da36012	0.07977308
90	0x3e0866c4	0.13320452
91	0x3c52ee35	0.012874176
92	0xbdbfe459	-0.09369726
93	0x3dd2e404	0.10297397
94	0xbd1c86ff	-0.03821468
95	0xbe464624	-0.19362694
96	0x3e97151b	0.2950829
97	0xbb817bd4	-0.003951529
98	0xbe4563cb	-0.19276349
99	0x3d813f67	0.06310921
100	0xbdc86c17	-0.097862415
101	0x3d6f0b6e	0.05836051
102	0x3dc352c0	0.09537268
103	0x3e01e075	0.1268328
104	0x3dbbb162	0.091646925
105	0x3f072a71	0.52799135
106	0x3dc90c4f	0.09816801
107	0x3e092312	0.13392285
108	0x3cef7295	0.029229442
109	0x3e38e164	0.1805473
110	0xbddb995d	-0.10722611
111	0x3ec147cb	0.37750086
112	0x3e5daff6	0.21649155
113	0xbcbbcb8e	-0.02292421
114	0x3e6ca255	0.231088
115	0x3ce64b50	0.028112084
116	0xbe91dc2f	-0.284883
117	0xbeb1a820	-0.34698582
118	0x3e0962b9	0.13416566
119	0x3d99de8b	0.0751315
120	0x3eadf077	0.33972523
121	0x3c7f5136	0.015583327
122	0x3e85cf66	0.26134795
123	0x3e8faf6e	0.2806353
124	0x3ef91edc	0.48656356
125	0xbd101ecf	-0.03518563
126	0xbd2e9ba5	-0.042628903
127	0x3cd247e3	0.025669044
128	0xbd070076	-0.032959424
129	0xbe346267	-0.17615663
130	0xbdcc65e4	-0.099803716
131	0x3e344c8f	0.1760733
132	0xbc6680da	-0.014068807
133	0xbe5c16ae	-0.21493027
134	0xbde82872	-0.11335839
135	0x3d7ba65e	0.061437957
136	0x3c856bef	0.016286818
137	0xbd211069	-0.03932229
138	0xbe684029	-0.22680725
139	0x3e5a4a7f	0.2131748
140	0xbdabbe33	-0.08385887
141	0xbe87647a	-0.26443845
142	0xbd9e62ef	-0.07733714
143	0x3e204c3b	0.1565408
144	0xbdcf42e1	-0.10120178
145	0x3de4f0f7	0.11178773
146	0xbdd2efa6	-0.102996156
147	0x3db1a87b	0.08674713
148	0x3e3614f3	0.17781429
149	0x3e1533a3	0.14570479
150	0xbec1879b	-0.3779877
151	0x3cf8a28a	0.030350942
152	0x3eab94f6	0.33512086
153	0x3eab7e77	0.33494923
154	0xbebe6402	-0.37185675
155	0x3f28dc49	0.6596113
156	0x3ec8ddcc	0.39231718
157	0xbe8cfb28	-0.27535367
158	0xbce51c3a	-0.027967561
159	0x3dc24d2d	0.09487376
160	0xbe72de58	-0.2371763
161	0x3ea13e27	0.3149273
162	0x3ea7c964	0.32770836
163	0xbe0f04aa	-0.13966623
164	0x3edec6ae	0.43510956
165	0x3e3dfa9f	0.18552636
166	0xbf37c24a	-0.71780837
167	0xbecc8d82	-0.39951712
168	0x3de4ff18	0.11181468
169	0xbd1d0cc2	-0.038342245
170	0x3e2066fd	0.15664287
171	0x3b69288c	0.0035577146
172	0x3ee4133e	0.4454593
173	0x3f142d56	0.5788168
174	0x3eb7041e	0.3574533
175	0xbe9251fb	-0.2857817
176	0x3e75b9b5	0.23996623
177	0x3e350565	0.17677839
178	0x3e0537ca	0.13009563
179	0xbd1b6b85	-0.037944335
180	0x3f287d15	0.6581586
181	0x3e3ee933	0.18643646
182	0xbd362f39	-0.04447863
183	0xbdf0d029	-0.117584534
184	0x3ec50328	0.3847897
185	0x3cb4e3b0	0.022081226
186	0x3f088452	0.53326905
187	0x3ee2c4f1	0.4429088
188	0xbe914974	-0.28376353
189	0x3ef1cdef	0.47227427
190	0xbc8b878e	-0.017032411
191	0xbf02b25c	-0.51053405
192	0xbeba7d9f	-0.36423966
193	0x3e805a0a	0.25068694
194	0xbd8bdd3d	-0.06829307
195	0x3ec7cc31	0.39022973
196	0x3c94f49d	0.018183047
197	0x3ebd8663	0.3701659
198	0x3eecc165	0.46241298
199	0x3ea3f741	0.32024577
200	0xbe9a44e0	-0.30130672
201	0x3db1386e	0.08653341
202	0x3e865e5b	0.26243863
203	0x3ebefd4d	0.37302628
204	0x3e36b613	0.17842893
205	0x3ee59336	0.44838876
206	0xbdcedd8a	-0.10100849
207	0x3d1dde58	0.03854212
208	0xbd401a6e	-0.046900205
209	0x3e81d0c4	0.25354588
210	0xbe39113d	-0.18072982
211	0x3e6bd950	0.23032117
212	0x3d004f5e	0.03132569
213	0xbdf6de9c	-0.12054178
214	0x3ec10768	0.37700963
215	0xbba06974	-0.0048953835
216	0xbed5dd03	-0.4177018
217	0xbe105434	-0.14094621
218	0x3e23047d	0.15919681
219	0xbd9200c7	-0.071290545
220	0x3ed916b9	0.4240015
221	0xbdab2e9f	-0.08358502
222	0x3eea0d1d	0.4571313
223	0x3f29ed4e	0.66377723
224	0x3ecd0c1a	0.40048295
225	0xbd47c9d8	-0.048776478
226	0x3ec596b1	0.3859153
227	0x3d70b55d	0.05876671
228	0x3e2637ac	0.16232175
229	0xbd0fee3b	-0.035139304
230	0x39ec4822	0.0004506717
231	0xbe5f6a2b	-0.21817844
232	0x3e2db822	0.16964772
233	0xbdf6e466	-0.12055282
234	0xbb938a42	-0.0045025656
235	0x3d93b431	0.07212103
236	0x3e8f4195	0.27979723
237	0xbdb2ee7c	-0.087368935
238	0xbd4cfae3	-0.05004395
239	0x3e57929e	0.21052024
240	0xbd5b4519	-0.053532694
241	0xbec9713b	-0.393442
242	0xbea434eb	-0.32071623
243	0x3e7bd78e	0.24593946
244	0x3d7a4375	0.06109949
245	0x3e0e6012	0.13903835
246	0x3e34aad7	0.17643295
247	0x3d7581ca	0.05993823
248	0x3e098531	0.13429715
249	0x3e803ec8	0.25047898
250	0x3c802b15	0.015645543
251	0x3d6dad79	0.058026765
252	0x3e5c47be	0.21511742
253	0x3e16cadb	0.1472582
254	0x3e5c5788	0.21517766
255	0x3ef1dd72	0.47239262

bias_ih_l0 f4 [100]
0	0x3f5ab4ea	0.854323
1	0x3ec82212	0.39088494
2	0x3daf490a	0.08558853
3	0x3d5fec37	0.05466863
4	0x3e73f8a0	0.23825312
5	0x3d62c4af	0.055363353
6	0x3e90a0ff	0.2824783
7	0x3edb8302	0.4287339
8	0x3f07eb34	0.53093266
9	0x3d9daed1	0.07699359
10	0x3ef0d511	0.47037557
11	0x3b0ac7d5	0.0021176238
12	0x3f162198	0.5864501
13	0xbda67af4	-0.0812892
14	0xbe4e5614	-0.20150024
15	0x3e9fee82	0.31236655
16	0x3ed808f5	0.42194334
17	0x3e49d0cb	0.19708554
18	0x3e077f05	0.13232048
19	0x3e9dd9f0	0.30830336
20	0xbd80bb46	-0.062857196
21	0x3ea990ea	0.33118373
22	0xbdeb3250	-0.11484206
23	0x3e4477dc	0.19186348
24	0x3d9949d1	0.074847825
25	0xbec566c5	-0.3855497
26	0xbe57906f	-0.21051191
27	0xbe510b0a	-0.20414367
28	0xbc023974	-0.007948268
29	0xbd57b563	-0.05266322
30	0x3d92ed8b	0.07174214
31	0xbe4042dc	-0.18775505
32	0xbc0f258f	-0.008736982
33	0xbea696dd	-0.32536975
34	0xbc421b94	-0.011847395
35	0x3e0183e6	0.12647972
36	0xbe6a79dd	-0.2289805
37	0xbe5e7320	-0.21723604
38	0xbd808ba0	-0.06276631
39	0xbe08d6c8	-0.13363183
40	0xbe8b5e33	-0.27220306
41	0x3e634c07	0.22196971
42	0x3c3e072e	0.011598391
43	0xbbe0c656	-0.006859581
44	0xbd6090aa	-0.054825462
45	0x3db967af	0.09052979
46	0xbe189bcd	-0.14903183
47	0xbe0a57c0	-0.13510036
48	0x3e15d75d	0.14632936
49	0x3bd3ba1d	0.0064613954
50	0xbdf482a9	-0.11938984
51	0xbde5aeb5	-0.11214963
52	0x3dfd3cc6	0.12365107
53	0xbb34553f	-0.002751663
54	0xbd1053fc	-0.035236344
55	0x3dc73993	0.09727778
56	0x3d83fa06	0.064441726
57	0xbe414f59	-0.18877925
58	0x3dcedf4b	0.101011835
59	0xbda92f26	-0.08260946
60	0xbd6b7591	-0.057485167
61	0xbde970e6	-0.11398487
62	0x3e0c968c	0.13729304
63	0x3e06d2a5	0.13166292
64	0xbe3f372d	-0.18673392
65	0xbd0c39b3	-0.034234714
66	0x3d9e4cfe	0.07729529
67	0xbcb5d75f	-0.022197424
68	0xbc7b6461	-0.015343756
69	0xbd5b1a22	-0.05349172
70	0x3e0230d9	0.12713946
71	0xbdd89b09	-0.105764456
72	0x3dbb3ea9	0.09142811
73	0x3ddbc23c	0.10730407
74	0x3e0c4332	0.13697508
75	0x3f48dff8	0.7846675
76	0x3e1dae96	0.1539863
77	0x3e370b09	0.17875303
78	0xbde4ad8c	-0.11165914
79	0x3e908d60	0.2823286
80	0x3e3c6145	0.1839648
81	0x3edf1ba4	0.43575776
82	0x3ea40f30	0.32042837
83	0x3f097026	0.5368675
84	0x3cdd92d0	0.027047545
85	0x3ec8a17f	0.39185712
86	0xbe03e8ca	-0.1288177
87	0x3ecc9b6b	0.39962325
88	0x3e46b06b	0.19403236
89	0x3e51b02d	0.20477362
90	0x3ed75969	0.42060402
91	0x3e4e2f74	0.2013529
92	0xbce1be25	-0.027556488
93	0xbdb598c6	-0.0886703
94	0x3eb0e7ff	0.34552
95	0xbd15e6af	-0.03659695
96	0x3e80ae01	0.25132754
97	0xbe515994	-0.20444328
98	0xbddbce19	-0.107326694
99	0x3dd31185	0.10306076

bias_hh_l0 f4 [100]
0	0x3f41995b	0.75624627
1	0x3e88d137	0.26722118
2	0x3ec33f41	0.38134196
3	0xbe863c22	-0.26217753
4	0x3edebad0	0.43501902
5	0x3e19fac8	0.15037072
6	0x3eac2f55	0.3362986
7	0x3e12cbc5	0.14335544
8	0x3f1a5eaa	0.60300696
9	0xbd96e3c0	-0.073676586
10	0x3ee6b8bf	0.45062825
11	0xbe17e220	-0.14832354
12	0x3ead9eef	0.3391032
13	0x3df6cacb	0.120503984
14	0xbcc96172	-0.024582598
15	0x3ed0125d	0.4063901
16	0x3e1a9191	0.15094592
17	0xbd26426a	-0.04059068
18	0x3dd80f45	0.105497874
19	0x3e2c60c8	0.16833794
20	0x3da94c7e	0.08266543
21	0x3db97874	0.09056178
22	0xbd88bd9f	-0.06676792
23	0x3e8213d0	0.2540574
24	0x3e6aac6a	0.22917333
25	0xbe997e4b	-0.29979166
26	0xbe5a637c	-0.21327013
27	0xbe0b22c0	-0.13587475
28	0xbe432264	-0.19056088
29	0xbdfb9833	-0.12284889
30	0xbd18aa03	-0.03727151
31	0xbe99e935	-0.30060735
32	0xbcab0482	-0.020876173
33	0xbea285f4	-0.31742823
34	0xbe3e6ade	-0.18595454
35	0xbe60b577	-0.21944223
36	0x3d8e04bd	0.069344975
37	0x3c70e4c5	0.01470298
38	0x3d15a2be	0.036532156
39	0xbe1c7085	-0.15277298
40	0xbde16414	-0.110054165
41	0x3e4cf0bc	0.20013708
42	0x3cc55ae2	0.024091188
43	0xbddaf7da	-0.10691805
44	0x3db9277d	0.09040735
45	0x3d9a6b64	0.075400144
46	0xbdfcdf2e	-0.12347256
47	0x3bdd702d	0.006757757
48	0xbdb4ffbe	-0.088378415
49	0x3c06d851	0.008230285
50	0xbd3d4d5f	-0.046216365
51	0xbd31513a	-0.043290354
52	0x3c90daf2	0.017682526
53	0x3e033932	0.12814787
54	0xbd9ea49b	-0.0774624
55	0x3e02dcf7	0.12779604
56	0x3da11900	0.078660965
57	0x3da50f75	0.08059589
58	0xb9c3ac2e	-0.00037321582
59	0x3d39e039	0.04537985
60	0xbd0553e5	-0.03255071
61	0x3d85a85f	0.06526255
62	0x3c765fcb	0.015037487
63	0xbdb24206	-0.08703999
64	0x3e0894f4	0.13338071
65	0x3e080414	0.13282806
66	0xbd515343	-0.051104795
67	0x3dcd4c38	0.10024303
68	0xbcca408e	-0.024688985
69	0x3e19b9c9	0.15012278
70	0x3d25df99	0.040496442
71	0x3d002514	0.03128536
72	0x3de8a17a	0.11358924
73	0x3c349878	0.0110226795
74	0xbd53b86f	-0.05168956
75	0x3f2819a0	0.656641
76	0x3ea436a4	0.32072937
77	0x3e959922	0.29218394
78	0x3dd02022	0.10162379
79	0x3ea6cb9f	0.32577226
80	0x3da9022a	0.08252366
81	0x3f03bc3d	0.51459104
82	0x3e342a03	0.17594151
83	0x3f0481a2	0.51760304
84	0x3e673233	0.22577743
85	0x3e374144	0.1789599
86	0xbdc4c3c8	-0.09607655
87	0x3ea9c4e9	0.33158043
88	0x3e5372bf	0.20649241
89	0xbe1a1f2b	-0.15050952
90	0x3eaaf724	0.33391678
91	0x3e7c0cb7	0.24614225
92	0x3d49adb4	0.04923792
93	0x3e438934	0.19095308
94	0x3e8afb06	0.2714464
95	0xbd336dae	-0.04380577
96	0x3e435671	0.19075944
97	0xbdeea036	-0.116516516
98	0xbdc9c71a	-0.09852429
99	0x3e423dc4	0.18968874

weight_ih_l1 f4 [100, 25]
0	0xbde68c6f	-0.11257254
1	0x3eb55af6	0.3542096
2	0x3d543426	0.051807545
3	0x3e76f62b	0.24117343
4	0xbc6c968f	-0.014440193
5	0x3e59600a	0.21228042
6	0xbe9332fa	-0.2874983
7	0x3d727c31	0.05920047
8	0xbddfd55b	-0.10929366
9	0x3e7ba42c	0.24574345
10	0xbb75339d	-0.0037414797
11	0xbdac84c8	-0.084237635
12	0xbe821562	-0.2540694
13	0x3dc9c497	0.0985195
14	0x3e91a8c7	0.2844908
15	0xbe839404	-0.25698864
16	0xbd65f9a6	-0.056146286
17	0xbe4ce2bd	-0.20008369
18	0xbcf5d3fd	-0.03000831
19	0xbcd373cf	-0.025812058
20	0xbe2a4ebd	-0.16631599
21	0xbdca8283	-0.098881744
22	0x3e9275e5	0.2860557
23	0x3e91a44b	0.28445658
24	0x3d0a2521	0.033726815
25	0x3d9cd0bd	0.07657001
26	0x3dc5ae8c	0.09652433
27	0x3dead36b	0.11466106
28	0x3da0f614	0.07859436
29	0x3df18362	0.117926374
30	0xbd92a0ca	-0.07159574
31	0xbe315829	-0.17318787
32	0x3d9a3376	0.07529347
33	0x3caf28a2	0.02138168
34	0x3d9729b7	0.07381003
35	0x3dbddcc0	0.0927062
36	0x3e6e8fb3	0.23297004
37	0xbe6ad886	-0.2293416
38	0x3d66b91d	0.05632888
39	0x3e24e763	0.16103892
40	0xbdde5953	-0.10856881
41	0xb9e281ac	-0.00043202692
42	0xbeb8c102	-0.36084753
43	0xbca7b301	-0.020471098
44	0xbd9d13dd	-0.07669804
45	0xbdebe015	-0.1151735
46	0x3cc4f09c	0.024040513
47	0x3dbe48e4	0.092912465
48	0x3dedd813	0.116134785
49	0x3e84d735	0.2594544
50	0x3ce7a44a	0.028276581
51	0x3ac373d7	0.0014911842
52	0xbbdf31d7	-0.0068113613
53	0xbe4b8753	-0.19875841
54	0x3e0af4f8	0.1357001
55	0xbe3c691a	-0.18399468
56	0x3cb0c3bf	0.021577714
57	0x3ea28e44	0.31749165
58	0xbdb2e8cb	-0.08735808
59	0x3df48ad1	0.1194054
60	0xbbca9a9f	-0.006182983
61	0x3dc2cf7a	0.09512229
62	0xbdf6951c	-0.12040159
63	0x3cb2db42	0.021833066
64	0xbc4347d9	-0.011918985
65	0xbd88a342	-0.06671764
66	0x3dc9a86e	0.098465785
67	0x3bbe484a	0.0058069574
68	0xbdc1d625	-0.09464673
69	0xbe8c805b	-0.27441677
70	0xbe9d6d3a	-0.30747396
71	0xbe173a58	-0.1476835
72	0x3b0ab769	0.002116645
73	0x3d2bac50	0.041912377
74	0x3d1bf752	0.03807766
75	0xbd170673	-0.036871385
76	0x3e8fed61	0.28110793
77	0xbd1f3ed9	-0.038878296
78	0x3df668d8	0.12031716
79	0x3dc2021b	0.09473058
80	0xbd31981e	-0.04335796
81	0xbea2d484	-0.31802762
82	0x3dfe5a6f	0.124195926
83	0xbe866989	-0.26252392
84	0x3e15f632	0.14644697
85	0x3e47e691	0.19521548
86	0x3e2de7d2	0.16982964
87	0xbcb22566	-0.021746349
88	0xbe30ee84	-0.17278486
89	0x3e8e2fd8	0.27770877
90	0xbd64858a	-0.055791415
91	0xbcfd00ba	-0.030884136
92	0xbcf01211	-0.02930549
93	0x3e3fc730	0.18728328
94	0x3d19fa7f	0.037592407
95	0x3cfb5038	0.0306779
96	0x3de4c7d6	0.11170928
97	0x3b8eeccf	0.004361726
98	0xbcb8c602	-0.022555355
99	0x3c8ac49b	0.016939452
100	0xbe98d193	-0.29847392
101	0xbc8d74a5	-0.017267535
102	0x3e665d01	0.22496416
103	0x3dcefb42	0.101065174
104	0xbf1257ad	-0.5716503
105	0x3e93d108	0.28870416
106	0x3d98dd3f	0.07464074
107	0xbea50373	-0.32229194
108	0x3ed2d2d4	0.41176474
109	0xbe166a31	-0.14688946
110	0xbec2a380	-0.38015366
111	0xbe36a112	-0.17834881
112	0x3ebf2f4e	0.37340778
113	0x3ed6c54d	0.41947404
114	0xbba1ef3e	-0.00494185
115	0x3e48c272	0.19605425
116	0xbd396781	-0.045264725
117	0x3e08457b	0.13307755
118	0xbdc817cf	-0.09770166
119	0x3eab0e41	0.33409312
120	0x3c353f6d	0.011062485
121	0xbea8b067	-0.32947084
122	0xbd050060	-0.03247106
123	0x3ccad5b1	0.0247601
124	0x3ef8ed60	0.48618603
125	0x3c39b149	0.011333772
126	0x3ed9541c	0.42446983
127	0xbe7477b1	-0.23873784
128	0x3e42e739	0.19033517
129	0x3dc1c8a6	0.09462099
130	0x3e6378a7	0.22213994
131	0xbe866904	-0.26251996
132	0x3ccf33d3	0.025293266
133	0xbe860854	-0.2617823
134	0x3e1ca7eb	0.1529843
135	0x3dc3b00e	0.09555064
136	0x3ea7f445	0.3280355
137	0xbe47b465	-0.19502409
138	0x3ca2edc1	0.01988876
139	0x3e720d12	0.23637798
140	0xbe1517e2	-0.14559892
141	0xbe00bdf4	-0.12572461
142	0xbeaa8c87	-0.3331034
143	0x3e155068	0.14581454
144	0xbb9d11e6	-0.0047933934
145	0x3ce31ee8	0.027724698
146	0x3d1e4766	0.03864231
147	0x3d9c00e3	0.07617357
148	0x3e320b99	0.17387237
149	0x3df63bd4	0.1202313
150	0x3ca92ad9	0.020650314
151	0x3dec628c	0.11542234
152	0x3e0f16f5	0.13973601
153	0x3db85b6a	0.09001811
154	0x3e002f20	0.12517977
155	0x3dd2fa57	0.10301655
156	0x3d55cc55	0.05219682
157	0x3e789fd4	0.2427972
158	0x3b8c6164	0.004284071
159	0x3dd09117	0.10183924
160	0x3e804d5a	0.25059015
161	0x3dcacf8c	0.09902868
162	0xbd8fb5ef	-0.07017123
163	0xbde4e633	-0.111767195
164	0x3d248d93	0.04017408
165	0xbc3d96d1	-0.011571602
166	0xbe1fc804	-0.15603644
167	0xbd014aa7	-0.031565335
168	0x3ca50a91	0.02014664
169	0xbeb89e59	-0.3605831
170	0xbe707da2	-0.23485425
171	0x3e3f4c6b	0.18681495
172	0xbda4dd43	-0.08050015
173	0xbda1bf7b	-0.0789785
174	0x3dcc7a20	0.09984231
175	0xbda95ca7	-0.08269625
176	0x3ec2d31e	0.38051695
177	0x3df112e9	0.11771185
178	0x3e98b5f5	0.29826322
179	0xbd83c910	-0.06434834
180	0x3bbf97cc	0.005846953
181	0xbd93ccb1	-0.07216776
182	0x3e36fd5b	0.17870085
183	0xbe3bbc03	-0.1833344
184	0x3e35479a	0.17703095
185	0xba43421e	-0.0007448512
186	0x3e356fdd	0.17718454
187	0xbda9962c	-0.08280596
188	0xbe3430ce	-0.17596743
189	0x3e6f9e79	0.23400296
190	0xbd83014f	-0.06396734
191	0xbcb6e36f	-0.022325246
192	0x3a27290f	0.00063766626
193	0x3e0a915c	0.13532013
194	0xbdc1de34	-0.0946621
195	0xbe0243ac	-0.12721127
196	0x3e85bfd4	0.26122916
197	0x3d908404	0.0705643
198	0xbde104f5	-0.109872736
199	0x3e0243ab	0.12721126
200	0xbe1ee8a6	-0.15518436
201	0xbe19cb19	-0.15018882
202	0x3d5cd7e7	0.053916838
203	0xbd7123a2	-0.058871873
204	0x3e4abf41	0.1979952
205	0x3e3c595c	0.18393463
206	0x3d8d326e	0.06894384
207	0x3e85f336	0.26162118
208	0xbe4a9b1c	-0.19785732
209	0x3e6c25ca	0.2306129
210	0x3d05bb8f	0.032649573
211	0x3e6dea8d	0.23234005
212	0x3e3de49b	0.18544237
213	0x3e679cc0	0.22618389
214	0x3e13c0a4	0.14428955
215	0xbe876f03	-0.26451883
216	0x3dec43db	0.1153638
217	0x3d3e9a26	0.046533726
218	0xbd855af4	-0.065114886
219	0xbd950d14	-0.07277885
220	0x3d1ce671	0.038305704
221	0xbded5538	-0.1158852
222	0x3e93012f	0.2871184
223	0x3d24c94d	0.040231038
224	0x3e0fc675	0.14040549
225	0x3e3aa4e4	0.18226963
226	0x3e31a4e1	0.17348053
227	0xbe0a9daf	-0.13536714
228	0x3e573e19	0.21019782
229	0x3dc5c6f3	0.09657087
230	0x3e6b4578	0.22975719
231	0xbeac6a51	-0.33674863
232	0x3eca75f6	0.39543122
233	0xbeb32752	-0.34990937
234	0x3ea406bb	0.32036385
235	0x3ea9dc40	0.3317585
236	0xbcf85b98	-0.030317113
237	0xbe4a57d3	-0.19760065
238	0xbcc24d62	-0.02371854
239	0x3e49a2d4	0.1969102
240	0xbe31becc	-0.1735794
241	0xbd0d9a9c	-0.034571275
242	0xbe1c22f7	-0.15247713
243	0x3e9f81c7	0.311537
244	0xbe175d62	-0.14781716
245	0xbdead342	-0.114660755
246	0x3e5a04fd	0.21290965
247	0x3e11d3f6	0.14241013
248	0x3e4fe934	0.20303804
249	0x3dcb786d	0.09935079
250	0x3e93d257	0.28871414
251	0x3db28ba8	0.087180436
252	0xbdeed4d8	-0.116616905
253	0x3e6758b9	0.22592439
254	0x3e9804a7	0.2969105
255	0x3d5cbbb3	0.05388994

weight_hh_l1 f4 [100, 25]
0	0xbe17d3fc	-0.1482696
1	0x3d87f4e8	0.06638509
2	0xbe07f8f3	-0.1327856
3	0x3e06f025	0.13177545
4	0xbe65ba9b	-0.22434466
5	0xbddfff19	-0.10937328
6	0x3e624566	0.22096786
7	0xbd20ad28	-0.039227635
8	0xbd13f9aa	-0.03612677
9	0xbe09b780	-0.13448906
10	0xbe6e9b18	-0.23301351
11	0x3e91f4b4	0.28507006
12	0x3d96f647	0.073711924
13	0xbd924439	-0.07141919
14	0x3e7aa8b4	0.24478418
15	0x3a8e2db4	0.0010847361
16	0x3e3038b4	0.1720913
17	0xbc7cb683	-0.015424374
18	0x3df56fac	0.1198419
19	0x3e038b12	0.1284602
20	0x3d563d26	0.05230441
21	0xbdb6a061	-0.089173086
22	0x3c0a813f	0.008453666
23	0xbe07fa71	-0.1327913
24	0x3e162139	0.14661111
25	0xbe93ef4c	-0.28893507
26	0xbc47101c	-0.012149837
27	0xbe54e481	-0.20790292
28	0x3ea0768d	0.31340447
29	0xbe49e7c9	-0.19717325
30	0xbd8e9aed	-0.069631435
31	0x3eb62aa4	0.35579407
32	0x3e991c8c	0.29904592
33	0x3e7ca467	0.2467209
34	0x3ea7023f	0.326189
35	0xbe3f212f	-0.18665002
36	0x3e24cae9	0.16093029
37	0xbd86f12a	-0.06588967
38	0x3c19764b	0.009366582
39	0x3dbdaa2b	0.092609726
40	0x3c9120c5	0.017715821
41	0x3dd1f1c1	0.10251189
42	0xbb8d51ec	-0.0043127444
43	0x3ec8959b	0.3917664
44	0x3e036dfe	0.12834927
45	0x3cad1eae	0.021132793
46	0xbe37ee5d	-0.17962022
47	0x3ea42fe4	0.32067788
48	0xbe626ac4	-0.2211104
49	0x3cdba27d	0.026810879
50	0x3dd5bcb6	0.104363844
51	0xbe2ac9ba	-0.16678515
52	0x3dde4286	0.10852532
53	0xbdc5bc46	-0.09655051
54	0xbec0897b	-0.3760489
55	0xbdf77e68	-0.12084657
56	0x3da3eeb4	0.080045134
57	0xbdffb374	-0.124854
58	0x3e38039f	0.17970131
59	0xbd8ecbc1	-0.06972457
60	0x3d1f1642	0.038839586
61	0x3e5e9b02	0.21738818
62	0x3cb89876	0.022533637
63	0x3c686788	0.01418484
64	0xbce07c28	-0.027402952
65	0x3df2a144	0.11847165
66	0xbdc804f9	-0.097665735
67	0x3e2a65e3	0.16640429
68	0x3c2a844e	0.01040752
69	0xbe1bb266	-0.15204772
70	0xbda7466e	-0.0816773
71	0xbd05aa96	-0.032633387
72	0xbe2cb7ce	-0.16866991
73	0xbddd04d6	-0.10791938
74	0x3ccd4687	0.025058044
75	0xbe625b7b	-0.2210521
76	0x3e83814a	0.25684577
77	0xbe0215df	-0.12703656
78	0x3d3662da	0.044527866
79	0xbda853f7	-0.0821914
80	0xbdccd5e0	-0.10001731
81	0x3e127613	0.14302854
82	0x3d859fc5	0.06524614
83	0x3d8df2a3	0.06931045
84	0xbd3398d0	-0.043846905
85	0x3d355e1f	0.044279214
86	0x3ddc24ff	0.10749244
87	0xbdce5507	-0.100748114
88	0x3d828cd0	0.06374514
89	0x3e4e2a43	0.20133309
90	0xbe7ee774	-0.2489298
91	0xbe12ae87	-0.1432439
92	0x3e5cd147	0.21564208
93	0xbcf3b7e5	-0.029750774
94	0x3e885ed5	0.2663485
95	0x3e7b61eb	0.24549071
96	0x3da707aa	0.08155759
97	0x3d0f8a23	0.035043847
98	0xbe6c1b36	-0.23057255
99	0x3e51e555	0.2049764
100	0x3e42a959	0.19009914
101	0xbeaedc7c	-0.3415259
102	0xbdf7571d	-0.120771624
103	0xbea24f35	-0.31701055
104	0xbdbf051e	-0.09327148
105	0x3ea57eb0	0.32323217
106	0x3ce0d056	0.027443092
107	0xbed2fd69	-0.41208962
108	0xbd53b6bd	-0.051687945
109	0xbe686b0b	-0.22697084
110	0xbdadd344	-0.08487561
111	0x3d787a52	0.06066353
112	0xbeae2d21	-0.34018806
113	0xbdf8f82f	-0.12156712
114	0x3cd6f0a8	0.0262378
115	0x3e2704e2	0.16310456
116	0x3dce67c7	0.10078388
117	0x3e008147	0.12549315
118	0x3c6c8244	0.014435355
119	0xbd748971	-0.059701387
120	0xbedf395c	-0.4359845
121	0x3e740785	0.23830993
122	0x3cf6086f	0.030033318
123	0x3d1cac96	0.03825053
124	0xbeedd229	-0.46449402
125	0xbdd9b688	-0.10630518
126	0x3d9fbb97	0.07799452
127	0xbddcf98b	-0.10789784
128	0x3e95fdc8	0.29295182
129	0xbf0acee4	-0.5422194
130	0xbe91415b	-0.28370175
131	0x3dfbf3a7	0.12302332
132	0x3e4dc6bb	0.20095341
133	0x3dc54da4	0.096339494
134	0xbcee5a8f	-0.029095916
135	0xbea27134	-0.31726992
136	0x3ed4b6ea	0.41545802
137	0xbda38324	-0.079839975
138	0xbe34935e	-0.17634341
139	0x3e0ef54c	0.13960761
140	0xbe84ab7d	-0.25912085
141	0xbd62cb07	-0.055369403
142	0x3df5e96c	0.12007412
143	0x3e6470c7	0.22308646
144	0x3ea25d66	0.31711882
145	0xbd975f3c	-0.073912114
146	0xbe895cda	-0.26828653
147	0x3c9287ec	0.017887078
148	0xbd85133b	-0.064978085
149	0xbca9856f	-0.020693509
150	0x3da5cf54	0.08096185
151	0xbd7a3149	-0.06108216
152	0x3e360ce7	0.1777836
153	0xbdbbe0e3	-0.09173753
154	0xbddfd7a4	-0.10929802
155	0x3e075055	0.13214238
156	0x3d94d6a8	0.07267505
157	0x3e3e61dc	0.18592018
158	0x3e0a4ef1	0.13506676
159	0xbd906872	-0.07051171
160	0x3d178130	0.036988437
161	0x3e39d47c	0.18147463
162	0xbe304e2d	-0.17217322
163	0x3dbbc24b	0.09167918
164	0xbd14c4da	-0.036320545
165	0xbda8e376	-0.0824651
166	0xbda904b3	-0.082528494
167	0x3b4088ee	0.0029378491
168	0xbd984480	-0.0743494
169	0x3e748e1b	0.23882334
170	0x3d93f70f	0.07224857
171	0x3dc12c31	0.09432257
172	0x3db04bb2	0.08608188
173	0xbe0def74	-0.13860875
174	0x3e324664	0.17409664
175	0xbe8f01ae	-0.2793097
176	0x3e46d665	0.19417723
177	0xbd5216d3	-0.051291298
178	0x3e4d23e1	0.20033218
179	0xbe9955ea	-0.2994836
180	0x3c880720	0.01660496
181	0xbc81b296	-0.015832227
182	0x3dc61fbf	0.09674024
183	0x3e1f9d12	0.15587261
184	0x3d95a445	0.073067226
185	0xbd13b5c9	-0.036062036
186	0x3d179e47	0.03701618
187	0xbd30e538	-0.04318735
188	0xbd684b16	-0.056712233
189	0x3dc1cea8	0.09463245
190	0xbdbddaf2	-0.09270276
191	0x3e0a2dd2	0.13494042
192	0x3ea558b0	0.32294226
193	0x3ca46bf7	0.020071013
194	0x3e7a173a	0.24422923
195	0x3e840a25	0.2578899
196	0x3d914aca	0.07094343
197	0x3d574335	0.052554328
198	0xbcc40e72	-0.02393267
199	0xbd83c81f	-0.064346544
200	0x3e30829b	0.17237322
201	0xbdafc57f	-0.08582591
202	0x3e4b91cb	0.19879834
203	0xbdcb5274	-0.09927836
204	0xbeb4fe9b	-0.353505
205	0xbe0be627	-0.13662015
206	0x3e34a8a2	0.17642453
207	0x3c3d145f	0.011540501
208	0xbda24ddb	-0.07925006
209	0xbda03f05	-0.0782452
210	0xbce3824f	-0.027772097
211	0x3e4193c2	0.18904021
212	0xbe22eb7c	-0.15910143
213	0x3db09fed	0.086242534
214	0x3e578370	0.21046233
215	0x3e0b0caf	0.13579057
216	0x3d3e1540	0.046406984
217	0x3cdeb823	0.027187413
218	0x3e2b606e	0.16736004
219	0x3e16bead	0.14721175
220	0x3cd4b0e0	0.025963247
221	0xbe11dd17	-0.14244495
222	0xbdd8d43c	-0.105873555
223	0xbd983355	-0.07431666
224	0xbc6b1732	-0.014348792
225	0xbdc4ea69	-0.09615023
226	0xbd4cf08d	-0.050034095
227	0xbe023e3e	-0.12719056
228	0xbd5a6c55	-0.05332597
229	0xbeb7283c	-0.35772884
230	0x3d8aa823	0.06770351
231	0x3d6fc8df	0.058541175
232	0x3d0f3870	0.034965932
233	0x3d88b1df	0.06674551
234	0xbe16600c	-0.14685076
235	0xbe553a4a	-0.20823017
236	0x3e8ed8fc	0.2789992
237	0x3d23cc36	0.039989673
238	0x3d8a4dc7	0.06753116
239	0x3ead4530	0.33841848
240	0x3c902f28	0.01760061
241	0xbe1126ad	-0.1417491
242	0x3cb04934	0.021519281
243	0x3e8e3aa2	0.27779108
244	0xbdb8e4e2	-0.09028031
245	0xbc19d1ac	-0.009388369
246	0x3d9699b6	0.07353537
247	0x3e871fe6	0.26391524
248	0xbdc7d122	-0.09756686
249	0xbdc03552	-0.0938517
250	0xbd94663f	-0.072460644
251	0xbd377046	-0.044784807
252	0xbe418109	-0.1889688
253	0x3e4a844c	0.1977703
254	0xbeaaa612	-0.33329827
255	0x3db71a21	0.089405306

bias_ih_l1 f4 [100]
0	0x3d341827	0.043968346
1	0x3eb399bc	0.35078228
2	0x3e3f66b1	0.18691517
3	0x3e7e4616	0.24831423
4	0x3e4ed23d	0.20197387
5	0x3e38015f	0.17969273
6	0x3e8e7d9a	0.278302
7	0x3c8dc19f	0.01730424
8	0x3e660f94	0.2246688
9	0xbd7e63e9	-0.062107
10	0xbdcb486f	-0.09925925
11	0x3e2c1aff	0.16807173
12	0xbd49d749	-0.049277578
13	0x3de53dac	0.111934036
14	0xbde6d83d	-0.11271713
15	0x3e34dd64	0.17662579
16	0x3eafb063	0.3431426
17	0x3e32ddfd	0.17467494
18	0x3dc80710	0.09766972
19	0x3e3e3610	0.1857531
20	0x3eadd31c	0.33950126
21	0x3e630858	0.22171152
22	0xbe053c0d	-0.13011189
23	0x3d3f3b90	0.046687663
24	0x3e2f896b	0.17142265
25	0xbe8a2624	-0.26982224
26	0xbe92316a	-0.28553325
27	0xbda510ad	-0.08059821
28	0xbe92ed17	-0.2869651
29	0xbdc2ed15	-0.09517876
30	0xbc963154	-0.018334068
31	0xbea2cd89	-0.31797436
32	0xbda4f960	-0.08055377
33	0xbd7df8ad	-0.062004734
34	0xbe89d45c	-0.2691983
35	0xbc78a413	-0.015175837
36	0x3cd11c0b	0.025526067
37	0xbe76dc06	-0.2410737
38	0xbda960e1	-0.08270431
39	0xbcdbe1e4	-0.026841111
40	0x3d2eed97	0.042707052
41	0xbe98a4a2	-0.29813105
42	0xbe20650b	-0.15663545
43	0x3d178c9b	0.036999326
44	0xbe3adef4	-0.18249112
45	0xbda2af9a	-0.079436496
46	0x3d673175	0.05644365
47	0xbdde2a07	-0.1084786
48	0xbe955853	-0.2916895
49	0xbea0a17a	-0.31373197
50	0x3d09483f	0.033516165
51	0x3d162dde	0.036664836
52	0x3c21160c	0.009831917
53	0xbe15183f	-0.1456003
54	0xbca08ecc	-0.01959934
55	0x3d224e67	0.03962555
56	0x3cb2c5cb	0.02182283
57	0xbd721f38	-0.059111804
58	0xbe02f1f3	-0.12787609
59	0x3d233fb9	0.039855693
60	0x3dbf4b2d	0.093405105
61	0xbe325eda	-0.17418995
62	0xbb2f6403	-0.0026762492
63	0xbd17a5ae	-0.03702324
64	0x3dac481a	0.0841219
65	0xbc364e91	-0.01112713
66	0xbb622846	-0.0034508868
67	0x3dca45f0	0.09876621
68	0x38ca7413	9.653731e-05
69	0xbcbf8f15	-0.023383657
70	0x3cb49f31	0.022048565
71	0x3dceeb35	0.10103456
72	0x3de83966	0.11339073
73	0x3de75e0f	0.11297237
74	0xbd735fd2	-0.059417553
75	0x3e64b2fd	0.22333904
76	0x3d8a629e	0.06757091
77	0x3a7ae388	0.0009570648
78	0x3e85ad8b	0.26108965
79	0xbd006fe0	-0.031356692
80	0x3e706c62	0.23478845
81	0x3dd5f63d	0.10447357
82	0xbcb70b52	-0.022344265
83	0x3df2c491	0.11853898
84	0x3cac611a	0.021042395
85	0x3dd3ae6c	0.10336003
86	0x3dbcadd6	0.09212844
87	0x3e7a5804	0.24447638
88	0x3d6a858b	0.057256263
89	0x3db6ec0f	0.08931743
90	0x3d48c146	0.049012445
91	0x3e8e4f67	0.27794954
92	0x3ec862fb	0.39138016
93	0xbdb78007	-0.08959966
94	0x3d42a2b6	0.047518454
95	0x3e3b0377	0.1826304
96	0x3e278e4a	0.16362873
97	0x3e370f19	0.17876853
98	0x3e4d3291	0.20038821
99	0x3e4e1d00	0.2012825

bias_hh_l1 f4 [100]
0	0x3e875043	0.26428422
1	0xbc4b77e7	-0.012418724
2	0xbe404698	-0.1877693
3	0x3b6c7b6a	0.0036084303
4	0xbdf0f3b3	-0.11765232
5	0x3e7bfbc3	0.24607758
6	0x3dfb03db	0.12256595
7	0x3c64d934	0.013967801
8	0x3d3553a1	0.044269208
9	0x3ea3f52d	0.32022992
10	0xbc939268	-0.018014148
11	0xbdf2867d	-0.11842058
12	0x3e9516bc	0.29118907
13	0x3e1eea00	0.15518951
14	0x3db7d314	0.08975807
15	0xbe38c9bd	-0.18045707
16	0x3db4bdb3	0.08825245
17	0x3e9720d6	0.2951724
18	0x3c3ccf12	0.011523979
19	0x3e6990f5	0.22809203
20	0x3ec81653	0.39079532
21	0x3eaad3af	0.33364627
22	0x3dd71c34	0.10503426
23	0x3e985f43	0.2976018
24	0x3e92e6b3	0.28691635
25	0xbe9b93e1	-0.3038626
26	0xbd09e76c	-0.033667967
27	0xbe9e7ec3	-0.30956087
28	0xbe61b22f	-0.22040628
29	0xbe248d0b	-0.16069429
30	0xbe8e0f85	-0.27746215
31	0xbd8c0d40	-0.06838465
32	0xbe0e8d27	-0.13921033
33	0xbe7ee6cf	-0.24892734
34	0xbeb707bd	-0.3574809
35	0xbd34984e	-0.04409056
36	0xbe03d880	-0.12875557
37	0xbe8c1c90	-0.2736554
38	0xbca2783e	-0.019832727
39	0xbe5cfae5	-0.21580084
40	0xbdf32582	-0.118723884
41	0xbe40abf3	-0.18815593
42	0xbe6c2303	-0.23060231
43	0xbda69872	-0.081345454
44	0xbe51bd9d	-0.20482488
45	0xbe1776b6	-0.14791378
46	0x3df0d33b	0.11759039
47	0xbdb539a2	-0.08848883
48	0xbe87e94f	-0.26545188
49	0xbb6499d1	-0.003488172
50	0xbd24ae3b	-0.04020522
51	0xbd9495ff	-0.07255172
52	0xbd11189a	-0.035423853
53	0x3e0618aa	0.13095346
54	0xbb17ed11	-0.0023182074
55	0xbd61f417	-0.055164423
56	0x3cbe233b	0.023210159
57	0x3d726752	0.059180565
58	0x3e03d8ac	0.12875623
59	0x3c702f79	0.014659756
60	0xbdb585ae	-0.08863388
61	0x3e0233be	0.1271505
62	0x3d488ae6	0.04896059
63	0xbbb353c4	-0.005472632
64	0xbdc0d3e1	-0.09415413
65	0xbcc5b6a7	-0.024134947
66	0x3c1e59e2	0.009664984
67	0xbdcc0f6b	-0.09963878
68	0xba05592e	-0.0005086836
69	0x3d1fc65c	0.03900753
70	0x3b33abec	0.0027415706
71	0xbdb00704	-0.08595088
72	0xbdbf3966	-0.0933712
73	0xbdfd3a29	-0.12364609
74	0x3ccd3be4	0.025052972
75	0x3e92aa47	0.28645536
76	0x3ea9dc6f	0.3317599
77	0x3dc728fe	0.097246155
78	0xbbbb0ccc	-0.0057083126
79	0x3d189876	0.037254773
80	0x3d845db4	0.06463185
81	0x3e781d56	0.24229941
82	0x3e8d7093	0.2762495
83	0x3ee32235	0.44362035
84	0x3da57d09	0.08080489
85	0x3ca48fb5	0.020088056
86	0x3e5edc94	0.21763831
87	0x3e997db3	0.29978713
88	0x3b905ddd	0.0044057206
89	0xbd6d0758	-0.05786833
90	0xbe2d4ccb	-0.16923825
91	0x3e52a70a	0.20571533
92	0x3e4234d6	0.18965468
93	0xbddd35b7	-0.10801261
94	0x3ea3307d	0.3187293
95	0x3e77d6fe	0.24203107
96	0x3ae224cb	0.0017253397
97	0x3d07dff4	0.033172563
98	0x3be8660c	0.007092243
99	0x3e92e11f	0.2868738

weight_ih_l2 f4 [100, 25]
0	0xbd8c19ac	-0.06840834
1	0x3e43e016	0.19128451
2	0xbdcadf01	-0.09905816
3	0x3caadc10	0.020856887
4	0xbd9bf454	-0.07614961
5	0xbe86679b	-0.2625092
6	0xbe34fcbc	-0.17674536
7	0x3e1f2951	0.15543105
8	0x3da59e6c	0.08086857
9	0xbd04c599	-0.032415006
10	0xbd4fa982	-0.050698765
11	0x3cce7a66	0.025204848
12	0xbde4c9fb	-0.11171337
13	0x3d94802c	0.07251009
14	0xbe0e5a40	-0.13901615
15	0xbc871afa	-0.016492356
16	0xbe3d2cc6	-0.18474111
17	0xbde44b8d	-0.11147223
18	0x3c388db9	0.011264258
19	0x3a3af05c	0.0007131153
20	0x3e46879a	0.19387665
21	0xbe3773d0	-0.17915273
22	0x3d778b98	0.06043586
23	0x3e07461c	0.13210338
24	0x3e2f3654	0.17110568
25	0xbe241dfd	-0.16027065
26	0x3e55c4a1	0.20875789
27	0xbe730ad9	-0.23734607
28	0x3e31de2a	0.17369905
29	0xbe23a492	-0.15980747
30	0xbe3ca637	-0.18422781
31	0x3d3d35be	0.04619383
32	0x3e7c7278	0.24653041
33	0xbcb6dd5a	-0.022322346
34	0x3de02a6e	0.10945593
35	0xbdf4960b	-0.11942681
36	0x3ddd3d47	0.10802703
37	0x3e19e7e5	0.15029867
38	0xbe2ab0c0	-0.16668987
39	0xbc93462a	-0.017977793
40	0xbd53669b	-0.051611524
41	0xbe58308c	-0.21112269
42	0xbe1d8fb3	-0.15386848
43	0xbd1e5012	-0.03865058
44	0x3e3b73d7	0.18305908
45	0x3e3c96c0	0.18416882
46	0xbeaf62ec	-0.3425516
47	0xbe25e17f	-0.16199301
48	0xbe51fc8f	-0.205065
49	0x3e175edc	0.1478228
50	0xbbedfed9	-0.007263046
51	0x3e163330	0.14667964
52	0xbe4d5df6	-0.20055375
53	0x3e7764b4	0.24159509
54	0x3c7399cf	0.014868214
55	0xbdbb0533	-0.09131851
56	0x3e1249f4	0.14286023
57	0x3e5011c7	0.20319282
58	0x3e5a6fff	0.21331786
59	0x3e3a9d63	0.18224101
60	0x3df48791	0.1193992
61	0xbdb1f128	-0.08688575
62	0x3e48fc09	0.19627394
63	0xbe4ad717	-0.19808613
64	0x3c81aff7	0.015830977
65	0x3d54e661	0.05197752
66	0xbe9e16fd	-0.30876914
67	0xbe2bcf55	-0.1677831
68	0xbd9d250f	-0.07673084
69	0x3e271646	0.1631709
70	0x3e87a379	0.26491907
71	0xbe173a09	-0.14768232
72	0x3e2b17bf	0.16708277
73	0xbe881fb1	-0.2658668
74	0x3da448c3	0.08021691
75	0xbe48b37c	-0.19599718
76	0x3e6040a6	0.21899661
77	0xbd972758	-0.07380551
78	0x3d5e3a5e	0.054254882
79	0xbe126bf8	-0.14299
80	0xbe66e245	-0.22547252
81	0xbc028e09	-0.007968434
82	0x3e6ba703	0.23012929
83	0x3e3fbb8e	0.1872389
84	0x3d950ce0	0.07277846
85	0xbdc8e3c9	-0.098090716
86	0x3e2b3fe8	0.16723597
87	0x3e9aeb33	0.30257568
88	0xbbb12327	-0.005405802
89	0xbd07fad8	-0.033198208
90	0x3ceb4e64	0.028723903
91	0x3d954587	0.07288652
92	0xbce3a7ce	-0.027789976
93	0x3d9f9458	0.07791966
94	0xbd0bd279	-0.03413627
95	0x3e6f4705	0.23366936
96	0xbe0bf2ba	-0.13666812
97	0x3ddfcd30	0.10927808
98	0xbdfdef7a	-0.12399192
99	0x3e874dc5	0.2642652
100	0xbe2b5397	-0.16731106
101	0xbc2c42a7	-0.010513938
102	0xbd40ac7b	-0.04703949
103	0x3e23b20c	0.15985888
104	0xbe13bd69	-0.14427723
105	0xbe749196	-0.23883662
106	0x3e87a51c	0.26493156
107	0x3e86fbd9	0.2636402
108	0x3ea7f717	0.32805702
109	0x3eaa61c6	0.3327772
110	0xbbc4fbff	-0.0060114856
111	0x3e28af47	0.16473113
112	0x3e10f549	0.14156069
113	0xbe333d20	-0.17503786
114	0x3d8f7a0e	0.07005702
115	0xbe5decd0	-0.21672368
116	0xbd630e8a	-0.055433787
117	0xbea2f9ca	-0.318312
118	0x3d138d96	0.0360237
119	0x3df702e6	0.120611
120	0x3e1a4907	0.1506692
121	0xbeb9c887	-0.36285803
122	0x3cd8aa5c	0.026448421
123	0xbe44a2e7	-0.19202767
124	0x3bec65a9	0.0072142673
125	0xbe16e73a	-0.14736643
126	0xbb92f6c7	-0.0044849846
127	0xbd35ca81	-0.044382576
128	0x3e2cc239	0.16870965
129	0xbcf0644a	-0.029344697
130	0xbe021184	-0.12701994
131	0x3d27ef65	0.04099979
132	0x3da15fb3	0.07879581
133	0x3deda118	0.11602992
134	0x3da9b8b2	0.08287181
135	0xbd22a2aa	-0.03970591
136	0x3dd50f43	0.104033016
137	0x3de722af	0.11285912
138	0xb9866642	-0.0002563466
139	0xbd51053e	-0.05103039
140	0xbe62c324	-0.22144753
141	0xbd1cfabd	-0.03832506
142	0x3d165248	0.036699563
143	0x3d01571a	0.031577207
144	0xbbf954c4	-0.007608982
145	0x3e35b6e4	0.17745548
146	0xbe8c4bc9	-0.2740157
147	0x3e78f51e	0.24312255
148	0xbe5df747	-0.2167636
149	0x3ea01987	0.31269476
150	0xbe7c8ecd	-0.24663849
151	0xbc43036f	-0.011902674
152	0x3deadfcc	0.11468467
153	0x3e381edb	0.1798052
154	0xbde407c6	-0.11134295
155	0x3d2ef4fa	0.042714097
156	0x3e19f0eb	0.15033309
157	0x3e7ca785	0.24673279
158	0x3e03faf5	0.12888701
159	0x3c578fcf	0.013156845
160	0x3dd2c149	0.102907725
161	0x3e75022c	0.2392661
162	0x3d8a5dad	0.067561485
163	0xbe3ed600	-0.18636322
164	0xbb7334bb	-0.0037110287
165	0xbe63321c	-0.22187084
166	0xbda649b8	-0.081195295
167	0xbe201007	-0.15631114
168	0xbd844036	-0.0645756
169	0x3e5be336	0.21473393
170	0x3e6636b4	0.22481805
171	0xbeaa1fa0	-0.33227253
172	0x3e8a8ee6	0.27062148
173	0xbe9c9cf9	-0.3058851
174	0xbd76eb31	-0.06028289
175	0xbde69e6f	-0.112606876
176	0x3e5db61c	0.216515
177	0xbe544451	-0.20729186
178	0xbc92300d	-0.017845178
179	0xbe302696	-0.1720222
180	0xbd2d3b71	-0.042293016
181	0x3e0db654	0.13839084
182	0x3aa2e95e	0.0012429168
183	0x3e06526f	0.13117383
184	0x3dada3dd	0.0847852
185	0x3d775241	0.060381178
186	0x3e4b6c98	0.19865644
187	0x3d558731	0.05213088
188	0xbe94afff	-0.29040524
189	0xbbcac080	-0.0061874986
190	0x3a87e1a8	0.0010366933
191	0xbe55a73d	-0.20864578
192	0x3da45926	0.08024816
193	0x3e1bb426	0.1520544
194	0x3e312cfa	0.17302313
195	0x3e77def7	0.24206148
196	0xbd9ac440	-0.07556963
197	0x3e05dcb3	0.13072471
198	0xbc8f3be9	-0.017484622
199	0x3e82e8f6	0.2556836
200	0x3db1ffee	0.08691393
201	0x3e999ad7	0.30000946
202	0x3e0e7590	0.13912034
203	0xbe236f30	-0.15960383
204	0x3ef43492	0.47696358
205	0x3de7fcc0	0.11327505
206	0x3e3c49cc	0.18387526
207	0x3c8eaeb2	0.017417286
208	0xbb4478e8	-0.0029979292
209	0x3e388341	0.1801882
210	0x3dbf409f	0.09338497
211	0x3df5484a	0.11976679
212	0xbd83c9b7	-0.064349584
213	0x3d5a1464	0.053242102
214	0x3d2748a9	0.04084078
215	0x3e1344e9	0.14381756
216	0x3dfe90de	0.12429975
217	0xbd6358c8	-0.05550459
218	0x3e1bc129	0.15210404
219	0x3e0a7057	0.13519417
220	0xbd862a74	-0.06551066
221	0xbe4596d0	-0.19295812
222	0xbd2cfd2a	-0.042233624
223	0x3d8d7e80	0.069088936
224	0x3e5e7132	0.21722868
225	0xbdcc3706	-0.099714324
226	0x3e033798	0.12814176
227	0x3dbe57b3	0.09294071
228	0x3d464dd2	0.04841406
229	0xbdef1fbc	-0.11675975
230	0x3d0875c0	0.03331542
231	0x3e088ddf	0.1333537
232	0x3e73632e	0.23768303
233	0x3d664ae9	0.056223784
234	0xbcd00b73	-0.025396084
235	0x3dd2c621	0.10291696
236	0x3dba65b7	0.09101432
237	0xbddd2bad	-0.10799346
238	0x3c0dc0b5	0.008651902
239	0x3e5b29e5	0.214027
240	0xbdefd013	-0.11709609
241	0xbdcda199	-0.10040588
242	0xbe6b1f6e	-0.22961208
243	0x3e87b1bb	0.26502785
244	0x3e2d4e1d	0.16924329
245	0x3ebca2dd	0.36843005
246	0xbe61523e	-0.22004029
247	0xbc8cbac5	-0.017178902
248	0x3ab6e327	0.0013953195
249	0xbcdd0892	-0.026981626
250	0xbdb9f6e6	-0.09080295
251	0xbc6a2ea4	-0.014293347
252	0x3d5d3a2c	0.054010555
253	0x3dbea598	0.09308928
254	0xbd844632	-0.06458701
255	0xbe429ca4	-0.19005066

weight_hh_l2 f4 [100, 25]
0	0xbd89f9c6	-0.067370936
1	0x3c85aac8	0.016316786
2	0xbd538ef2	-0.051649995
3	0x3df4ad25	0.11947087
4	0x3dcb1c97	0.099175625
5	0xbd3d7542	-0.046254404
6	0x3e235671	0.15950944
7	0x3e244fd8	0.16046083
8	0x3e13c4be	0.1443052
9	0xbdd58d8a	-0.10427387
10	0x3e5845ab	0.21120326
11	0x3e01f10c	0.12689608
12	0xbde1f7bb	-0.11033579
13	0x3e00fe5b	0.12597029
14	0xbcd5e25b	-0.026108911
15	0x3cfaff04	0.030639179
16	0x3d92bf53	0.071653984
17	0xbc0978df	-0.008390634
18	0xb9ac8d6d	-0.00032911767
19	0x3e2566c8	0.16152489
20	0xbd1b8c68	-0.0379757
21	0x3d8303e5	0.06397227
22	0xbdb0b54b	-0.08628329
23	0xbe101859	-0.14071788
24	0x3e32373f	0.17403887
25	0xbdbb3a44	-0.09141973
26	0x3d9d08b8	0.076676786
27	0x3d711c73	0.058865022
28	0x3e103860	0.14084005
29	0x3cad2f5c	0.021140747
30	0xbdfd9ec5	-0.123837985
31	0xbdce9471	-0.10086907
32	0xbd49ff62	-0.049315818
33	0xbdbaf17e	-0.09128092
34	0x3e3cacb1	0.18425252
35	0x3e22b01e	0.15887496
36	0x3d45dc2e	0.048305683
37	0x3dbcabb5	0.09212438
38	0xbd1c876c	-0.038215086
39	0x39422d1e	0.00018518089
40	0x3e4bed56	0.19914755
41	0xbe07d403	-0.1326447
42	0xbe1a68cb	-0.15079038
43	0xbdb3fc0d	-0.08788309
44	0x3dd51a74	0.10405436
45	0xbd4f046e	-0.050541334
46	0x3e064f7d	0.1311626
47	0x3df38fa5	0.118926324
48	0xbe12b9c0	-0.1432867
49	0xbe5967a1	-0.21230938
50	0x3dce1340	0.100622654
51	0xbdfb107d	-0.12259004
52	0x3e4d9295	0.20075448
53	0x3e368470	0.17823958
54	0xbd9bc08e	-0.07605086
55	0x3e2ab32c	0.16669911
56	0x3daa01fc	0.0830116
57	0xbda10b57	-0.07863491
58	0x3e17de95	0.14831002
59	0x3e2d543e	0.16926667
60	0xbcd2773b	-0.02569162
61	0xbb83c149	-0.004020844
62	0x3e494a30	0.19657207
63	0xbdc0083f	-0.09376573
64	0xbc1b2f35	-0.009471704
65	0x3e06afef	0.13153051
66	0x3e27082d	0.16311713
67	0xbdf6cf00	-0.12051201
68	0x3e278ee2	0.16363099
69	0x3e1a9da3	0.15099196
70	0x3d9df6ab	0.07713064
71	0xbdd6612a	-0.10467751
72	0x3dd3a784	0.103346854
73	0xbe418b2d	-0.18900748
74	0xbdb05813	-0.08610549
75	0xbd301f00	-0.042998314
76	0x3d4f490b	0.05060677
77	0xbc9d15ce	-0.019175436
78	0xbd963f88	-0.073363364
79	0xbe2a0c9f	-0.16606377
80	0x3d06869b	0.032843214
81	0xbd5ec6c9	-0.054388795
82	0xbe43c609	-0.19118513
83	0x3e70a282	0.23499492
84	0xbdf31d01	-0.118707664
85	0xbcaf1533	-0.021372413
86	0x3d095c87	0.033535507
87	0xbdc36ce7	-0.09542256
88	0x3e0e11ca	0.13873973
89	0x3d8a3187	0.06747728
90	0x3e3f52c3	0.18683915
91	0xbe140e3b	-0.14458553
92	0x3d16aff7	0.036788907
93	0x3e742b41	0.23844625
94	0x3dcf1a2d	0.101124145
95	0xbda811da	-0.0820653
96	0x3dc4ab95	0.09603039
97	0xbe0e61ae	-0.1390445
98	0x3d75bf2e	0.059996776
99	0x3d8117a4	0.06303337
100	0x3d137576	0.03600069
101	0xbd5d23bf	-0.05398917
102	0xbde94869	-0.11390764
103	0xbd92169f	-0.07133221
104	0x3d870f1a	0.06594677
105	0xbd86833b	-0.06567999
106	0x3d8d5bed	0.06902299
107	0x3e09a7cf	0.1344292
108	0x3d470c63	0.048595797
109	0xbd118d52	-0.035535164
110	0xbd306c58	-0.043072075
111	0xbe4b466c	-0.19851083
112	0xbb64329e	-0.003482021
113	0x3e122ba9	0.14274468
114	0xbc9db578	-0.01925157
115	0x3e925a96	0.28584737
116	0x3d5c61da	0.053804256
117	0xbe3f1fff	-0.1866455
118	0x3d9de17e	0.07709025
119	0x3cdb49fd	0.026768679
120	0x3dc518cf	0.096238725
121	0xbe82069d	-0.2539567
122	0x3e54daaa	0.20786539
123	0x3e5c0ad8	0.21488512
124	0xbdd25e1c	-0.10271856
125	0xbe15f314	-0.14643508
126	0x3e357370	0.17719817
127	0xbddaf61b	-0.10691472
128	0x3e0ecb11	0.13944651
129	0x3c3517f7	0.011053077
130	0x3dc4119c	0.09573671
131	0x3df8e586	0.12153153
132	0x3e291de5	0.1651531
133	0x3e275bfa	0.1634368
134	0xbe2c8cc6	-0.16850576
135	0xbe622b4c	-0.22086829
136	0xbd986bd5	-0.07442442
137	0x3e407fd4	0.18798763
138	0x3e0455ce	0.12923357
139	0x3dbedf25	0.09319905
140	0xbaa572af	-0.0012622679
141	0x3b5e69f5	0.0033937667
142	0x3e0ed40d	0.13948078
143	0x3c750fff	0.014957427
144	0x3e2941f7	0.1652907
145	0xbe0114b3	-0.12605552
146	0xbe0c37b6	-0.13693127
147	0xbde5f5e7	-0.11228543
148	0x3d81ee1d	0.06344245
149	0xbc203e99	-0.009780549
150	0xbd02cc71	-0.03193325
151	0x3e1602ae	0.1464946
152	0xbe368d7f	-0.17827414
153	0xbd622399	-0.05520973
154	0x3d65da96	0.056116663
155	0xbd40b068	-0.047043234
156	0xbe3421ba	-0.1759099
157	0x3dd7f545	0.10544828
158	0xbc902a2b	-0.017598232
159	0x3d8039b6	0.062610075
160	0xbe5b7828	-0.21432555
161	0xbdb8cd28	-0.090235054
162	0x3dacd0ba	0.08438249
163	0xbdacbabc	-0.08434054
164	0x3dbee358	0.09320706
165	0x3b6bd026	0.003598222
166	0x3c963e5e	0.018340286
167	0xbdcef6e2	-0.10105683
168	0xbdc35594	-0.09537807
169	0xbe1b6415	-0.15174897
170	0x3be8a14a	0.0070993053
171	0x3df32453	0.11872163
172	0xbdb880c9	-0.09008939
173	0xbe3592e2	-0.17731813
174	0xbe1cd43c	-0.15315336
175	0x3ded4286	0.11584954
176	0xbde0ccb0	-0.10976541
177	0x3e141452	0.14460877
178	0xbdbd47e1	-0.092422254
179	0xbdb8386d	-0.08995137
180	0xbcd9b5c4	-0.02657593
181	0xbdfc48ee	-0.12318598
182	0xbe3b019e	-0.18262336
183	0x3e10c0c3	0.14136033
184	0x3e03c55b	0.12868254
185	0xbdf3a109	-0.118959494
186	0x3cd9f4a7	0.026605917
187	0x3d90407b	0.07043549
188	0x3d4b48d2	0.049629994
189	0xbd31c58f	-0.043401297
190	0x3d08b5fe	0.033376686
191	0xbdb9019d	-0.09033511
192	0x3db43a8c	0.088002294
193	0x3d193416	0.03740319
194	0x3e42e423	0.1903234
195	0xbe0a9d72	-0.13536623
196	0x3d1c4480	0.038151264
197	0xbdee9ff8	-0.11651605
198	0xbd2a43fe	-0.04156875
199	0x3d9b18c3	0.07573082
200	0xbd113676	-0.03545233
201	0xbc5027f0	-0.012704834
202	0x3e1238cf	0.14279483
203	0x3def21ee	0.116763934
204	0x3df52d3f	0.11971521
205	0xbc4b38a8	-0.012403645
206	0x3e152d94	0.14568168
207	0xbda0ae39	-0.0784573
208	0xbb828994	-0.0039836857
209	0xbdad6d47	-0.084681086
210	0x3e597a38	0.21238029
211	0xbe318888	-0.17337239
212	0xbe221c64	-0.15831143
213	0x3dbc8d62	0.09206654
214	0xbe22c7b9	-0.158965
215	0x3af20c7c	0.0018466855
216	0xbd50c5d8	-0.05096993
217	0xbe750957	-0.23929344
218	0x3d8f7ceb	0.07006248
219	0x3d65127e	0.05592584
220	0xbe0e3457	-0.13887154
221	0xbe1d3e3b	-0.1535577
222	0x3e28035a	0.16407529
223	0xbdb55944	-0.08854917
224	0xbd034b34	-0.03205414
225	0xbd59bffc	-0.053161606
226	0xbe207768	-0.1567055
227	0x3e417929	0.18893875
228	0xbd1d278c	-0.038367793
229	0xbced5b7d	-0.02897429
230	0xbc2cfec7	-0.0105587905
231	0x3da5b5b9	0.080913015
232	0xbdc9f6bf	-0.09861516
233	0x3e8a47fd	0.27008048
234	0xbcc32ad8	-0.02382414
235	0x3da829b5	0.0821108
236	0x3d33c12f	0.043885406
237	0xbe017847	-0.12643538
238	0x3d6656f4	0.05623527
239	0x3e5c12fb	0.21491615
240	0xbd9ab38a	-0.075537756
241	0x3df62b82	0.12020017
242	0x3d093827	0.033500817
243	0xbd675314	-0.056475714
244	0xbddd3545	-0.10801176
245	0x3e6a9332	0.22907713
246	0xbe67d3f5	-0.22639449
247	0x3ddcf6a0	0.107892275
248	0xbde5f2f4	-0.1122798
249	0x3d8b8f5e	0.068144545
250	0xbd52c9e7	-0.05146208
251	0xbe23c7f4	-0.15994245
252	0x3e15bbb6	0.14622387
253	0xbe186d7e	-0.14885518
254	0x3e306feb	0.17230193
255	0x3e853268	0.2601502

bias_ih_l2 f4 [100]
0	0xbd4a7348	-0.049426347
1	0x3daa8768	0.08326608
2	0x3e1ec45f	0.15504597
3	0xbe03f3c6	-0.12885961
4	0x3de43ae1	0.11144043
5	0x3e01249b	0.1261162
6	0xbd4bbf12	-0.049742766
7	0xbd0b27b4	-0.03397341
8	0x3d655e81	0.05599833
9	0xbd6a6850	-0.057228386
10	0xbe073ec2	-0.13207534
11	0x3deff57a	0.11716743
12	0x3e48194a	0.19540897
13	0xbc90fdf1	-0.017699214
14	0x3e42d132	0.19025114
15	0x3dd0f155	0.102022804
16	0x3db67d8d	0.08910666
17	0x3e34eb63	0.17667918
18	0xbced56a5	-0.02897198
19	0x3e1ca28a	0.15296379
20	0xbdac4671	-0.08411873
21	0xbe02307f	-0.12713812
22	0x3e600fe0	0.21881056
23	0x3e01d7c0	0.12679958
24	0x3d5847c2	0.05280281
25	0xbde0b188	-0.109713614
26	0xbebc40a1	-0.36768058
27	0xbe863d33	-0.26218566
28	0x3d94447c	0.07239625
29	0xbd8238d5	-0.06358496
30	0x3d9533b1	0.0728525
31	0xbe509de8	-0.20372736
32	0x3dad538f	0.08463203
33	0xbec39ff1	-0.38207963
34	0xbe24ac5c	-0.16081375
35	0xbd9ba30f	-0.0759946
36	0xbe839cdf	-0.2570562
37	0x3cedc896	0.02902631
38	0xbe9ff6a3	-0.31242856
39	0xbea2aada	-0.31770974
40	0xbeb80659	-0.35942343
41	0xbdca454c	-0.098764986
42	0x3c84aeb0	0.016196579
43	0x3d0a1726	0.033713482
44	0x3d314675	0.043280084
45	0xbe576981	-0.2103634
46	0x3c4310bc	0.011905845
47	0xbe0ef804	-0.13961798
48	0xbde98523	-0.11402347
49	0xbda773be	-0.08176373
50	0xbc18664c	-0.009301733
51	0xbde9c577	-0.114146166
52	0x3dbbf916	0.09178369
53	0xbe26117b	-0.16217606
54	0xbd43b2e4	-0.047778025
55	0x3e210184	0.15723234
56	0x3c5c6643	0.0134521155
57	0xbc7fd107	-0.015613801
58	0xbb244207	-0.002506377
59	0xbd77f3f9	-0.060535405
60	0x3ccc447e	0.024935003
61	0x3c4c54fd	0.012471435
62	0xbe050104	-0.12988669
63	0x3d6d4a42	0.057932146
64	0x3e242160	0.16028357
65	0xbcf15194	-0.029457845
66	0x3d802759	0.06257505
67	0x3bc499ec	0.005999794
68	0x3c815722	0.015788618
69	0xbcb09582	-0.021555666
70	0x3be720f5	0.0070534893
71	0xbbf48f6d	-0.0074633867
72	0x3dc2cbb8	0.095115125
73	0xbd80f959	-0.06297559
74	0xbd80707e	-0.06271456
75	0xbd76e5b0	-0.06027764
76	0xbd6b05fc	-0.057378754
77	0x3b893f77	0.004188474
78	0x3e5091b6	0.20368084
79	0x3e8fa8f7	0.28058597
80	0xbdeca296	-0.11554448
81	0x3e385091	0.17999484
82	0xbd8da6c4	-0.06916574
83	0xbdb999fb	-0.090625726
84	0x3d283445	0.041065473
85	0x3d554757	0.052069988
86	0x3ea99c8c	0.33127248
87	0xbd113177	-0.035447564
88	0x3de65ef7	0.11248582
89	0x3cb17568	0.021662429
90	0x3e812346	0.25222224
91	0x3d8c4ace	0.06850205
92	0x3e978770	0.29595518
93	0x3e54e63c	0.20790952
94	0x3a87f7b2	0.0010373502
95	0x3e3db95e	0.18527743
96	0xbe051ef2	-0.13000086
97	0x3e03d1ca	0.12872997
98	0x3e0a1ed8	0.13488328
99	0x3e7521eb	0.2393872
