Covid/.darts/checkpoints/Air_RNN/model_best_390.pth.tar (torch_old, 266181 bytes, 51 tensors)

weight_ih_l0 f4 [100, 1]
00000000: 9c5b a93e fc44 c33e c9b6 ff3d ca7e 9fbc
00000010: cc87 1f3e c21c 4cbe 82cc 4f3e 10f5 ad3d
00000020: cc1f 303e 337c 7a3e 17ea ae3d 13c5 a63e
00000030: 1515 4b3e 477b 553e f9a4 6d3d 0080 f83d
00000040: 8e57 863e 2acb 753e aaba 303e 2703 0d3d
00000050: f047 a7be f6c5 383e 19fa be3d 7758 c03e
00000060: 3f0b 8ebd e9dd 5bbe da9d a9bd ff04 aabe
00000070: f6dc ccbd 023e 5c3e d8ff 78be 4c4b 06bf
00000080: 389a 60bc 9f73 19bc ec2f 973e bf53 0cbd
00000090: 0630 be3d 4a0c d5be 8170 c13d 98dd b03d
000000a0: c68d c8bd bd0c 1f3c 89c9 2b3e c73d 603e
000000b0: 2de6 143e a6f4 19bf 9286 9b3e 863d de3c
000000c0: 4de2 673e 0d10 01bf df74 fd3e fb40 cd3e
000000d0: a6b5 eabe 6538 ca3d a960 ce3e fc4b 98be
000000e0: 956a eebe d79b ba3e 2e24 c6be 55da 5c3e
000000f0: 90b3 a53e 6743 2e3e 9333 e9be 6fa3 55be
00000100: e8d4 8e3d 67f8 a6be 434d 2abe 91e9 59be
00000110: 9e11 763e 992b e9be 64c7 c0be e32b 963e
00000120: 1b21 ad3d 36ec 373e 60ec a1be 7ada eb3e
00000130: 04bd a93e 019b 4bbe fa61 1abe db65 a43e
00000140: f66c d3bd 7654 323e 95c0 983e d3d5 9a3e
00000150: fd38 013e 2c4c b73e a990 323e 3911 cc3e
00000160: 0380 b53e 1c5c 43bd 80fe 843e e790 bd3c
00000170: cf66 dd3d 8a8e f33d a2ae aa3e 4bf8 80be
00000180: e5f6 3f3e 3363 df3d 8ad9 893e 7da9 40be
0.33077705 0.38138568 0.124860354 -0.019469637 0.15579146 -0.19932845 0.20292857 0.084940076
0.1719963 0.2446144 0.08540743 0.3257223 0.19832261 0.20847808 0.05801866 0.12133789
0.26238674 0.24003282 0.17258707 0.034426834 -0.3267207 0.18044266 0.09325046 0.37567493
-0.06935739 -0.21471371 -0.08282061 -0.33206937 -0.100030825 0.21508029 -0.24316347 -0.52458644
-0.013708644 -0.009365945 0.2952875 -0.034259554 0.092865035 -0.41610938 0.094452865 0.08636016
-0.09792666 0.009707627 0.16776098 0.21898566 0.1454093 -0.6013893 0.30376107 0.027128946
0.2264492 -0.50415117 0.49503228 0.4008864 -0.45841712 0.09874038 0.4030812 -0.2974547
-0.4656569 0.3644702 -0.38699478 0.21567662 0.32363558 0.170179 -0.4554716 -0.20863126
0.069742024 -0.3261139 -0.16631036 -0.21280505 0.24030158 -0.45541075 -0.37652123 0.29330358
0.0845358 0.17961201 -0.31625652 0.46065122 0.3315202 -0.19883348 -0.15076438 0.3210896
-0.10323517 0.17415032 0.29834428 0.3024126 0.12619396 0.35800302 0.17437996 0.3985689
0.35449228 -0.047695264 0.25975418 0.023140384 0.10810625 0.118924215 0.3333636 -0.25189433
0.18746527 0.109075926 0.26923782 -0.18814655

weight_hh_l0 f4 [100, 25]
00000000: 465c a4be 40a5 03be 8b91 0e3d e611 f03e
00000010: 0494 5dbe 0a71 5a3f d2f6 7a3e 61a4 71bd
00000020: b4a8 b7bd 00f8 a03e b8b1 59be 2581 f83e
00000030: 285a 1d3e 094d 8bbe 01f2 ef3e b446 f8bd
00000040: 1b5e 49bf ea50 63bd 7e7e ee3d 027a 9c3e
00000050: 1046 843e 7404 703c 62fd 253f a070 0c3f
00000060: 5edb ca3e 1fb0 163e 43f9 a3bd c06b 0d3e
00000070: 88a3 2c3e a991 4a3e 90ff df3e 3adb 44be
00000080: a6f4 a73e 377b bfbe 160a c43e f445 9f3e
00000090: 17ec 4b3e 7620 d23a efbe 23bd 834c f23e
000000a0: 8b52 d23d 7950 92be 0add 61be 6263 943d
000000b0: 84bb 1dbe 29be c13e a609 c23d 70e2 6d3e
000000c0: f1a2 b53e 3b05 953e d2f1 45be ae14 8ebe
000000d0: e256 f23d 5e9e 903d a70a a6be f1cd 933e
000000e0: 5632 ac3e 0a91 bebe a347 103d 5489 d2bc
000000f0: 8eff 05bc 10e0 073e f186 d83e 27d6 22bd
00000100: 2b54 8b3e 204e 0d3e 2c44 09bf 3e2c 86be
00000110: 51a7 f03d 6c0d 9f3c 037b 243e 01df b73d
00000120: eaf3 d33d 7850 e43e f96b 2f3e f991 53be
00000130: d8a2 a4bd 5384 123e 543a 8abe c858 b8bd
00000140: e269 4abc 9d5e 38bd 372d 2c3e 8d4a cdbd
00000150: df24 05be 9a4d c13d 30b1 28be fe42 9cbd
00000160: 141b 233d ce7e a53d faf2 083e 95ed 333c
00000170: aaf6 c0bd 3e15 d43d c96e 20bd 5fca 45be
00000180: d14c 973e 3cd4 4bbb 8b1c 43be e782 873d
00000190: 8f9f b1bd 3359 803d c781 b73d b079 053e
000001a0: 542a c73d 5307 073f 103f b93d 36e9 0f3e
000001b0: 6ace c23c 3cf0 383e b156 cebd b2d2 c03e
000001c0: 649b 543e 8a19 ccbc 12cc 693e 6480 b73c
000001d0: e4d8 92be 8f01 b2be 78b5 0b3e 3eff 903d
000001e0: f3f5 ab3e e844 933c 4dfe 873e 267b 903e
000001f0: 64f3 eb3e 520e 0ebd de4e 24bd 7efa c13c
00000200: bdb7 0ebd 17b1 31be bad3 d0bd 9bdf 333e
00000210: b1dc 59bc 1c94 5dbe 6649 debd 8484 823d
00000220: 9cf6 ac3c 5f63 25bd bb6d 6dbe 1379 5f3e
00000230: fd1a b1bd aeae 8abe 2426 a8bd 2f17 253e
00000240: d3fa d3bd f7ef de3d 9002 cabd fe61 ac3d
00000250: a2d2 3b3e 5c5d 123e bffd bfbe c916 113d
00000260: 13f2 a93e 9f0b aa3e 6908 bcbe c015 263f
00000270: e9cb c63e 6b1e 8bbe dc38 f8bc c6ab c03d
00000280: a297 6fbe 2d47 a03e 530a a53e 6267 0fbe
00000290: aef0 dd3e 67bc 393e 5a7d 36bf d1ef ccbe
000002a0: e601 e43d 35da 25bd 8ecc 1c3e 44db a33b
000002b0: d27f e03e 9134 123f b075 b13e 7808 92be
000002c0: 0e4e 6f3e 5b8b 393e 6bea 043e 339c 2abd
000002d0: 0081 273f 4b77 3e3e 0cdf 34bd 55f0 e4bd
000002e0: d4e2 bd3e 91c4 8f3c 0797 053f 004e e03e
000002f0: c448 8cbe ed7a eb3e ea9e 52bc a95e ffbe
00000300: 01d8 b3be 139c 783e e6be 74bd 5aca c83e
00000310: 0260 ee3b 09de bc3e 1c25 e63e 84da 9d3e
00000320: 3b94 9abe ae73 aa3d 5679 893e b320 bc3e
00000330: da4c 333e c91d dd3e 990d cebd ccf9 153d
00000340: 705a 2cbd 02f5 763e 6c9f 3dbe 1a1f 613e
00000350: a188 ed3c d96d e4bd 388c bb3e 80ac f4ba
00000360: a1ca cdbe da26 04be a1b7 193e f91c 83bd
00000370: 278b d93e 0612 c0bd b766 e43e ac30 253f
00000380: c522 ca3e 13cc 5bbd 4e28 c03e fe76 863d
00000390: 1ca9 263e c8d8 2cbd 1a08 d03b 3fd5 5abe
000003a0: 6e4f 273e 2059 e7bd bc91 3ebc ba8d 873d
000003b0: ece5 8a3e 10bf a8bd a0d8 21bd ecb9 4e3e
000003c0: 33e5 3abd a41a c6be 2e37 9fbe b44d 743e
000003d0: 1d8a 8e3d b2db 143e 0b32 2b3e 2297 7b3d
000003e0: 36de 023e eb7a 7e3e 0c93 c63c 614d 7e3d
000003f0: c9b2 543e 9911 193e a7f7 623e c27d ef3e
-0.3210165 -0.12856007 0.03480677 0.46888655 -0.21638495 0.85328734 0.24508217 -0.058994655
-0.089677244 0.3143921 -0.212592 0.4853603 0.15366423 -0.2720721 0.46864322 -0.121228606
-0.7865922 -0.055497088 0.1164522 0.30561835 0.25834703 0.014649499 0.64839756 0.5485935
0.3962049 0.14715622 -0.08006527 0.13810635 0.16859257 0.19782127 0.43749666 -0.19224253
0.3280384 -0.37398693 0.38288945 0.31108057 0.1991428 0.0016031403 -0.03997701 0.47324
0.1026965 -0.2857702 -0.22056976 0.07245518 -0.15403563 0.37840393 0.094744965 0.2323091
0.35475877 0.29105553 -0.19330528 -0.27750152 0.11832978 0.07061456 -0.32430002 0.28868058
0.33632153 -0.3722003 0.035224568 -0.025700249 -0.008178605 0.13269067 0.42290452 -0.039755013
0.27212653 0.13799334 -0.5361965 -0.2620563 0.11750663 0.01941558 0.1606255 0.089780815
0.10349257 0.44592643 0.17131032 -0.20661153 -0.080388725 0.1430829 -0.26997626 -0.09001309
-0.012354346 -0.045012105 0.16814123 -0.10023985 -0.13002346 0.094386294 -0.16473842 -0.07629965
0.039820746 0.08080827 0.13373938 0.010981937 -0.094220474 0.10355614 -0.039168153 -0.1931548
0.29550794 -0.0031101843 -0.19053857 0.066167645 -0.086730115 0.062670134 0.089603 0.13034701
0.0972487 0.5274555 0.09045231 0.14053807 0.023780067 0.18060392 -0.10075129 0.37660748
0.20762402 -0.024914522 0.22831753 0.022400089 -0.286811 -0.34766814 0.13643444 0.070799336
0.33586082 0.017977193 0.26561204 0.28218955 0.4608413 -0.034681626 -0.040114276 0.023679014
-0.034843195 -0.1735271 -0.10196634 0.17565767 -0.013297246 -0.2163853 -0.108538434 0.063729316
0.021113686 -0.04037797 -0.2318639 0.2182353 -0.08647726 -0.27086395 -0.082104 0.16122125
-0.10350575 0.108856134 -0.0986377 0.08417128 0.18342069 0.14293426 -0.3749828 0.03542212
0.331925 0.3321199 -0.36725166 0.6487694 0.38827446 -0.27171645 -0.03030055 0.09407763
-0.23397687 0.31304303 0.3223444 -0.14004281 0.43347687 0.18138276 -0.7128502 -0.40026715
0.111331746 -0.0404913 0.15312406 0.0050005037 0.4384752 0.5711146 0.346601 -0.28522086
0.23369619 0.18119566 0.12980048 -0.04165287 0.65431213 0.18600194 -0.044158027 -0.11178652
0.3708712 0.017549785 0.52183574 0.4380951 -0.27399266 0.45992222 -0.012855271 -0.49876907
-0.35125735 0.24278288 -0.059752367 0.39216882 0.0072746286 0.3688815 0.44950187 0.30830777
-0.30191216 0.083228454 0.26850384 0.36743698 0.17509785 0.43186787 -0.10061187 0.036615178
-0.042078435 0.241169 -0.18517846 0.2198452 0.028995814 -0.11153764 0.36630416 -0.0018667132
-0.40193656 -0.12905446 0.15011455 -0.064020105 0.42488977 -0.09378438 0.44609615 0.6452739
0.39479652 -0.053661417 0.3753075 0.06565665 0.16275448 -0.042198926 0.006348622 -0.2137041
0.16338894 -0.11296296 -0.0116314255 0.06618829 0.2712854 -0.08239567 -0.03951323 0.20188111
-0.045628738 -0.386922 -0.31096786 0.23857766 0.06959937 0.14536932 0.16718309 0.06142343
0.12780079 0.24851577 0.02424004 0.062085513 0.20771326 0.14948119 0.22164784 0.46775633

bias_ih_l0 f4 [100]
00000000: e20a 573f 22e4 c53e 4c08 a83d d42f 703d
00000010: 2dca 7b3e 9e3a 5d3d 96b3 8b3e d671 d63e
00000020: 48f5 023f 5d59 9a3d 9aa5 f23e 3d61 123c
00000030: 40bd 153f a4e7 98bd 107f 4fbe 5c50 9d3e
00000040: 42ef d73e 29d8 4c3e c2b0 063e 07aa 9e3e
00000050: 1548 78bd 8c66 ac3e 3f66 e6bd 3941 433e
00000060: ab42 8b3d 54be c3be f8f8 56be 962a 44be
00000070: b4fe 1dbc e458 35bd d83e 913d c60e 3abe
00000080: 2b1b 00bc 2911 a7be 74d4 4abc bf02 083e
00000090: ac66 65be 5292 57be e6ef 53bd f89f 0cbe
000000a0: 6921 86be a596 633e 1daa 503c 515e babb
000000b0: 7ee5 51bd 981d c13d 0178 15be ccf6 08be
000000c0: 23c4 153e a2d6 4b3c f904 efbd a9cd e2bd
000000d0: 2e81 f83d 23a2 acbb 532f 22bd 9d15 ca3d
000000e0: 4fe9 8e3d bdc9 3abe e293 c43d a7a9 adbd
000000f0: 789a 6fbd 97a3 d7bd 03aa 0b3e 63a1 063e
00000100: ecc1 44be 4006 1bbd bc3e 9c3d 9213 aebc
00000110: 6089 98bc 2785 3fbd c166 093e 755e e7bd
00000120: 1b01 c23d 653f e13d 92df 0c3e 4ef3 443f
00000130: 27c2 193e 1b24 343e bb5c dcbd 70a8 943e
00000140: 8234 3b3e b111 da3e 3cd6 9e3e ed5e 043f
00000150: d57e cc3c 7579 ca3e 3181 fabd 1f5e cb3e
00000160: 5db4 4d3e 744c 503e ede3 d43e 2f93 4e3e
00000170: 4912 cdbc 2b2e b8bd cd3c b23e b0ae 0dbd
00000180: e2a3 833e 730a 4fbe b242 ddbd 68ef c73d
0.8400098 0.38650614 0.082047075 0.058639362 0.24588843 0.05401098 0.2728545 0.41883725
0.5115552 0.07536576 0.4739197 0.008934316 0.584919 -0.07466057 -0.20263314 0.30725372
0.42174727 0.20004334 0.13153365 0.30989096 -0.060615618 0.33671987 -0.11249971 0.19067849
0.06799825 -0.38231146 -0.20993412 -0.1915687 -0.0096432455 -0.044274226 0.070920646 -0.18169698
-0.007818977 -0.3263028 -0.012379754 0.13282298 -0.22402447 -0.2105191 -0.051742457 -0.13732898
-0.26197365 0.22225435 0.012735871 -0.005687513 -0.05124425 0.09429473 -0.14596559 -0.13375396
0.14625601 0.012441309 -0.1167087 -0.11074383 0.12134014 -0.0052683516 -0.039595913 0.09867404
0.06978094 -0.1824102 0.09598519 -0.08479624 -0.058496922 -0.10529249 0.13639073 0.13147502
-0.192146 -0.037847757 0.07629153 -0.021249566 -0.018620193 -0.046757843 0.13418104 -0.11297313
0.09472867 0.1099842 0.1375716 0.76933753 0.1501547 0.17591898 -0.107598744 0.29034758
0.18281749 0.42591622 0.31022823 0.51707345 0.024962822 0.3954579 -0.122316726 0.39720246
0.20088334 0.20341665 0.41580144 0.20173334 -0.025033133 -0.08993181 0.34812012 -0.034590423
0.2571097 -0.2021883 -0.10803737 0.0976246

bias_hh_l0 f4 [100]
00000000: 53ef 3d3f 4793 863e 0f6f c13e ad33 84be
00000010: 94a3 e23e 4598 183e ec41 a73e 69a9 083e
00000020: be68 153f 3339 9abd 4789 e83e 26e7 10be
00000030: 2ed6 ac3e 102f 023e 69a9 d2bc 3774 cd3e
00000040: 385e 1a3e ef24 1abd c172 d63d f300 2e3e
00000050: bbe3 ad3d edce c43d 8ef1 83bd 8078 813e
00000060: daa8 633e dad5 97be 06cc 59be 9984 fcbd
00000070: b8de 44be f169 eabd 6307 1cbd 2ecf 96be
00000080: 4e7f a3bc 4000 a3be 69f6 3ebe 9d36 5abe
00000090: 2c2b 983d 0a79 af3c 18ca 423d b539 20be
000000a0: f370 ccbd 5b3b 4d3e 5eac ce3c 5b91 d8bd
000000b0: 137d c03d 4d21 a23d 9897 f6bd f6c6 043c
000000c0: 3a26 b5bd e7d1 683c fc51 32bd 1c8f 2bbd
000000d0: 1ad9 7b3c 75a5 003e 4892 a7bd fd4a 043e
000000e0: 4908 ac3d af1a b23d d3f1 b0bb 37eb 303d
000000f0: c578 09bd ad75 973d 3897 673c 94a4 b2bd
00000100: 340a 033e e850 043e c36f 55bd 2b3d cf3d
00000110: bd17 e5bc 0b9f 203e 49b7 423d 753c c53c
00000120: ec63 ef3d a981 603c 0747 51bd f62c 243f
00000130: 6d40 a23e ac25 943e f370 d83d b0e6 aa3e
00000140: a6a8 a63d 3a37 013f 1db8 293e d2e0 fe3e
00000150: b10f 653e 28f1 3a3e 6873 b7bd 9d87 a83e
00000160: b076 5a3e e482 1bbe a781 a83e 7270 7c3e
00000170: 9703 543d 843e 423e d44f 8c3e af35 2bbd
00000180: 3942 493e fa01 eabd b33b cbbd bcac 3c3e
0.74193305 0.2628424 0.37780043 -0.25820675 0.44265425 0.14901836 0.32667482 0.13345875
0.5836295 -0.07530441 0.45417234 -0.14150676 0.33757156 0.12713265 -0.025715547 0.40127727
0.15075004 -0.03763288 0.10471106 0.1699255 0.08490702 0.096097805 -0.06442557 0.25287247
0.2223238 -0.29655343 -0.21269235 -0.123299785 -0.19225585 -0.11445988 -0.038092982 -0.2945494
-0.019958165 -0.31836128 -0.18648686 -0.21309896 0.074301094 0.02142002 0.047556013 -0.15647013
-0.09982481 0.20042174 0.025228675 -0.10574599 0.09398856 0.07916508 -0.12040633 0.008104077
-0.08845182 0.014210201 -0.043535218 -0.041884527 0.015371585 0.12563117 -0.08182198 0.12919231
0.08400018 0.08696496 -0.0053999214 0.04319307 -0.03356244 0.07395492 0.014135174 -0.08722797
0.12796861 0.12921488 -0.052108537 0.10119089 -0.02796542 0.1568567 0.047538076 0.02407668
0.116889805 0.013702788 -0.051093128 0.64131105 0.31689778 0.2893499 0.10568418 0.33379126
0.08137636 0.50474894 0.1657414 0.497809 0.22369267 0.18256056 -0.08957559 0.32915965
0.21334338 -0.1518665 0.32911417 0.2465227 0.051761236 0.1896916 0.27404654 -0.041799244
0.19654168 -0.11426158 -0.09923496 0.18425268

weight_ih_l1 f4 [100, 25]
00000000: 0303 ddbd 84d9 b53e 36ea 423d e295 7b3e
00000010: c982 1bbb 010e 5d3e 5d35 91be 5723 8b3d
00000020: 3d6e f1bd 0023 803e 4a95 a33b e5ea 9fbd
00000030: 9cc3 86be e9d9 b33d 9feb 903e 06f8 84be
00000040: e912 7bbd 932c 50be fe1c b3bc 9251 0fbd
00000050: 6acb 2bbe 8ea3 b8bd 7f49 943e 5372 953e
00000060: 4152 fe3c 1b46 9b3d 4426 c23d 531d f43d
00000070: bea9 a53d 4e02 f93d 46c1 90bd 75ed 30be
00000080: 4eae 9d3d 6c47 e33c 31e4 8d3d 7463 c83d
00000090: 8868 723e 38ae 6cbe 89aa 783d ffab 1d3e
000000a0: ff7f e0bd e0ae 323c a685 b4be f4ea a0bc
000000b0: db48 a1bd 9f87 e6bd b94a d43c a2f4 c33d
000000c0: 9299 e33d 7815 803e 5b74 553c f526 85bc
000000d0: 5fe0 403b b47a 4ebe 8bf8 023e f5de 3ebe
000000e0: a7bb 173d b4f5 9b3e c3be 97bd 39b8 cf3d
000000f0: 282a b0bc af09 b93d d8fc e1bd 43ef 283d
00000100: c32b c8bc 198f 80bd 2c3a db3d 6536 bb3c
00000110: e225 e8bd c2e4 83be 9e50 96be 8073 29be
00000120: 993b 893b f4eb ff3c 8c96 243d edc1 1fbd
00000130: a825 893e 8487 0cbd 579d f33d 73d4 b03d
00000140: 3790 26bd 64b6 a0be 1294 f63d a502 82be
00000150: ca7f 073e 9e1d 473e 047e 293e 7903 80bc
00000160: 1f43 28be a6b7 883e bb09 4abd c235 ebbc
00000170: 6f20 b2bc 6515 373e 9b83 3a3d 5966 143d
00000180: 87ab de3d eca5 163a 293e 0ebd 2342 953c
00000190: 1145 98be 064f 85bc 808c 653e 9950 d33d
000001a0: 69e2 10bf c74f 933e 82f8 9a3d 9455 a0be
000001b0: bdfc cf3e 0c8d 14be 4c79 bdbe b321 37be
000001c0: def1 ba3e 0823 d53e 6665 42bc ef56 463e
000001d0: 483b 2fbd 5770 043e d829 c4bd ee55 a63e
000001e0: efa4 433c a024 a8be 5b82 e9bc 2aff e83c
000001f0: 84eb f53e 6a5c 913b e5da d63e ae61 6cbe
00000200: 8f4b 423e eac5 b63d efb8 653e 9000 83be
00000210: 5d52 8b3c 2387 82be cb1a 1c3e 52bd c33d
00000220: 507a aa3e 434e 3dbe a6f0 953c 3e93 743e
00000230: b269 0fbe 48d5 00be 9591 a9be b096 173e
00000240: 18f6 42bc 57c9 033d c40c 473d 38d1 983d
00000250: 14c0 313e 42de e43d 089b 573c 21cc f23d
00000260: 3ab7 0a3e e9e5 bb3d 498d fd3d 3fd5 cc3d
00000270: 89c4 503d 4d22 7b3e 16e6 0a3c e03a d33d
00000280: 1663 813e 553e d03d c211 92bd 4ac7 e4bd
00000290: 56fa 213d 1d4c 1cbc 5f4c 1abe 0b59 d0bc
000002a0: 04a6 b13c dff2 b7be 11be 6abe 46ef 3c3e
000002b0: 204c a4bd 5b42 a7bd 1771 d73d 0353 b5bd
000002c0: 7ae3 bf3e e81e f53d e387 983e bac9 7fbd
000002d0: 6a45 d63b b54d 82bd 9314 343e a7d6 38be
000002e0: 8ce4 393e 4d42 ed3a 7d45 393e f7e6 9abd
000002f0: 3cf2 38be 9f02 733e bbe8 7bbd 4f18 98bc
00000300: 4105 52ba 1a57 0c3e 6a43 c0bd 083e 04be
00000310: 8b8f 893e 4eaf 8e3d d355 d1bd f428 eb3d
00000320: 87aa 28be 3e2a 21be 962d 603d 49aa 70bd
00000330: 35f0 4a3e 7ff1 343e 2568 973d 7400 843e
00000340: a99e 49be a9a6 5b3e 5666 f23c 5f45 643e
00000350: f8aa 353e 9e01 763e f7a1 073e ff0f 88be
00000360: 7762 093e 1e83 703d 4c09 90bd c9b3 8cbd
00000370: efa7 4a3d 2648 09be af3b 923e 409b aa3c
00000380: da92 143e 8f42 393e ca7b 383e 95ce 0cbe
00000390: 4c8c 593e 4488 d53d def8 683e ac69 acbe
000003a0: dc9a cb3e ffa1 afbe c1b0 a23e 0028 ad3e
000003b0: e457 a7bc 90ec 4ebe c1fe b7bc 6809 473e
000003c0: 46f9 32be db7f 06bd 9f55 1ebe 298e a23e
000003d0: 9f82 1bbe 694f eabd cb83 5f3e 0b6a 0f3e
000003e0: 3c92 443e 17ef ad3d 2859 933e ebe7 9e3d
000003f0: 8ca4 dbbd a427 6c3e 9785 963e 1d5f 703d
-0.1079159 0.35517514 0.047586642 0.24568895 -0.0023729077 0.21587373 -0.28361025 0.0679385
-0.117886044 0.25026703 0.004992162 -0.078084745 -0.26321113 0.087817974 0.28304765 -0.25970477
-0.06129733 -0.20329504 -0.02186441 -0.0349899 -0.16776815 -0.090155706 0.28962323 0.29188785
0.031045081 0.07581731 0.09479955 0.11919656 0.080890164 0.12158643 -0.07068114 -0.17278083
0.076992616 0.027744018 0.0692829 0.09784594 0.23672688 -0.23113334 0.06070951 0.15397643
-0.10961913 0.010905951 -0.35258216 -0.019643284 -0.07875224 -0.112563364 0.025914537 0.095681444
0.111132756 0.2501638 0.01302823 -0.016253928 0.002943061 -0.20163995 0.12790124 -0.18639739
0.037044194 0.30460894 -0.07409432 0.101425596 -0.021504477 0.0903505 -0.11034554 0.041243803
-0.02443493 -0.06277294 0.10704455 0.022853086 -0.113353506 -0.25760466 -0.2935838 -0.16547966
0.004188013 0.03124044 0.040182635 -0.0390033 0.26786542 -0.034308925 0.118952446 0.086342715
-0.040664878 -0.31389153 0.12039961 -0.25392643 0.13232341 0.19444892 0.16551977 -0.015626656
-0.16431855 0.26702613 -0.049325686 -0.028712157 -0.021743981 0.17879255 0.045535665 0.03623042
0.1087256 0.000574677 -0.03472725 0.018220013 -0.29740193 -0.016273033 0.22416878 0.10318107
-0.56595474 0.28771803 0.0756693 -0.3131529 0.40622512 -0.1450693 -0.37006605 -0.17883949
0.36512655 0.4162829 -0.011864996 0.193691 -0.042781144 0.12933479 -0.095782936 0.32487434
0.011941179 -0.32840443 -0.028504541 0.028441984 0.48031247 0.0044360654 0.41963878 -0.23084137
0.18974136 0.08924468 0.22433828 -0.25586367 0.017007047 -0.25493726 0.15244596 0.09557594
0.33296442 -0.18486886 0.018303227 0.23884293 -0.14005163 -0.1258136 -0.33118883 0.14803576
-0.011899494 0.032174435 0.04859616 0.0746178 0.17358428 0.11175205 0.013159521 0.11855341
0.13546458 0.09174711 0.12380464 0.10001611 0.05096868 0.24524803 0.008477708 0.10313964
0.2527091 0.10168139 -0.07132293 -0.11170824 0.03954538 -0.009539631 -0.15068196 -0.025433084
0.021685608 -0.35927483 -0.22924067 0.1845065 -0.08022332 -0.08166953 0.10519617 -0.08853724
0.37478238 0.119687855 0.29791173 -0.06244824 0.0065390365 -0.06362478 0.17585973 -0.18050633
0.1815359 0.0018101424 0.18092914 -0.07563584 -0.18061155 0.23731469 -0.061501246 -0.018566279
-0.0008011647 0.13705102 -0.09387858 -0.12914288 0.26867327 0.069670305 -0.10221448 0.114824206
-0.16471301 -0.1573877 0.054730974 -0.058756147 0.19818194 0.17670248 0.07392911 0.25781596
-0.1968943 0.21450295 0.029589813 0.22292088 0.17741 0.24024054 0.13245378 -0.26574704
0.13416468 0.058718793 -0.07033023 -0.06870229 0.04947656 -0.13406429 0.2856116 0.020825982
0.14509144 0.18091796 0.18015972 -0.1375068 0.21244925 0.10426381 0.22751185 -0.3367437
0.39766586 -0.3430328 0.31775478 0.3381958 -0.020427652 -0.20207429 -0.022460343 0.19437182
-0.17477903 -0.032836776 -0.1546235 0.31749085 -0.15186547 -0.114409275 0.21827619 0.14005296
0.19196409 0.084928684 0.28778958 0.077590786 -0.10724744 0.23061997 0.29398796 0.058684457

weight_hh_l1 f4 [100, 25]
00000000: f388 1cbe eb9b 943d e221 0fbe 66e5 0a3e
00000010: d11d 5fbe 5f28 f3bd 79d5 6e3e beab 02bd
00000020: 8503 edbc 0c10 01be cf69 76be 6d9f 8e3e
00000030: 6ca9 aa3d b018 a0bd 8852 7e3e 7e2e 59bb
00000040: 3a71 283e 51c3 b6bc ae3c fa3d 130d 083e
00000050: aebe 6c3d 2c9e bdbd 39fb 6d3c 85dd 0ebe
00000060: 76ab 1d3e c8dd 95be 7632 fabb c1c0 53be
00000070: 2eee a03e bf2c 45be af96 93bd 6927 b63e
00000080: cfac 9b3e 85b8 7f3e 806a a83e ad69 3cbe
00000090: 4763 203e 15b6 83bd 7e17 1d3c 8257 c73d
000000a0: 778c 9f3c 49ad cd3d 7fe5 f5bb 61bf c73e
000000b0: b5fb 073e bced d13c 74a2 3abe bc68 a33e
000000c0: 1696 65be 0dc7 d73c 5e93 e03d 60cf 34be
000000d0: b8e7 e63d 59f8 dfbd a8d5 bebe 3d09 dcbd
000000e0: 9294 8d3d 3ce7 01be c579 313e 0c23 a5bd
000000f0: daf5 563d d57e 653e f5a6 fb3b db02 e03c
00000100: 60bf 21bd c23a 063e edaf babd b5c7 333e
00000110: 44b0 3d3b 3deb 22be cb4f b4bd f47e cfbc
00000120: 4d89 39be 21f4 c5bd fbde 183c 362b 5dbe
00000130: b22f 7d3e 66fa f6bd 5d5d 103d 2723 a0bd
00000140: 99a4 b4bd dcac 093e 8299 7a3d a1a4 7d3d
00000150: 9a0e 5abd f74d 603d 7c2b e43d b8cc e5bd
00000160: 681c 943d da0b 463e 4a3c 74be 0aeb 0abe
00000170: 66b2 653e 48af 1abd 8ac6 843e d5d4 723e
00000180: 7c6e b83d c057 c53c 9ce6 61be 1dd6 443e
00000190: 39b3 3e3e fd31 adbe 7e43 f9bd e038 a1be
000001a0: 9158 bdbd 41eb a33e 11c1 d83c 2570 d2be
000001b0: 7988 4abd 2996 65be f8c3 adbd 3bd5 773d
000001c0: 76a5 adbe acf7 f7bd ea80 e43c 95ef 253e
000001d0: 9e32 c83d 4690 f63d 67e7 8b3c fe23 6bbd
000001e0: 6c14 debe 7a42 733e 3a3f 023d c502 123d
000001f0: 8c57 ebbe 51b1 dbbd 4643 b53d 25bc e3bd
00000200: bf5f 983e dc2b 09bf 296e 94be 0dfd 033e
00000210: 25e8 543e 771d d23d da24 bebc 0f75 a6be
00000220: e1fe ce3e 2f68 93bd 1e60 3dbe 0e11 173e
00000230: 013e 87be 97bb 79bd 9da7 df3d 021c 663e
00000240: eecf a33e 00e5 8dbd 2ae3 8bbe 6c3e c93c
00000250: 5467 96bd e37f 3dbc 15fe 9f3d d8e2 65bd
00000260: e416 373e cfdc b7bd ca50 e7bd 5544 023e
00000270: 3c99 9e3d 1e69 443e 0212 0c3e 9d6f 88bd
00000280: 8b39 0e3d 80f0 3b3e a7f8 2dbe 81a3 b93d
00000290: 1590 0abd 679c aabd 2a44 b3bd ff6a 913b
000002a0: 6517 94bd 3369 773e 4de9 973d 41f1 bb3d
000002b0: 83b7 b53d 5b37 12be bae2 333e c9c0 8fbe
000002c0: 4189 533e d335 5cbd 891b 593e f4a4 94be
000002d0: 693e ad3b d6d4 dbbb 4183 cf3d beed 263e
000002e0: 8535 a53d 4f6c 42bd 8db9 e53c 8333 00bd
000002f0: bedc 89bd 2151 d53d e9d6 cdbd 77c9 033e
00000300: 4c27 9f3e 7fde c13c c775 7f3e 0d70 863e
00000310: a07c 8a3d bee3 823d e447 10bd ab23 5abd
00000320: 3f98 323e 51cd bfbd 9259 503e 6d2b e1bd
00000330: 5f6f b3be 5304 00be eb77 273e c566 2d3c
00000340: c7b6 aabd 35cd b3bd d73e 7ebc 339b 533e
00000350: 0cf9 30be 4383 d13d 8eb9 4d3e b2d5 173e
00000360: 2e59 453d 8048 123d a9e1 253e f489 0e3e
00000370: f210 c63c b404 0fbe f401 f5bd 1959 88bd
00000380: 88d2 d9bc b93c cabd bfcf 2bbd 1f10 09be
00000390: 9242 4cbd c09a acbe c074 853d 98d6 7d3d
000003a0: 8e0e 2f3d f138 963d 1839 12be 44de 56be
000003b0: de34 863e 8c8c 323d 2aaf 793d 3397 af3e
000003c0: 3374 7a3c 232a 18be bdfe 093c cc3c 8f3e
000003d0: 554b aebd 53a9 13bb 49c7 8b3d 73c9 883e
000003e0: 8939 d3bd 2f1e b5bd 9c9c 8abd 870b 57bd
000003f0: 8bbc 40be 7960 443e c137 a8be cd3f c83d
-0.15286617 0.072563015 -0.13977769 0.13564071 -0.21788718 -0.118729346 0.23323621 -0.031902067
-0.028932342 -0.12603778 -0.240638 0.27856007 0.08333096 -0.07817209 0.2483617 -0.0033139284
0.16449443 -0.022309931 0.12218605 0.13286237 0.057799034 -0.092586845 0.014525228 -0.1395169
0.15397438 -0.29270768 -0.00763541 -0.20678999 0.31431717 -0.1925535 -0.07206475 0.35576943
0.3040528 0.24972732 0.32893753 -0.18399687 0.15662871 -0.06431214 0.0095881205 0.09733488
0.019476159 0.10042817 -0.0075041647 0.39013198 0.13279612 0.025626056 -0.18226033 0.31915843
-0.22420534 0.026340032 0.10965608 -0.17657232 0.112746656 -0.109360404 -0.37272382 -0.107439496
0.06913103 -0.12685865 0.17331608 -0.08063325 0.052480556 0.22411664 0.007679815 0.027345112
-0.03948915 0.13108352 -0.091155864 0.17556651 0.0028944174 -0.15910049 -0.08804282 -0.02532909
-0.18118782 -0.096657045 0.009330506 -0.21598515 0.24725226 -0.120594785 0.03524529 -0.07819205
-0.08820457 0.13444847 0.061181553 0.06192458 -0.05323658 0.054761853 0.111411065 -0.11220688
0.072319806 0.19340459 -0.23851123 -0.13566223 0.22431335 -0.037764817 0.25932723 0.23714001
0.09005448 0.024089694 -0.22060627 0.19222303 0.18623056 -0.338272 -0.12171076 -0.31488705
-0.09245408 0.32015422 0.026459249 -0.41101184 -0.049446557 -0.22420563 -0.08484644 0.060506087
-0.339153 -0.121077865 0.027893502 0.16204675 0.097752795 0.12039237 0.017078115 -0.05740737
-0.43374956 0.23755828 0.03179858 0.035647172 -0.4596523 -0.1072718 0.08850722 -0.1111987
0.29760548 -0.5358255 -0.28990296 0.128895 0.20791681 0.10259526 -0.023210932 -0.32511184
0.40428832 -0.07197606 -0.18493697 0.147526 -0.26414493 -0.060969915 0.109206416 0.22471622
0.31994575 -0.06928444 -0.2732175 0.024565898 -0.07343927 -0.011566135 0.07812134 -0.05612454
0.17879826 -0.08977663 -0.11294706 0.12721379 0.07744071 0.19180724 0.13678744 -0.066619135
0.034722846 0.18353462 -0.16989385 0.09064389 -0.033828814 -0.08330613 -0.08753236 0.0044378038
-0.07231025 0.24161224 0.074175455 0.09176875 0.08872893 -0.14278929 0.17566958 -0.2807677
0.20657827 -0.05376227 0.2120191 -0.290321 0.005286981 -0.0067087216 0.101324566 0.16301629
0.08066849 -0.047466572 0.02804258 -0.031299125 -0.06731556 0.10415865 -0.100507565 0.12869821
0.3108467 0.023665665 0.24947272 0.26257363 0.067620516 0.063910946 -0.03522481 -0.053256672
0.1744089 -0.09365333 0.20346668 -0.10994611 -0.35045907 -0.1250165 0.16354339 0.010583584
-0.08335643 -0.087793745 -0.015517912 0.20664673 -0.17282504 0.10230114 0.20090315 0.14827612
0.04818075 0.035713673 0.16199364 0.13919812 0.024178002 -0.13966638 -0.11963263 -0.06657619
-0.026589647 -0.09874863 -0.04194617 -0.13385056 -0.049868174 -0.33711815 0.06516409 0.06197223
0.04273849 0.073350795 -0.14279592 -0.20983225 0.2621221 0.043591067 0.060958065 0.34295043
0.015286493 -0.14859824 0.008422551 0.27976072 -0.08510462 -0.0022531345 0.0682512 0.26716194
-0.10313708 -0.08843648 -0.06768152 -0.052501228 -0.18821923 0.19177426 -0.32855037 0.09777794

bias_ih_l1 f4 [100]
00000000: 3164 4d3d cb23 b23e 455e 393e 9e3f 7b3e
00000010: 614f 503e 82ee 363e af6a 8d3e 6fda 953c
00000020: 4fe9 543e 52e4 82bd 8c5c bfbd 4ab9 2c3e
00000030: 660e 4bbd 93a5 e33d d879 ecbd 2b1f 383e
00000040: 0f0a aa3e 37dd 223e 7eb3 c33d d316 483e
00000050: 0ea8 ad3e d226 653e d8a4 04be efa7 1c3d
00000060: fcc8 333e b916 81be 09be 8ebe 4767 97bd
00000070: da04 96be f9e5 bfbd 1678 f0bb d471 97be
00000080: e97f a9bd e18a 5fbd 7658 88be 8225 91bc
00000090: f031 ed3c 51bf 72be 2f7c abbd e0bf cebc
000000a0: 6c5d 433d 1803 9abe 1af9 1abe a9b9 243d
000000b0: 8884 35be 14e2 9dbd c94b 723d 3de3 d5bd
000000c0: 9fa6 95be dd5d 9dbe 2bf5 cf3c dbb5 313d
000000d0: 5a90 a43b d511 18be 18d8 b4bc 26e5 143d
000000e0: db30 433c 234c 81bd 8167 00be 0dea 383d
000000f0: 6c6a d03d 7083 28be 6761 bdbb 39dc 06bd
00000100: 67d8 9f3d 14a7 46bc 1fc4 77ba 5d05 de3d
00000110: 7c45 2c3c d0c6 c0bc 9682 7a3c 22ec ba3d
00000120: cf94 f03d bb86 fe3d 1181 59bd 7280 6a3e
00000130: 342d 873d 0faa a2bb f66b 843e 896c f5bc
00000140: 953f 713e ea12 d63d 0427 b1bc ee2e d33d
00000150: 1125 9f3c 22a7 e03d e5ce bc3d 5870 7a3e
00000160: 99fd 663d 6771 b13d b80b 573d dd96 883e
00000170: f3ec bf3e 0234 bcbd b5df 6b3d daaf 3b3e
00000180: 86f2 293e b8fd 373e 5d5e 443e f3a3 523e
0.050144378 0.34792933 0.18102367 0.24535987 0.2034278 0.17864421 0.27620456 0.018292634
0.20792125 -0.06391205 -0.09343824 0.16867557 -0.04957428 0.11115565 -0.11546677 0.1798064
0.332108 0.159047 0.0955572 0.19539957 0.33917278 0.2237809 -0.12953508 0.03824609
0.17557138 -0.2521265 -0.2787936 -0.073927455 -0.29300576 -0.09370036 -0.007338534 -0.2957903
-0.0827635 -0.054575805 -0.2662999 -0.01771808 0.028954476 -0.23705794 -0.083732955 -0.025237978
0.047696516 -0.30080485 -0.15134087 0.04021612 -0.17726338 -0.077091366 0.059154306 -0.10443733
-0.29228684 -0.30735675 0.02538546 0.04338632 0.005022091 -0.14850552 -0.022075698 0.036351345
0.0119135035 -0.0631335 -0.12539484 0.045145083 0.10176548 -0.1645639 -0.0057794335 -0.032924864
0.07804947 -0.0121247955 -0.00094515266 0.10840867 0.010514613 -0.023532301 0.015289923 0.0912707
0.11747133 0.124280415 -0.053101603 0.2290056 0.06600419 -0.00496412 0.25863618 -0.02995898
0.23559411 0.10452826 -0.02162505 0.103116855 0.019426854 0.10969378 0.092191495 0.24456918
0.056394193 0.08664208 0.05250141 0.266776 0.37485465 -0.09189607 0.05758639 0.18328801
0.16596422 0.1796788 0.19176622 0.20570354

bias_hh_l1 f4 [100]
00000000: c479 8a3e 1936 7abc 044f 46be cf75 2b3a
00000010: 6df9 edbd e8e8 7a3e 23b8 f63d cb0a 753c
00000020: 0c75 e13c 9308 a33e adc5 47bc e549 f1bd
00000030: d8ef 943e f51d 1e3e 7931 b23d f687 35be
00000040: 8a24 9e3d 7420 8f3e 7e32 1a3c b871 733e
00000050: 45eb c73e e6e2 ab3e a54a d83d cc0c 943e
00000060: 7f06 953e 7684 92be cf98 dcbc 6414 9bbe
00000070: c0e1 67be 7c09 23be 4b6e 88be ea3c 3dbd
00000080: 71d0 10be 634b 77be d78b b5be 1102 3fbd
00000090: c155 00be 340e 8abe 8ae5 aabc a256 5bbe
000000a0: 99ed e8bd d468 43be 13b7 66be ed01 a0bd
000000b0: 3163 4cbe f20f 15be 6560 f63d d7f2 acbd
000000c0: 9c37 88be 7c32 3d3b e6fb 45bd 04d2 86bd
000000d0: 12cc 24bd 141f 033e b41b 9dbb 5a5d 6fbd
000000e0: bceb 593c 49ee 613d 2063 063e 566c a33c
000000f0: 6f66 a4bd 280f 0c3e fbd4 3b3d df20 b4ba
00000100: 9443 cdbd e9e2 cdbc b467 473c fe4f b8bd
00000110: 025b 223c 822a 1f3d 9fa1 83bb 1706 c4bd
00000120: fedd b6bd 7c11 e6bd b57c 003d fc90 953e
00000130: 180f a93e 9708 bb3d c3b8 05bc 0b52 1e3d
00000140: 1d04 863d ab2b 783e d5ce 8d3e cc3c db3e
00000150: 082e a23d a872 d83c 1ced 5e3e e189 993e
00000160: b63c 683b a3fc 77bd 35ba 29be f335 473e
00000170: c048 313e b2e9 e1bd 2258 a83e 6183 783e
00000180: 9f10 853b 789a 0b3d 7280 c8ba 9524 953e
0.27046025 -0.015271687 -0.1936608 0.0006540687 -0.1161984 0.24502909 0.1204684 0.0149561865
0.027521633 0.3184248 -0.012193126 -0.117816724 0.29089236 0.15441115 0.087008424 -0.17727646
0.07721813 0.27954447 0.009411452 0.23773849 0.39046684 0.33571547 0.10561112 0.28916013
0.2910652 -0.28616685 -0.026928334 -0.30288994 -0.2264471 -0.15921587 -0.26646647 -0.04620067
-0.14142014 -0.24149852 -0.35458252 -0.04663283 -0.12532713 -0.2696396 -0.020861406 -0.21419767
-0.11373443 -0.19082958 -0.22530775 -0.07812867 -0.19959714 -0.14556864 0.120301045 -0.084447555
-0.26604927 0.0028869202 -0.048335932 -0.06583026 -0.04023368 0.12804824 -0.0047945622 -0.058438636
0.013300832 0.055158887 0.1312375 0.01994912 -0.0802735 0.13677657 0.04585741 -0.0013742707
-0.10022655 -0.025132613 0.012170721 -0.08999632 0.009909393 0.038858898 -0.0040170695 -0.09571474
-0.089290604 -0.11233804 0.03136893 0.29212177 0.33019328 0.09132498 -0.008161726 0.03865246
0.06543753 0.24235408 0.27696863 0.42819822 0.07918936 0.02642186 0.21770138 0.29988006
0.0035436577 -0.060543668 -0.16574939 0.19454174 0.17312908 -0.11030902 0.3287974 0.24268867
0.0040608193 0.03408286 -0.0015297069 0.29129472

weight_ih_l2 f4 [100, 25]
00000000: 3798 8cbd 50b1 463e 9f85 c6bd a980 bf3c
00000010: 69fd 88bd 2614 88be df47 30be 6899 223e
00000020: 0130 a83d 467b eabc e259 5abd c699 b73c
00000030: d083 e4bd cbc3 8e3d 750b 0dbe 1989 8fbc
00000040: 8ccd 3bbe 3de9 e3bd eeff 613c e31f 4c3c
00000050: 92d9 4a3e 4d11 35be c7a8 703d ad67 003e
00000060: 34d8 303e bfb0 23be eb17 513e 4f14 6bbe
00000070: 3c74 2d3e b041 25be 694b 38be 80b5 4b3d
00000080: da59 7a3e cbce e2bc 700a e03d 2776 f7bd
00000090: 08c2 f33d 01af 123e 391c 25be 01b9 83bc
000000a0: 6370 32bd 0b61 51be f20b 21be 201c 15bd
000000b0: 87ce 443e 93b0 383e 3745 a8be c0bc 26be
000000c0: 03ec 51be fd4e 133e 7b83 1dbc 8b3e 1c3e
000000d0: 465f 49be 3c8f 783e 6954 a13c b5ff b1bd
000000e0: e94a 113e 1736 513e 9390 5b3e a76b 393e
000000f0: 4738 e93d 9998 a0bd d62d 463e e571 50be
00000100: 5c8a ae3c 1e29 4e3d 76d6 98be 3fe2 28be
00000110: 4049 a7bd b851 303e 7605 873e c939 11be
00000120: 9adc 1c3e 6287 87be dc8e a03d a61e 4bbe
00000130: 6127 5e3e 9862 89bd 6372 573d 71ae 10be
00000140: 896e 63be 284e 8fbc f7d8 653e 45ca 3d3e
00000150: 1d9a 923d 4733 c5bd 0866 303e a947 983e
00000160: bf6e d0bb 8a64 15bd a7ff fc3c 3c81 a43d
00000170: b378 b7bc d8f3 9a3d c916 ccbc 9211 693e
00000180: ca55 05be 2c15 c83d 4204 f1bd 049a 873e
00000190: 92da 20be f54a 89bc 356b 2dbd 8934 203e
000001a0: 0c43 1dbe bc5e 6bbe 4764 853e 52ed 813e
000001b0: 2a61 a23e 5bda a43e ff07 5abb 1f66 313e
000001c0: bc48 043e c16e 28be 26f0 813d c8c0 59be
000001d0: 596d 30bd f84a 9dbe 172e f53c f7a2 f73d
000001e0: 3608 143e 1fe0 b3be 7766 bb3c 869e 40be
000001f0: 6079 ca3a 78b6 0fbe 92e5 30bc f0cf 38bd
00000200: 2f59 223e 4223 81bc 84be e6bd aa60 e53c
00000210: 2bf4 883d c1ea e53d 65b0 a63d d5aa 13bd
00000220: f7d2 c73d 6aa1 de3d b64c 473c 3a6e 6fbd
00000230: 10e2 5cbe 3e32 0abd f8f2 0d3d 44ce e23c
00000240: 08e1 38bc fb8b 313e db74 89be 30bb 6b3e
00000250: 610a 56be 6944 9c3e 3017 7bbe 2f8a 4dbc
00000260: a4fd ea3d e461 3d3e 0688 dabd 308a 1e3d
00000270: 80c9 113e f555 7d3e 79da 033e 67e5 823c
00000280: 92b3 cf3d 96cc 7a3e e884 833d e6f2 41be
00000290: 5083 4bbb 8781 5fbe 01f1 93bd 4122 1cbe
000002a0: 59df 98bd 3111 683e 6284 673e 5350 a3be
000002b0: 02ad 843e 8415 9fbe 9eff 85bd 92b8 dfbd
000002c0: de95 5f3e 8e82 55be fee1 9fbc d701 2cbe
000002d0: c351 28bd 25bc 0c3e 1846 89bb ac18 093e
000002e0: 8257 ba3d c43d 653d 46f8 4b3e 8aa2 623d
000002f0: ab6f 94be ac31 0dbc 7f48 a93b ebfb 52be
00000300: 4f54 a93d 980a 183e b173 363e 458b 753e
00000310: e12e 94bd 1a29 f63d 47ae 7fbc 627b 823e
00000320: 93ef bf3d 0018 973e f042 093e 9953 20be
00000330: b4d1 f43e 7504 e63d dc59 3c3e 17d8 713c
00000340: df2b c9ba b3dd 3b3e b562 b73d 2703 fc3d
00000350: fb2c 84bd d31a 543d b5a4 3b3d bb1c 173e
00000360: 510b f83d 57e0 6abd 14f6 1b3e 8e46 093e
00000370: 2727 7dbd f94f 4bbe c7cb 24bd e6c1 873d
00000380: 58e8 663e 961f d3bd 7908 0b3e 9cc1 cf3d
00000390: 5df9 593d ad6c f8bd fe95 dd3c 223f ff3d
000003a0: aeb0 703e 0a0f 663d d40e b1bc 8353 d23d
000003b0: eb6d c63d 43fa cdbd e696 333b 29a1 5f3e
000003c0: c159 e7bd 8c63 cebd 0c79 62be 2b6f 863e
000003d0: f9fc 333e dd74 bb3e 7c9a 65be 8314 a7bc
000003e0: 80d4 143b fcf4 a9bc c432 a9bd b549 a3bc
000003f0: 33b7 7a3d a8f8 a33d c67c 86bd f81b 35be
-0.0686497 0.19403577 -0.09693455 0.02337678 -0.06688959 -0.26577872 -0.17214917 0.15878832
0.08212281 -0.028623234 -0.053308375 0.022412192 -0.11157954 0.06970938 -0.13773902 -0.017521428
-0.18340129 -0.11128471 0.013793929 0.012458774 0.19809559 -0.17682381 0.05875471 0.12539549
0.17269975 -0.15985392 0.2041928 -0.22956966 0.16938871 -0.16138339 -0.17997517 0.04973364
0.24448338 -0.027686497 0.10939491 -0.12083083 0.11902243 0.14324571 -0.16124047 -0.016079428
-0.04356421 -0.20447175 -0.15727213 -0.036403775 0.19219409 0.18036108 -0.32865307 -0.1628294
-0.20500188 0.143856 -0.009613867 0.15258233 -0.1966525 0.2427339 0.01969357 -0.0869135
0.14188732 0.2043079 0.2144187 0.18107472 0.11387687 -0.07841606 0.19353423 -0.20355947
0.02130621 0.05033218 -0.2985112 -0.16492556 -0.08168268 0.17218673 0.26371354 -0.141822
0.15318528 -0.26470476 0.07839748 -0.1983591 0.2169471 -0.067082584 0.052599322 -0.14129044
-0.22210135 -0.017493322 0.22446047 0.18534191 0.07158301 -0.09628921 0.17226422 0.29742172
-0.006360858 -0.036472835 0.030883623 0.08032462 -0.022396421 0.07566041 -0.024913209 0.22760609
-0.13021007 0.09769663 -0.1176839 0.26484692 -0.15708378 -0.016759375 -0.04233857 0.1564504
-0.15357608 -0.22985357 0.26053068 0.25376374 0.31714755 0.32197842 -0.0033268926 0.17324112
0.12918371 -0.164485 0.06344633 -0.21264946 -0.043073032 -0.3072126 0.029929204 0.1209163
0.14456257 -0.35131928 0.022876007 -0.18810472 0.001544755 -0.1403445 -0.010796921 -0.04512018
0.15854333 -0.015763883 -0.11266807 0.028000195 0.06687196 0.112264164 0.08139113 -0.03605159
0.09757035 0.10870631 0.012164285 -0.05845473 -0.21570611 -0.03373932 0.03465554 0.027686246
-0.01128412 0.17338555 -0.26846966 0.23020625 -0.20902397 0.30520943 -0.24520564 -0.012545153
0.11474159 0.18494374 -0.10670476 0.038706005 0.14237022 0.24739821 0.1287631 0.015978528
0.10141672 0.24492106 0.06421834 -0.18940315 -0.003105361 -0.21826755 -0.07223702 -0.15247442
-0.07464475 0.22662808 0.22609094 -0.3189722 0.25913244 -0.31071103 -0.06542896 -0.10923876
0.21834514 -0.20850584 -0.019516941 -0.16797577 -0.0410936 0.13743646 -0.004189264 0.13388318
0.09098722 0.055967107 0.19918928 0.05533079 -0.28991446 -0.0086178 0.005166113 -0.20603912
0.08268034 0.14847791 0.1781757 0.23978908 -0.07235504 0.12019558 -0.015605516 0.2548476
0.09371867 0.29510498 0.13404441 -0.1565689 0.4781624 0.11231319 0.18393654 0.0147609925
-0.0015348158 0.1834629 0.08954374 0.12305289 -0.06453892 0.051783394 0.045811374 0.14757054
0.121115334 -0.057342853 0.1523059 0.1340582 -0.061804917 -0.19854726 -0.0402334 0.0662878
0.2254957 -0.10308759 0.13577451 0.1014435 0.053216327 -0.12130103 0.02704906 0.124632135
0.23504898 0.056166686 -0.021613516 0.10269835 0.09688934 -0.10057499 0.0027403175 0.21838821
-0.11296416 -0.10077581 -0.22116488 0.2625669 0.1757697 0.36612597 -0.22422212 -0.020395523
0.0022709668 -0.0207467 -0.08261636 -0.019932607 0.06120987 0.08006412 -0.065667674 -0.1768645

weight_hh_l2 f4 [100, 25]
00000000: 4003 85bd 89c1 ad3c 58ba 39bd 7964 fe3d
00000010: 8a36 c03d 7adf 29bd 4d8a 283e 83ab 1e3e
00000020: 531f 173e 26de debd ea2d 543e 5a0c 073e
00000030: ca0a dabd 1df8 053e 0a6e b6bc bee2 d03c
00000040: 6b50 9b3d d3ef 94bb 052b 903b 8943 293e
00000050: e08a 0ebd 948f 793d 2287 bcbd 1b50 14be
00000060: a9ae 2d3e 7a1b b6bd 0516 9e3d 24b4 793d
00000070: 38c3 103e c2db 9b3c f8c2 f4bd 20a3 ccbd
00000080: 99b2 5dbd cf16 babd 7259 3a3e ae22 203e
00000090: df49 493d b996 c03d 9592 13bd f5f7 27ba
000000a0: 5568 4c3e 1c5a 06be c590 20be f71c a9bd
000000b0: f494 d63d da4a 3abd b168 013e 4da3 f13d
000000c0: 19b4 14be fb39 5bbe 5aa6 d13d 8c6c f5bd
000000d0: e211 513e 10ca 373e 3e8a a4bd a41a 2e3e
000000e0: b1e2 af3d dda9 aabd 515f 1b3e ef37 2c3e
000000f0: e87b eebc 6c8a 80ba 7c00 493e 3ccc bbbd
00000100: 0604 b7bb 4220 033e b055 283e 1243 f2bd
00000110: e513 2b3e e0e7 1a3e dba2 a23d 914b dbbd
00000120: 01ae c33d 0ba8 43be ade3 b4bd 6ec5 28bd
00000130: 3a05 523d 95c8 59bc d432 90bd cf0f 2ebe
00000140: e5a4 263d c6f3 51bd 7e56 4cbe fe2b 733e
00000150: 7de3 fdbd 0b93 e7bc c400 1f3d f3c1 b9bd
00000160: 7350 123e e7a6 903d ac4c 413e 1a94 13be
00000170: c656 123d 9d9b 7b3e c8c2 cf3d b78d 9cbd
00000180: df70 bb3d add5 13be afd9 613d 1f88 7d3d
00000190: b96c 0b3d e825 65bd 49ae e3bd 3b2a 94bd
000001a0: 9276 873d 6a3c 81bd a5e5 8e3d 2510 053e
000001b0: 33fb 493d 125d 18bd 2a05 3dbd 2e21 4abe
000001c0: 8f9e a3bb cbee 103e e045 8fbc b285 933e
000001d0: 307d 473d df98 46be 1259 a53d 83fb c03c
000001e0: b230 c23d 80b0 82be 4727 523e c01c 5b3e
000001f0: 8bce c9bd 4222 16be dcbc 2e3e 08ba e9bd
00000200: c2c9 073e 3d7e 9a3c f206 ba3d 4040 ed3d
00000210: 02fa 2e3e b9a8 263e 495c 26be aa1d 5ebe
00000220: 359f a1bd f627 383e 94e8 fc3d 3b06 b83d
00000230: 5677 063b 6ed8 8ab9 ad0b 0b3e a790 073c
00000240: bad7 233e fb8c 08be 6a45 0abe e1f1 e2bd
00000250: 3b97 903d d1bf 9dbb 1b00 05bd 7ca0 163e
00000260: 6671 31be 1e7f 51bd 9bb7 533d f020 2dbd
00000270: f8dc 31be 67e5 cd3d 648f 8abc 553c 713d
00000280: af2d 5fbe 7ad2 aebd 30ba b43d 7dc0 a3bd
00000290: cedb c53d c3c4 2c3b d901 853c 6c94 cebd
000002a0: 8753 bbbd 80b7 1bbe cbdb 0c3c 7b44 f23d
000002b0: 5409 c5bd 2d73 38be 4f2b 1dbe c057 f23d
000002c0: 7185 d7bd a796 1c3e a7b5 b3bd cda3 c1bd
000002d0: 2e15 9cbc 3d8d f4bd 4495 42be 4842 143e
000002e0: dd0a fe3d 3020 01be 74dc 013d 5dae 9d3d
000002f0: 9341 593d 119c 1cbd 031d 063d ea01 b4bd
00000300: c5e6 b83d 1986 353d 3496 453e 4572 0abe
00000310: bcce 0f3d 7f08 ffbd 5acc 38bd 2b43 953d
00000320: d505 0cbd 54b9 4bbc ba21 143e c61f ef3d
00000330: e09e f33d 3973 28bc 12ee 163e 3be1 a4bd
00000340: e7f7 4cbb 0745 afbd 0fb9 563e c398 30be
00000350: d023 21be 636b bd3d 1b59 21be 0327 a33a
00000360: 720e 50bd ee56 75be 42d5 933d 3095 683d
00000370: d694 0ebe 5358 1fbe 558c 263e 438e b7bd
00000380: e246 01bd e415 56bd f032 1dbe 2c37 443e
00000390: 4dd7 10bd 9c4e 0bbd eb8c 03bc 9b72 ab3d
000003a0: d96d d3bd 30f1 8a3e bcb4 dcbc d2eb a23d
000003b0: c04d 473d 1370 febd e269 703d 2942 5e3e
000003c0: 5fc7 a3bd 0dff ff3d 4782 103d c316 5cbd
000003d0: b51f d8bd ddc3 6e3e aea8 67be b053 d33d
000003e0: b1e7 eebd 8d89 803d 2c42 6dbd e600 2dbe
000003f0: 036a 0a3e 0dd9 20be 4f23 3a3e 09e3 803e
-0.064947605 0.021210449 -0.045343727 0.124215074 0.093854025 -0.04147289 0.16459008 0.15495114
0.14758043 -0.10882215 0.2072064 0.13188305 -0.10646589 0.13082929 -0.022269268 0.025498744
0.07583698 -0.004545191 0.0043996596 0.16529669 -0.03480041 0.060927942 -0.09205462 -0.14483683
0.16961159 -0.088919595 0.07719044 0.06096281 0.1413697 0.019025687 -0.1195125 -0.09992051
-0.054125402 -0.09086382 0.18198183 0.15638229 0.049142715 0.09403748 -0.036028463 -0.0006407493
0.19961675 -0.13120311 -0.15680225 -0.08257478 0.10477629 -0.04548154 0.12637593 0.11798725
-0.14521827 -0.21408837 0.10236807 -0.11983594 0.20416978 0.17948174 -0.0803418 0.1700235
0.0858816 -0.0833318 0.15173079 0.16818212 -0.029111817 -0.0009806878 0.19629091 -0.09169814
-0.0055851964 0.12805274 0.16438937 -0.11829199 0.16706808 0.15127516 0.079412185 -0.107077725
0.09554673 -0.19107072 -0.08832488 -0.04120391 0.051274516 -0.013292451 -0.07040945 -0.16998218
0.0406846 -0.05125787 -0.19954869 0.2374725 -0.123969056 -0.028268358 0.03881909 -0.09070196
0.14288501 0.07063084 0.18876904 -0.14411965 0.035727285 0.2457108 0.101445735 -0.076442175
0.09152388 -0.1443698 0.05513924 0.061897393 0.034039233 -0.055944353 -0.11117227 -0.07234617
0.06614412 -0.06310351 0.06977395 0.1299444 0.049311828 -0.037198134 -0.046147503 -0.1973922
-0.004993267 0.14153592 -0.017489374 0.2881294 0.048703372 -0.19394253 0.080736294 0.02355743
0.09481944 -0.25525284 0.20522796 0.21397686 -0.09853848 -0.14661506 0.17064232 -0.11412436
0.13260558 0.018859023 0.09083356 0.1158452 0.17087558 0.162753 -0.16246141 -0.21691003
-0.078916945 0.17983994 0.12349048 0.08985563 0.0020517907 -0.00026482664 0.13578673 0.008274234
0.16000262 -0.1333503 -0.13503042 -0.11081291 0.07060095 -0.004814126 -0.032470804 0.14709657
-0.17328414 -0.05114662 0.05168877 -0.04226774 -0.17369449 0.10053521 -0.016914077 0.058895428
-0.2179477 -0.08536239 0.08824575 -0.079956986 0.09661065 0.0026362396 0.016236233 -0.10086903
-0.09146791 -0.15206718 0.008597325 0.11829468 -0.0962092 -0.18012686 -0.15348552 0.11833143
-0.10523499 0.15291844 -0.08774882 -0.09455071 -0.019053068 -0.119410016 -0.19002253 0.1447841
0.12404416 -0.12609935 0.03170438 0.07699273 0.053041052 -0.038234774 0.03274251 -0.087894276
0.09028391 0.04431734 0.19295579 -0.13520153 0.035109267 -0.124527924 -0.04511676 0.07288202
-0.03418525 -0.012434322 0.1446599 0.11675982 0.118955374 -0.0102813775 0.14739254 -0.08050772
-0.003127569 -0.08558088 0.20969032 -0.17245774 -0.15736318 0.09248998 -0.15756647 0.001244754
-0.050795026 -0.23958942 0.0721841 0.0567829 -0.13923964 -0.15561037 0.1626447 -0.08962681
-0.03156174 -0.05226697 -0.15351462 0.19161671 -0.035361577 -0.034010515 -0.008029203 0.08371469
-0.10323686 0.27137136 -0.02694165 0.079551354 0.048658133 -0.1242372 0.058694728 0.21704926
-0.079970114 0.12499819 0.035280492 -0.053732645 -0.10552923 0.23316903 -0.2262294 0.103186965
-0.116652854 0.06276236 -0.057924435 -0.16894874 0.13517003 -0.15707798 0.18177532 0.25173214

bias_ih_l2 f4 [100]
00000000: 2eef 3dbd d7f0 ab3d da67 1e3e 70bc 04be
00000010: 66b0 df3d 95ac f93d eafa 5ebd 1027 07bd
00000020: 6868 463d fad1 69bd 717e 13be e7a6 f83d
00000030: ee23 4d3e be07 e4bc 7eae 423e a087 d93d
00000040: e55c b73d 2eec 313e 826b cabc eeec 183e
00000050: 9875 8ebd 78b6 fdbd 306b 563e b936 023e
00000060: e55c 5c3d 6a3b d6bd 09bd b8be c032 86be
00000070: 1cf7 983d 879f 79bd c02f 903d 4d46 53be
00000080: da4e b03d 87d8 c4be 48d5 1cbe 9a13 acbd
00000090: aaf6 85be b75e 123d c68c a0be e193 a1be
000000a0: 9416 b2be bd9c c1bd 0782 8f3c 11b4 eb3c
000000b0: c35b 3a3d c0ae 41be 7d14 533c b435 17be
000000c0: e388 edbd f719 98bd fafa b6bb d44b eebd
000000d0: 11eb a73d 96a3 2abe 8ee1 32bd 8fc3 233e
000000e0: f750 323c 1865 80bc 734c 833b 822b 4abd
000000f0: 34cf 143d f464 743c b743 01be 5978 853d
00000100: 4333 2a3e 38f7 09bd 54a5 893d 5515 40bb
00000110: 7627 a03c ad2f 88bc deb4 833c 25b9 b4bb
00000120: 8544 bb3d d3c0 73bd 9cd1 78bd ab47 6bbd
00000130: 2b90 6abd fa9e 833b 07a6 503e a15c 8e3e
00000140: 025b f6bd ae18 333e 6f2b 8cbd 5a11 c6bd
00000150: 0002 2c3d 36af 273d ee0a ab3e ab2e f7bc
00000160: 24c2 d03d 4160 b13c 366f 833e 40fb 8d3d
00000170: 2c51 963e 7905 583e 5f31 c6ba 4e28 4d3e
00000180: bb4f 01be 9ae3 f53d 8640 0a3e 7546 763e
-0.046370678 0.08395546 0.15469304 -0.12962508 0.10922317 0.121911205 -0.05443851 -0.032996237
0.048439413 -0.057085015 -0.14403702 0.12141209 0.20033237 -0.027835723 0.19011876 0.106215715
0.08953265 0.17375252 -0.024709467 0.14934132 -0.06956023 -0.12388319 0.20939326 0.12716188
0.05379953 -0.10460551 -0.36081722 -0.26210594 0.074690074 -0.060943153 0.070403576 -0.20632286
0.0860879 -0.38446447 -0.15315735 -0.08402176 -0.26164752 0.03573486 -0.31357402 -0.31558135
-0.3478285 -0.094537236 0.017518057 0.028772386 0.045497667 -0.18914318 0.012883303 -0.1476658
-0.11598375 -0.074268274 -0.005584118 -0.11635557 0.08199132 -0.16663966 -0.043672137 0.15992568
0.010883561 -0.015673205 0.004006916 -0.0493579 0.036330417 0.014916647 -0.12623487 0.06517095
0.16621117 -0.03368303 0.06720987 -0.002930959 0.019550066 -0.016624296 0.016077455 -0.005515235
0.091439284 -0.059510063 -0.060746774 -0.057441395 -0.057266396 0.004016754 0.20375834 0.27805045
-0.12029077 0.17489883 -0.06844222 -0.09671278 0.041994095 0.04093858 0.33406776 -0.03017362
0.101932794 0.021652343 0.25670785 0.06932688 0.29358804 0.21095838 -0.0015120915 0.20034906
-0.12628071 0.12006302 0.13501176 0.24050315

bias_hh_l2 f4 [100]
00000000: 6fd6 74bd a584 423e f54a 42bd 9c7d 523e
00000010: 4442 42bd ad7d 9fbc 142e d43d 37a5 e1bc
00000020: aeaa efbc f1ea e53d c9e4 d33d b5ca 8e3e
00000030: 9719 d63c 3814 153e ce8e afbd 7183 9d3d
00000040: cd7f 8fbd 964f 8b3d 52fa bcbd 9558 15bd
00000050: 2161 523b 300c 873d f8e0 0a3e e2bc fa3d
00000060: cf2b 58bd 592c af3d 71ab 54ba 3db4 9abe
00000070: e25c a8bc 2a11 c5be d768 12be 865a fb3a
00000080: 4ac3 033c d63b d1bc 70cd 94be 89d0 16be
00000090: 8761 30be dc13 7dbe b675 05be 6880 47be
000000a0: 51e2 83bc 2400 b9bc 05d8 8abe d80c 85be
000000b0: 2933 ecbb facc 31be 7599 1cbe 5df5 60be
000000c0: 0c3e f1bd 1017 b3bd 87a3 963c e814 053e
000000d0: b57f 74bd 374c 383e fa76 003d 66bf 0fbe
000000e0: 17c4 843b 9ee6 063c d733 903c c148 173d
000000f0: f6cd 3cbd df7c a93b b8c8 133e 9e36 c3bc
00000100: 6707 24be c56c 773c 7d95 2fbd 62da 3d3b
00000110: 4b08 02bc ba80 253d 6411 58bc 1e32 cebb
00000120: 2835 d5bd 237e 2f3d b0b0 773d 51a9 233c
00000130: eb49 f6bc 2f24 513e 267a 5f3e 5a3d 073e
00000140: f0fe d93b c22e 4b3c 2c69 833c 58fa 213e
00000150: b354 493e 4df1 e0bd 0020 983e 28d0 103e
00000160: 406f d23d 60c9 983e 05e7 793e cbaa 6b3e
00000170: 3a00 7d3e 790d 3a3e 01bc 6ebd 2b91 fcbd
00000180: 576b 4ebe 9115 2bbd ea58 d0bd 0d59 07bd
-0.059774812 0.18995912 -0.047434766 0.20555729 -0.047426477 -0.019469107 0.10360351 -0.0275446
-0.029256191 0.11226452 0.10346372 0.27889028 0.026135249 0.14558494 -0.0857216 0.07691086
-0.07006798 0.06802289 -0.09227432 -0.03646143 0.003210135 0.065941215 0.13562381 0.12243058
-0.052776154 0.085533805 -0.0008112705 -0.30215636 -0.020552102 -0.38489658 -0.14297806 0.0019176758
0.008042166 -0.025541227 -0.29062986 -0.14727987 -0.17224704 -0.24714607 -0.13033184 -0.19482577
-0.016099127 -0.022583075 -0.27117935 -0.25986362 -0.007208247 -0.17363349 -0.15292914 -0.21968599
-0.117794126 -0.08744633 0.018388523 0.12996256 -0.059692103 0.17997824 0.031363465 -0.14037856
0.004051696 0.008233694 0.017602844 0.036934618 -0.046094857 0.0051723565 0.14432037 -0.023829754
-0.16018449 0.015101616 -0.042867173 0.0028969278 -0.0079365475 0.040405966 -0.01318774 -0.0062925955
-0.104105294 0.042844903 0.060471237 0.009989099 -0.030064544 0.20423959 0.2182394 0.13206998
0.0066527054 0.012401285 0.01604136 0.15818155 0.19661216 -0.109835245 0.29711914 0.14141905
0.102751255 0.29841137 0.24404533 0.23014371 0.24707118 0.18169202 -0.058284763 -0.12332376
-0.20158134 -0.041768614 -0.10173209 -0.03304391
